{"format": "graph-model", "generatedBy": "2.9.0", "convertedBy": "TensorFlow.js Converter v3.19.0", "signature": {"outputs": {"Identity": {"name": "Identity"}}}, "modelTopology": {"node": [{"name": "model_1/tf.compat.v1.gather/GatherV2/axis", "op": "Const", "attr": {"value": {"tensor": {"dtype": "DT_INT32", "tensorShape": {}}}, "dtype": {"type": "DT_INT32"}}}, {"name": "model_1/tf.compat.v1.gather_1/GatherV2/axis", "op": "Const", "attr": {"dtype": {"type": "DT_INT32"}, "value": {"tensor": {"dtype": "DT_INT32", "tensorShape": {}}}}}, {"name": "model_1/tf.expand_dims/ExpandDims/dim", "op": "Const", "attr": {"value": {"tensor": {"dtype": "DT_INT32", "tensorShape": {}}}, "dtype": {"type": "DT_INT32"}}}, {"name": "model_1/tf.compat.v1.boolean_mask_2/boolean_mask/Reshape", "op": "Const", "attr": {"value": {"tensor": {"dtype": "DT_FLOAT", "tensorShape": {"dim": [{"size": "11640"}]}}}, "dtype": {"type": "DT_FLOAT"}}}, {"name": "model_1/tf.compat.v1.boolean_mask_2/boolean_mask/GatherV2/axis", "op": "Const", "attr": {"dtype": {"type": "DT_INT32"}, "value": {"tensor": {"dtype": "DT_INT32", "tensorShape": {}}}}}, {"name": "model_1/tf.__operators__.getitem_5/strided_slice/stack", "op": "Const", "attr": {"value": {"tensor": {"dtype": "DT_INT32", "tensorShape": {"dim": [{"size": "2"}]}}}, "dtype": {"type": "DT_INT32"}}}, {"name": "model_1/tf.__operators__.getitem_5/strided_slice/stack_1", "op": "Const", "attr": {"value": {"tensor": {"dtype": "DT_INT32", "tensorShape": {"dim": [{"size": "2"}]}}}, "dtype": {"type": "DT_INT32"}}}, {"name": "model_1/tf.__operators__.getitem_5/strided_slice/stack_2", "op": "Const", "attr": {"dtype": {"type": "DT_INT32"}, "value": {"tensor": {"dtype": "DT_INT32", "tensorShape": {"dim": [{"size": "2"}]}}}}}, {"name": "model_1/tf.__operators__.getitem_6/strided_slice/stack", "op": "Const", "attr": {"dtype": {"type": "DT_INT32"}, "value": {"tensor": {"dtype": "DT_INT32", "tensorShape": {"dim": [{"size": "2"}]}}}}}, {"name": "model_1/tf.__operators__.getitem_6/strided_slice/stack_1", "op": "Const", "attr": {"value": {"tensor": {"dtype": "DT_INT32", "tensorShape": {"dim": [{"size": "2"}]}}}, "dtype": {"type": "DT_INT32"}}}, {"name": "model_1/tf.__operators__.getitem_6/strided_slice/stack_2", "op": "Const", "attr": {"value": {"tensor": {"dtype": "DT_INT32", "tensorShape": {"dim": [{"size": "2"}]}}}, "dtype": {"type": "DT_INT32"}}}, {"name": "ConstantFolding/model_1/tf.math.truediv/truediv_recip", "op": "Const", "attr": {"dtype": {"type": "DT_FLOAT"}, "value": {"tensor": {"dtype": "DT_FLOAT", "tensorShape": {}}}}}, {"name": "model_1/tf.__operators__.getitem_7/strided_slice/stack", "op": "Const", "attr": {"value": {"tensor": {"dtype": "DT_INT32", "tensorShape": {"dim": [{"size": "2"}]}}}, "dtype": {"type": "DT_INT32"}}}, {"name": "model_1/tf.__operators__.getitem_7/strided_slice/stack_1", "op": "Const", "attr": {"value": {"tensor": {"dtype": "DT_INT32", "tensorShape": {"dim": [{"size": "2"}]}}}, "dtype": {"type": "DT_INT32"}}}, {"name": "model_1/tf.__operators__.getitem_7/strided_slice/stack_2", "op": "Const", "attr": {"dtype": {"type": "DT_INT32"}, "value": {"tensor": {"dtype": "DT_INT32", "tensorShape": {"dim": [{"size": "2"}]}}}}}, {"name": "model_1/tf.__operators__.getitem_3/strided_slice/stack", "op": "Const", "attr": {"value": {"tensor": {"dtype": "DT_INT32", "tensorShape": {"dim": [{"size": "2"}]}}}, "dtype": {"type": "DT_INT32"}}}, {"name": "model_1/tf.__operators__.getitem_3/strided_slice/stack_1", "op": "Const", "attr": {"value": {"tensor": {"dtype": "DT_INT32", "tensorShape": {"dim": [{"size": "2"}]}}}, "dtype": {"type": "DT_INT32"}}}, {"name": "model_1/tf.__operators__.getitem_3/strided_slice/stack_2", "op": "Const", "attr": {"dtype": {"type": "DT_INT32"}, "value": {"tensor": {"dtype": "DT_INT32", "tensorShape": {"dim": [{"size": "2"}]}}}}}, {"name": "model_1/tf.math.multiply/Mul", "op": "Const", "attr": {"value": {"tensor": {"dtype": "DT_FLOAT", "tensorShape": {"dim": [{"size": "1"}, {"size": "3880"}, {"size": "2"}]}}}, "dtype": {"type": "DT_FLOAT"}}}, {"name": "model_1/tf.__operators__.add/AddV2/y", "op": "Const", "attr": {"value": {"tensor": {"dtype": "DT_FLOAT", "tensorShape": {"dim": [{"size": "1"}, {"size": "3880"}, {"size": "2"}]}}}, "dtype": {"type": "DT_FLOAT"}}}, {"name": "model_1/tf.__operators__.getitem_1/strided_slice/stack", "op": "Const", "attr": {"value": {"tensor": {"dtype": "DT_INT32", "tensorShape": {"dim": [{"size": "2"}]}}}, "dtype": {"type": "DT_INT32"}}}, {"name": "model_1/tf.__operators__.getitem_1/strided_slice/stack_1", "op": "Const", "attr": {"dtype": {"type": "DT_INT32"}, "value": {"tensor": {"dtype": "DT_INT32", "tensorShape": {"dim": [{"size": "2"}]}}}}}, {"name": "model_1/tf.__operators__.getitem_1/strided_slice/stack_2", "op": "Const", "attr": {"dtype": {"type": "DT_INT32"}, "value": {"tensor": {"dtype": "DT_INT32", "tensorShape": {"dim": [{"size": "2"}]}}}}}, {"name": "model_1/tf.__operators__.getitem_4/strided_slice/stack", "op": "Const", "attr": {"dtype": {"type": "DT_INT32"}, "value": {"tensor": {"dtype": "DT_INT32", "tensorShape": {"dim": [{"size": "2"}]}}}}}, {"name": "model_1/tf.__operators__.getitem_4/strided_slice/stack_1", "op": "Const", "attr": {"dtype": {"type": "DT_INT32"}, "value": {"tensor": {"dtype": "DT_INT32", "tensorShape": {"dim": [{"size": "2"}]}}}}}, {"name": "model_1/tf.__operators__.getitem_4/strided_slice/stack_2", "op": "Const", "attr": {"dtype": {"type": "DT_INT32"}, "value": {"tensor": {"dtype": "DT_INT32", "tensorShape": {"dim": [{"size": "2"}]}}}}}, {"name": "model_1/tf.math.multiply_2/Mul/y", "op": "Const", "attr": {"value": {"tensor": {"dtype": "DT_FLOAT", "tensorShape": {}}}, "dtype": {"type": "DT_FLOAT"}}}, {"name": "model_1/tf.math.multiply_3/Mul/y", "op": "Const", "attr": {"dtype": {"type": "DT_FLOAT"}, "value": {"tensor": {"dtype": "DT_FLOAT", "tensorShape": {"dim": [{"size": "1"}, {"size": "3880"}, {"size": "2"}]}}}}}, {"name": "model_1/tf.math.subtract/Sub", "op": "Const", "attr": {"dtype": {"type": "DT_INT32"}, "value": {"tensor": {"dtype": "DT_INT32", "tensorShape": {}}}}}, {"name": "model_1/tf.__operators__.getitem_8/strided_slice/stack", "op": "Const", "attr": {"dtype": {"type": "DT_INT32"}, "value": {"tensor": {"dtype": "DT_INT32", "tensorShape": {"dim": [{"size": "2"}]}}}}}, {"name": "model_1/tf.__operators__.getitem_8/strided_slice/stack_1", "op": "Const", "attr": {"dtype": {"type": "DT_INT32"}, "value": {"tensor": {"dtype": "DT_INT32", "tensorShape": {"dim": [{"size": "2"}]}}}}}, {"name": "model_1/tf.__operators__.getitem_8/strided_slice/stack_2", "op": "Const", "attr": {"value": {"tensor": {"dtype": "DT_INT32", "tensorShape": {"dim": [{"size": "2"}]}}}, "dtype": {"type": "DT_INT32"}}}, {"name": "ConstantFolding/model_1/tf.math.truediv_1/truediv_recip", "op": "Const", "attr": {"value": {"tensor": {"dtype": "DT_FLOAT", "tensorShape": {}}}, "dtype": {"type": "DT_FLOAT"}}}, {"name": "model_1/tf.math.subtract_2/Sub", "op": "Const", "attr": {"value": {"tensor": {"dtype": "DT_INT32", "tensorShape": {}}}, "dtype": {"type": "DT_INT32"}}}, {"name": "model_1/tf.reshape/Reshape/shape", "op": "Const", "attr": {"dtype": {"type": "DT_INT32"}, "value": {"tensor": {"dtype": "DT_INT32", "tensorShape": {"dim": [{"size": "3"}]}}}}}, {"name": "model_1/tf.broadcast_to/BroadcastTo/shape", "op": "Const", "attr": {"dtype": {"type": "DT_INT32"}, "value": {"tensor": {"dtype": "DT_INT32", "tensorShape": {"dim": [{"size": "3"}]}}}}}, {"name": "model_1/tf.__operators__.getitem_11/strided_slice/stack", "op": "Const", "attr": {"dtype": {"type": "DT_INT32"}, "value": {"tensor": {"dtype": "DT_INT32", "tensorShape": {"dim": [{"size": "2"}]}}}}}, {"name": "model_1/tf.__operators__.getitem_11/strided_slice/stack_1", "op": "Const", "attr": {"value": {"tensor": {"dtype": "DT_INT32", "tensorShape": {"dim": [{"size": "2"}]}}}, "dtype": {"type": "DT_INT32"}}}, {"name": "model_1/tf.__operators__.getitem_11/strided_slice/stack_2", "op": "Const", "attr": {"value": {"tensor": {"dtype": "DT_INT32", "tensorShape": {"dim": [{"size": "2"}]}}}, "dtype": {"type": "DT_INT32"}}}, {"name": "model_1/tf.reshape_2/Reshape/shape", "op": "Const", "attr": {"value": {"tensor": {"dtype": "DT_INT32", "tensorShape": {"dim": [{"size": "2"}]}}}, "dtype": {"type": "DT_INT32"}}}, {"name": "model_1/tf.compat.v1.boolean_mask/boolean_mask/GatherV2/axis", "op": "Const", "attr": {"dtype": {"type": "DT_INT32"}, "value": {"tensor": {"dtype": "DT_INT32", "tensorShape": {}}}}}, {"name": "model_1/tf.math.reduce_max/Const", "op": "Const", "attr": {"value": {"tensor": {"dtype": "DT_INT32", "tensorShape": {"dim": [{"size": "2"}]}}}, "dtype": {"type": "DT_INT32"}}}, {"name": "model_1/tf.__operators__.add_2/y", "op": "Const", "attr": {"dtype": {"type": "DT_FLOAT"}, "value": {"tensor": {"dtype": "DT_FLOAT", "tensorShape": {}}}}}, {"name": "model_1/tf.__operators__.getitem_14/strided_slice/stack", "op": "Const", "attr": {"dtype": {"type": "DT_INT32"}, "value": {"tensor": {"dtype": "DT_INT32", "tensorShape": {"dim": [{"size": "2"}]}}}}}, {"name": "model_1/tf.__operators__.getitem_14/strided_slice/stack_1", "op": "Const", "attr": {"value": {"tensor": {"dtype": "DT_INT32", "tensorShape": {"dim": [{"size": "2"}]}}}, "dtype": {"type": "DT_INT32"}}}, {"name": "model_1/tf.__operators__.getitem_14/strided_slice/stack_2", "op": "Const", "attr": {"dtype": {"type": "DT_INT32"}, "value": {"tensor": {"dtype": "DT_INT32", "tensorShape": {"dim": [{"size": "2"}]}}}}}, {"name": "model_1/block3b_add/add_mbox_loc_1/separable_conv2d/ReadVariableOp", "op": "Const", "attr": {"dtype": {"type": "DT_FLOAT"}, "value": {"tensor": {"dtype": "DT_FLOAT", "tensorShape": {"dim": [{"size": "3"}, {"size": "3"}, {"size": "40"}, {"size": "1"}]}}}}}, {"name": "model_1/block3b_add/add_mbox_loc_1/separable_conv2d/ReadVariableOp_1", "op": "Const", "attr": {"dtype": {"type": "DT_FLOAT"}, "value": {"tensor": {"dtype": "DT_FLOAT", "tensorShape": {"dim": [{"size": "1"}, {"size": "1"}, {"size": "40"}, {"size": "8"}]}}}}}, {"name": "model_1/block3b_add/add_mbox_loc_1/BiasAdd/ReadVariableOp", "op": "Const", "attr": {"dtype": {"type": "DT_FLOAT"}, "value": {"tensor": {"dtype": "DT_FLOAT", "tensorShape": {"dim": [{"size": "8"}]}}}}}, {"name": "model_1/block3b_add/add_mbox_loc_flat/Const", "op": "Const", "attr": {"dtype": {"type": "DT_INT32"}, "value": {"tensor": {"dtype": "DT_INT32", "tensorShape": {"dim": [{"size": "2"}]}}}}}, {"name": "model_1/block5c_add/add_mbox_loc_1/separable_conv2d/ReadVariableOp", "op": "Const", "attr": {"dtype": {"type": "DT_FLOAT"}, "value": {"tensor": {"dtype": "DT_FLOAT", "tensorShape": {"dim": [{"size": "3"}, {"size": "3"}, {"size": "112"}, {"size": "1"}]}}}}}, {"name": "model_1/block5c_add/add_mbox_loc_1/separable_conv2d/ReadVariableOp_1", "op": "Const", "attr": {"value": {"tensor": {"dtype": "DT_FLOAT", "tensorShape": {"dim": [{"size": "1"}, {"size": "1"}, {"size": "112"}, {"size": "8"}]}}}, "dtype": {"type": "DT_FLOAT"}}}, {"name": "model_1/block5c_add/add_mbox_loc_1/BiasAdd/ReadVariableOp", "op": "Const", "attr": {"dtype": {"type": "DT_FLOAT"}, "value": {"tensor": {"dtype": "DT_FLOAT", "tensorShape": {"dim": [{"size": "8"}]}}}}}, {"name": "model_1/block5c_add/add_mbox_loc_flat/Const", "op": "Const", "attr": {"dtype": {"type": "DT_INT32"}, "value": {"tensor": {"dtype": "DT_INT32", "tensorShape": {"dim": [{"size": "2"}]}}}}}, {"name": "model_1/block7a_project_bn/FusedBatchNormV3_mbox_loc_1/separable_conv2d/ReadVariableOp", "op": "Const", "attr": {"value": {"tensor": {"dtype": "DT_FLOAT", "tensorShape": {"dim": [{"size": "3"}, {"size": "3"}, {"size": "320"}, {"size": "1"}]}}}, "dtype": {"type": "DT_FLOAT"}}}, {"name": "model_1/block7a_project_bn/FusedBatchNormV3_mbox_loc_1/separable_conv2d/ReadVariableOp_1", "op": "Const", "attr": {"value": {"tensor": {"dtype": "DT_FLOAT", "tensorShape": {"dim": [{"size": "1"}, {"size": "1"}, {"size": "320"}, {"size": "8"}]}}}, "dtype": {"type": "DT_FLOAT"}}}, {"name": "model_1/block7a_project_bn/FusedBatchNormV3_mbox_loc_1/BiasAdd/ReadVariableOp", "op": "Const", "attr": {"value": {"tensor": {"dtype": "DT_FLOAT", "tensorShape": {"dim": [{"size": "8"}]}}}, "dtype": {"type": "DT_FLOAT"}}}, {"name": "model_1/block7a_project_bn/FusedBatchNormV3_mbox_loc_flat/Const", "op": "Const", "attr": {"dtype": {"type": "DT_INT32"}, "value": {"tensor": {"dtype": "DT_INT32", "tensorShape": {"dim": [{"size": "2"}]}}}}}, {"name": "model_1/re_lu_1/Relu6_mbox_loc_1/separable_conv2d/ReadVariableOp", "op": "Const", "attr": {"value": {"tensor": {"dtype": "DT_FLOAT", "tensorShape": {"dim": [{"size": "3"}, {"size": "3"}, {"size": "128"}, {"size": "1"}]}}}, "dtype": {"type": "DT_FLOAT"}}}, {"name": "model_1/re_lu_1/Relu6_mbox_loc_1/separable_conv2d/ReadVariableOp_1", "op": "Const", "attr": {"dtype": {"type": "DT_FLOAT"}, "value": {"tensor": {"dtype": "DT_FLOAT", "tensorShape": {"dim": [{"size": "1"}, {"size": "1"}, {"size": "128"}, {"size": "8"}]}}}}}, {"name": "model_1/re_lu_1/Relu6_mbox_loc_1/BiasAdd/ReadVariableOp", "op": "Const", "attr": {"value": {"tensor": {"dtype": "DT_FLOAT", "tensorShape": {"dim": [{"size": "8"}]}}}, "dtype": {"type": "DT_FLOAT"}}}, {"name": "model_1/re_lu_1/Relu6_mbox_loc_flat/Const", "op": "Const", "attr": {"value": {"tensor": {"dtype": "DT_INT32", "tensorShape": {"dim": [{"size": "2"}]}}}, "dtype": {"type": "DT_INT32"}}}, {"name": "model_1/re_lu_3/Relu6_mbox_loc_1/separable_conv2d/ReadVariableOp", "op": "Const", "attr": {"value": {"tensor": {"dtype": "DT_FLOAT", "tensorShape": {"dim": [{"size": "3"}, {"size": "3"}, {"size": "128"}, {"size": "1"}]}}}, "dtype": {"type": "DT_FLOAT"}}}, {"name": "model_1/re_lu_3/Relu6_mbox_loc_1/separable_conv2d/ReadVariableOp_1", "op": "Const", "attr": {"dtype": {"type": "DT_FLOAT"}, "value": {"tensor": {"dtype": "DT_FLOAT", "tensorShape": {"dim": [{"size": "1"}, {"size": "1"}, {"size": "128"}, {"size": "8"}]}}}}}, {"name": "model_1/re_lu_3/Relu6_mbox_loc_1/BiasAdd/ReadVariableOp", "op": "Const", "attr": {"value": {"tensor": {"dtype": "DT_FLOAT", "tensorShape": {"dim": [{"size": "8"}]}}}, "dtype": {"type": "DT_FLOAT"}}}, {"name": "model_1/re_lu_3/Relu6_mbox_loc_flat/Const", "op": "Const", "attr": {"dtype": {"type": "DT_INT32"}, "value": {"tensor": {"dtype": "DT_INT32", "tensorShape": {"dim": [{"size": "2"}]}}}}}, {"name": "model_1/re_lu_5/Relu6_mbox_loc_1/separable_conv2d/ReadVariableOp", "op": "Const", "attr": {"dtype": {"type": "DT_FLOAT"}, "value": {"tensor": {"dtype": "DT_FLOAT", "tensorShape": {"dim": [{"size": "3"}, {"size": "3"}, {"size": "128"}, {"size": "1"}]}}}}}, {"name": "model_1/re_lu_5/Relu6_mbox_loc_1/separable_conv2d/ReadVariableOp_1", "op": "Const", "attr": {"value": {"tensor": {"dtype": "DT_FLOAT", "tensorShape": {"dim": [{"size": "1"}, {"size": "1"}, {"size": "128"}, {"size": "8"}]}}}, "dtype": {"type": "DT_FLOAT"}}}, {"name": "model_1/re_lu_5/Relu6_mbox_loc_1/BiasAdd/ReadVariableOp", "op": "Const", "attr": {"value": {"tensor": {"dtype": "DT_FLOAT", "tensorShape": {"dim": [{"size": "8"}]}}}, "dtype": {"type": "DT_FLOAT"}}}, {"name": "model_1/re_lu_5/Relu6_mbox_loc_flat/Const", "op": "Const", "attr": {"dtype": {"type": "DT_INT32"}, "value": {"tensor": {"dtype": "DT_INT32", "tensorShape": {"dim": [{"size": "2"}]}}}}}, {"name": "model_1/mbox_loc/concat/axis", "op": "Const", "attr": {"dtype": {"type": "DT_INT32"}, "value": {"tensor": {"dtype": "DT_INT32", "tensorShape": {}}}}}, {"name": "model_1/mbox_loc_final/strided_slice/stack", "op": "Const", "attr": {"dtype": {"type": "DT_INT32"}, "value": {"tensor": {"dtype": "DT_INT32", "tensorShape": {"dim": [{"size": "1"}]}}}}}, {"name": "model_1/mbox_loc_final/strided_slice/stack_1", "op": "Const", "attr": {"value": {"tensor": {"dtype": "DT_INT32", "tensorShape": {"dim": [{"size": "1"}]}}}, "dtype": {"type": "DT_INT32"}}}, {"name": "model_1/mbox_loc_final/strided_slice/stack_2", "op": "Const", "attr": {"dtype": {"type": "DT_INT32"}, "value": {"tensor": {"dtype": "DT_INT32", "tensorShape": {"dim": [{"size": "1"}]}}}}}, {"name": "model_1/mbox_loc_final/Reshape/shape/1", "op": "Const", "attr": {"dtype": {"type": "DT_INT32"}, "value": {"tensor": {"dtype": "DT_INT32", "tensorShape": {}}}}}, {"name": "model_1/mbox_loc_final/Reshape/shape/2", "op": "Const", "attr": {"dtype": {"type": "DT_INT32"}, "value": {"tensor": {"dtype": "DT_INT32", "tensorShape": {}}}}}, {"name": "model_1/block3b_add/add_mbox_conf_1/separable_conv2d/ReadVariableOp", "op": "Const", "attr": {"value": {"tensor": {"dtype": "DT_FLOAT", "tensorShape": {"dim": [{"size": "3"}, {"size": "3"}, {"size": "40"}, {"size": "1"}]}}}, "dtype": {"type": "DT_FLOAT"}}}, {"name": "model_1/block3b_add/add_mbox_conf_1/separable_conv2d/ReadVariableOp_1", "op": "Const", "attr": {"value": {"tensor": {"dtype": "DT_FLOAT", "tensorShape": {"dim": [{"size": "1"}, {"size": "1"}, {"size": "40"}, {"size": "8"}]}}}, "dtype": {"type": "DT_FLOAT"}}}, {"name": "model_1/block3b_add/add_mbox_conf_1/BiasAdd/ReadVariableOp", "op": "Const", "attr": {"value": {"tensor": {"dtype": "DT_FLOAT", "tensorShape": {"dim": [{"size": "8"}]}}}, "dtype": {"type": "DT_FLOAT"}}}, {"name": "model_1/block3b_add/add_mbox_conf_flat/Const", "op": "Const", "attr": {"value": {"tensor": {"dtype": "DT_INT32", "tensorShape": {"dim": [{"size": "2"}]}}}, "dtype": {"type": "DT_INT32"}}}, {"name": "model_1/block5c_add/add_mbox_conf_1/separable_conv2d/ReadVariableOp", "op": "Const", "attr": {"dtype": {"type": "DT_FLOAT"}, "value": {"tensor": {"dtype": "DT_FLOAT", "tensorShape": {"dim": [{"size": "3"}, {"size": "3"}, {"size": "112"}, {"size": "1"}]}}}}}, {"name": "model_1/block5c_add/add_mbox_conf_1/separable_conv2d/ReadVariableOp_1", "op": "Const", "attr": {"dtype": {"type": "DT_FLOAT"}, "value": {"tensor": {"dtype": "DT_FLOAT", "tensorShape": {"dim": [{"size": "1"}, {"size": "1"}, {"size": "112"}, {"size": "8"}]}}}}}, {"name": "model_1/block5c_add/add_mbox_conf_1/BiasAdd/ReadVariableOp", "op": "Const", "attr": {"dtype": {"type": "DT_FLOAT"}, "value": {"tensor": {"dtype": "DT_FLOAT", "tensorShape": {"dim": [{"size": "8"}]}}}}}, {"name": "model_1/block5c_add/add_mbox_conf_flat/Const", "op": "Const", "attr": {"value": {"tensor": {"dtype": "DT_INT32", "tensorShape": {"dim": [{"size": "2"}]}}}, "dtype": {"type": "DT_INT32"}}}, {"name": "model_1/block7a_project_bn/FusedBatchNormV3_mbox_conf_1/separable_conv2d/ReadVariableOp", "op": "Const", "attr": {"value": {"tensor": {"dtype": "DT_FLOAT", "tensorShape": {"dim": [{"size": "3"}, {"size": "3"}, {"size": "320"}, {"size": "1"}]}}}, "dtype": {"type": "DT_FLOAT"}}}, {"name": "model_1/block7a_project_bn/FusedBatchNormV3_mbox_conf_1/separable_conv2d/ReadVariableOp_1", "op": "Const", "attr": {"value": {"tensor": {"dtype": "DT_FLOAT", "tensorShape": {"dim": [{"size": "1"}, {"size": "1"}, {"size": "320"}, {"size": "8"}]}}}, "dtype": {"type": "DT_FLOAT"}}}, {"name": "model_1/block7a_project_bn/FusedBatchNormV3_mbox_conf_1/BiasAdd/ReadVariableOp", "op": "Const", "attr": {"dtype": {"type": "DT_FLOAT"}, "value": {"tensor": {"dtype": "DT_FLOAT", "tensorShape": {"dim": [{"size": "8"}]}}}}}, {"name": "model_1/block7a_project_bn/FusedBatchNormV3_mbox_conf_flat/Const", "op": "Const", "attr": {"dtype": {"type": "DT_INT32"}, "value": {"tensor": {"dtype": "DT_INT32", "tensorShape": {"dim": [{"size": "2"}]}}}}}, {"name": "model_1/re_lu_1/Relu6_mbox_conf_1/separable_conv2d/ReadVariableOp", "op": "Const", "attr": {"value": {"tensor": {"dtype": "DT_FLOAT", "tensorShape": {"dim": [{"size": "3"}, {"size": "3"}, {"size": "128"}, {"size": "1"}]}}}, "dtype": {"type": "DT_FLOAT"}}}, {"name": "model_1/re_lu_1/Relu6_mbox_conf_1/separable_conv2d/ReadVariableOp_1", "op": "Const", "attr": {"value": {"tensor": {"dtype": "DT_FLOAT", "tensorShape": {"dim": [{"size": "1"}, {"size": "1"}, {"size": "128"}, {"size": "8"}]}}}, "dtype": {"type": "DT_FLOAT"}}}, {"name": "model_1/re_lu_1/Relu6_mbox_conf_1/BiasAdd/ReadVariableOp", "op": "Const", "attr": {"value": {"tensor": {"dtype": "DT_FLOAT", "tensorShape": {"dim": [{"size": "8"}]}}}, "dtype": {"type": "DT_FLOAT"}}}, {"name": "model_1/re_lu_1/Relu6_mbox_conf_flat/Const", "op": "Const", "attr": {"dtype": {"type": "DT_INT32"}, "value": {"tensor": {"dtype": "DT_INT32", "tensorShape": {"dim": [{"size": "2"}]}}}}}, {"name": "model_1/re_lu_3/Relu6_mbox_conf_1/separable_conv2d/ReadVariableOp", "op": "Const", "attr": {"value": {"tensor": {"dtype": "DT_FLOAT", "tensorShape": {"dim": [{"size": "3"}, {"size": "3"}, {"size": "128"}, {"size": "1"}]}}}, "dtype": {"type": "DT_FLOAT"}}}, {"name": "model_1/re_lu_3/Relu6_mbox_conf_1/separable_conv2d/ReadVariableOp_1", "op": "Const", "attr": {"value": {"tensor": {"dtype": "DT_FLOAT", "tensorShape": {"dim": [{"size": "1"}, {"size": "1"}, {"size": "128"}, {"size": "8"}]}}}, "dtype": {"type": "DT_FLOAT"}}}, {"name": "model_1/re_lu_3/Relu6_mbox_conf_1/BiasAdd/ReadVariableOp", "op": "Const", "attr": {"value": {"tensor": {"dtype": "DT_FLOAT", "tensorShape": {"dim": [{"size": "8"}]}}}, "dtype": {"type": "DT_FLOAT"}}}, {"name": "model_1/re_lu_3/Relu6_mbox_conf_flat/Const", "op": "Const", "attr": {"value": {"tensor": {"dtype": "DT_INT32", "tensorShape": {"dim": [{"size": "2"}]}}}, "dtype": {"type": "DT_INT32"}}}, {"name": "model_1/rescaling/Cast/x", "op": "Const", "attr": {"dtype": {"type": "DT_FLOAT"}, "value": {"tensor": {"dtype": "DT_FLOAT", "tensorShape": {}}}}}, {"name": "model_1/rescaling/Cast_1/x", "op": "Const", "attr": {"dtype": {"type": "DT_FLOAT"}, "value": {"tensor": {"dtype": "DT_FLOAT", "tensorShape": {}}}}}, {"name": "model_1/stem_conv_pad/Pad/paddings", "op": "Const", "attr": {"value": {"tensor": {"dtype": "DT_INT32", "tensorShape": {"dim": [{"size": "4"}, {"size": "2"}]}}}, "dtype": {"type": "DT_INT32"}}}, {"name": "model_1/block2a_dwconv_pad/Pad/paddings", "op": "Const", "attr": {"value": {"tensor": {"dtype": "DT_INT32", "tensorShape": {"dim": [{"size": "4"}, {"size": "2"}]}}}, "dtype": {"type": "DT_INT32"}}}, {"name": "model_1/block3a_dwconv_pad/Pad/paddings", "op": "Const", "attr": {"dtype": {"type": "DT_INT32"}, "value": {"tensor": {"dtype": "DT_INT32", "tensorShape": {"dim": [{"size": "4"}, {"size": "2"}]}}}}}, {"name": "model_1/block4a_dwconv_pad/Pad/paddings", "op": "Const", "attr": {"dtype": {"type": "DT_INT32"}, "value": {"tensor": {"dtype": "DT_INT32", "tensorShape": {"dim": [{"size": "4"}, {"size": "2"}]}}}}}, {"name": "model_1/block6a_dwconv_pad/Pad/paddings", "op": "Const", "attr": {"dtype": {"type": "DT_INT32"}, "value": {"tensor": {"dtype": "DT_INT32", "tensorShape": {"dim": [{"size": "4"}, {"size": "2"}]}}}}}, {"name": "model_1/x5_padding/Pad/paddings", "op": "Const", "attr": {"dtype": {"type": "DT_INT32"}, "value": {"tensor": {"dtype": "DT_INT32", "tensorShape": {"dim": [{"size": "4"}, {"size": "2"}]}}}}}, {"name": "model_1/separable_conv2d/separable_conv2d/ReadVariableOp", "op": "Const", "attr": {"value": {"tensor": {"dtype": "DT_FLOAT", "tensorShape": {"dim": [{"size": "3"}, {"size": "3"}, {"size": "64"}, {"size": "1"}]}}}, "dtype": {"type": "DT_FLOAT"}}}, {"name": "model_1/separable_conv2d_1/separable_conv2d/ReadVariableOp", "op": "Const", "attr": {"value": {"tensor": {"dtype": "DT_FLOAT", "tensorShape": {"dim": [{"size": "3"}, {"size": "3"}, {"size": "64"}, {"size": "1"}]}}}, "dtype": {"type": "DT_FLOAT"}}}, {"name": "model_1/separable_conv2d_2/separable_conv2d/ReadVariableOp", "op": "Const", "attr": {"dtype": {"type": "DT_FLOAT"}, "value": {"tensor": {"dtype": "DT_FLOAT", "tensorShape": {"dim": [{"size": "3"}, {"size": "3"}, {"size": "64"}, {"size": "1"}]}}}}}, {"name": "model_1/re_lu_5/Relu6_mbox_conf_1/separable_conv2d/ReadVariableOp", "op": "Const", "attr": {"dtype": {"type": "DT_FLOAT"}, "value": {"tensor": {"dtype": "DT_FLOAT", "tensorShape": {"dim": [{"size": "3"}, {"size": "3"}, {"size": "128"}, {"size": "1"}]}}}}}, {"name": "model_1/re_lu_5/Relu6_mbox_conf_1/separable_conv2d/ReadVariableOp_1", "op": "Const", "attr": {"value": {"tensor": {"dtype": "DT_FLOAT", "tensorShape": {"dim": [{"size": "1"}, {"size": "1"}, {"size": "128"}, {"size": "8"}]}}}, "dtype": {"type": "DT_FLOAT"}}}, {"name": "model_1/re_lu_5/Relu6_mbox_conf_1/BiasAdd/ReadVariableOp", "op": "Const", "attr": {"value": {"tensor": {"dtype": "DT_FLOAT", "tensorShape": {"dim": [{"size": "8"}]}}}, "dtype": {"type": "DT_FLOAT"}}}, {"name": "model_1/re_lu_5/Relu6_mbox_conf_flat/Const", "op": "Const", "attr": {"value": {"tensor": {"dtype": "DT_INT32", "tensorShape": {"dim": [{"size": "2"}]}}}, "dtype": {"type": "DT_INT32"}}}, {"name": "model_1/mbox_conf/concat/axis", "op": "Const", "attr": {"dtype": {"type": "DT_INT32"}, "value": {"tensor": {"dtype": "DT_INT32", "tensorShape": {}}}}}, {"name": "model_1/mbox_conf_logits/strided_slice/stack", "op": "Const", "attr": {"dtype": {"type": "DT_INT32"}, "value": {"tensor": {"dtype": "DT_INT32", "tensorShape": {"dim": [{"size": "1"}]}}}}}, {"name": "model_1/mbox_conf_logits/strided_slice/stack_1", "op": "Const", "attr": {"value": {"tensor": {"dtype": "DT_INT32", "tensorShape": {"dim": [{"size": "1"}]}}}, "dtype": {"type": "DT_INT32"}}}, {"name": "model_1/mbox_conf_logits/strided_slice/stack_2", "op": "Const", "attr": {"value": {"tensor": {"dtype": "DT_INT32", "tensorShape": {"dim": [{"size": "1"}]}}}, "dtype": {"type": "DT_INT32"}}}, {"name": "model_1/mbox_conf_logits/Reshape/shape/1", "op": "Const", "attr": {"value": {"tensor": {"dtype": "DT_INT32", "tensorShape": {}}}, "dtype": {"type": "DT_INT32"}}}, {"name": "model_1/mbox_conf_logits/Reshape/shape/2", "op": "Const", "attr": {"value": {"tensor": {"dtype": "DT_INT32", "tensorShape": {}}}, "dtype": {"type": "DT_INT32"}}}, {"name": "model_1/predictions/concat/axis", "op": "Const", "attr": {"dtype": {"type": "DT_INT32"}, "value": {"tensor": {"dtype": "DT_INT32", "tensorShape": {}}}}}, {"name": "model_1/tf.__operators__.getitem/strided_slice/stack", "op": "Const", "attr": {"value": {"tensor": {"dtype": "DT_INT32", "tensorShape": {"dim": [{"size": "1"}]}}}, "dtype": {"type": "DT_INT32"}}}, {"name": "model_1/tf.__operators__.getitem/strided_slice/stack_1", "op": "Const", "attr": {"value": {"tensor": {"dtype": "DT_INT32", "tensorShape": {"dim": [{"size": "1"}]}}}, "dtype": {"type": "DT_INT32"}}}, {"name": "model_1/tf.__operators__.getitem/strided_slice/stack_2", "op": "Const", "attr": {"dtype": {"type": "DT_INT32"}, "value": {"tensor": {"dtype": "DT_INT32", "tensorShape": {"dim": [{"size": "1"}]}}}}}, {"name": "model_1/tf.__operators__.getitem_2/strided_slice/stack", "op": "Const", "attr": {"value": {"tensor": {"dtype": "DT_INT32", "tensorShape": {"dim": [{"size": "2"}]}}}, "dtype": {"type": "DT_INT32"}}}, {"name": "model_1/tf.__operators__.getitem_2/strided_slice/stack_1", "op": "Const", "attr": {"dtype": {"type": "DT_INT32"}, "value": {"tensor": {"dtype": "DT_INT32", "tensorShape": {"dim": [{"size": "2"}]}}}}}, {"name": "model_1/tf.__operators__.getitem_2/strided_slice/stack_2", "op": "Const", "attr": {"value": {"tensor": {"dtype": "DT_INT32", "tensorShape": {"dim": [{"size": "2"}]}}}, "dtype": {"type": "DT_INT32"}}}, {"name": "model_1/tf.__operators__.getitem_12/strided_slice/stack", "op": "Const", "attr": {"dtype": {"type": "DT_INT32"}, "value": {"tensor": {"dtype": "DT_INT32", "tensorShape": {"dim": [{"size": "2"}]}}}}}, {"name": "model_1/tf.__operators__.getitem_12/strided_slice/stack_1", "op": "Const", "attr": {"value": {"tensor": {"dtype": "DT_INT32", "tensorShape": {"dim": [{"size": "2"}]}}}, "dtype": {"type": "DT_INT32"}}}, {"name": "model_1/tf.__operators__.getitem_12/strided_slice/stack_2", "op": "Const", "attr": {"dtype": {"type": "DT_INT32"}, "value": {"tensor": {"dtype": "DT_INT32", "tensorShape": {"dim": [{"size": "2"}]}}}}}, {"name": "model_1/tf.reshape_3/Reshape/shape", "op": "Const", "attr": {"dtype": {"type": "DT_INT32"}, "value": {"tensor": {"dtype": "DT_INT32", "tensorShape": {"dim": [{"size": "1"}]}}}}}, {"name": "model_1/tf.math.greater/Greater/y", "op": "Const", "attr": {"value": {"tensor": {"dtype": "DT_FLOAT", "tensorShape": {}}}, "dtype": {"type": "DT_FLOAT"}}}, {"name": "model_1/tf.compat.v1.boolean_mask_1/boolean_mask/GatherV2/axis", "op": "Const", "attr": {"value": {"tensor": {"dtype": "DT_INT32", "tensorShape": {}}}, "dtype": {"type": "DT_INT32"}}}, {"name": "model_1/tf.image.non_max_suppression/non_max_suppression/NonMaxSuppressionV3/max_output_size", "op": "Const", "attr": {"value": {"tensor": {"dtype": "DT_INT32", "tensorShape": {}}}, "dtype": {"type": "DT_INT32"}}}, {"name": "model_1/tf.image.non_max_suppression/non_max_suppression/iou_threshold", "op": "Const", "attr": {"value": {"tensor": {"dtype": "DT_FLOAT", "tensorShape": {}}}, "dtype": {"type": "DT_FLOAT"}}}, {"name": "model_1/tf.image.non_max_suppression/non_max_suppression/score_threshold", "op": "Const", "attr": {"dtype": {"type": "DT_FLOAT"}, "value": {"tensor": {"dtype": "DT_FLOAT", "tensorShape": {}}}}}, {"name": "model_1/tf.compat.v1.gather_2/GatherV2/axis", "op": "Const", "attr": {"dtype": {"type": "DT_INT32"}, "value": {"tensor": {"dtype": "DT_INT32", "tensorShape": {}}}}}, {"name": "model_1/tf.expand_dims_1/ExpandDims/dim", "op": "Const", "attr": {"dtype": {"type": "DT_INT32"}, "value": {"tensor": {"dtype": "DT_INT32", "tensorShape": {}}}}}, {"name": "model_1/concatenate/concat/axis", "op": "Const", "attr": {"value": {"tensor": {"dtype": "DT_INT32", "tensorShape": {}}}, "dtype": {"type": "DT_INT32"}}}, {"name": "x", "op": "Placeholder", "attr": {"dtype": {"type": "DT_FLOAT"}, "shape": {"shape": {"dim": [{"size": "-1"}, {"size": "300"}, {"size": "300"}, {"size": "3"}]}}}}, {"name": "model_1/stem_conv/Conv2D_weights", "op": "Const", "attr": {"dtype": {"type": "DT_FLOAT"}, "value": {"tensor": {"dtype": "DT_FLOAT", "tensorShape": {"dim": [{"size": "3"}, {"size": "3"}, {"size": "3"}, {"size": "32"}]}}}}}, {"name": "model_1/separable_conv2d_2/separable_conv2d_bn_offset", "op": "Const", "attr": {"dtype": {"type": "DT_FLOAT"}, "value": {"tensor": {"dtype": "DT_FLOAT", "tensorShape": {"dim": [{"size": "128"}]}}}}}, {"name": "model_1/stem_conv/Conv2D_bn_offset", "op": "Const", "attr": {"dtype": {"type": "DT_FLOAT"}, "value": {"tensor": {"dtype": "DT_FLOAT", "tensorShape": {"dim": [{"size": "32"}]}}}}}, {"name": "model_1/block1a_dwconv/depthwise_weights", "op": "Const", "attr": {"value": {"tensor": {"dtype": "DT_FLOAT", "tensorShape": {"dim": [{"size": "3"}, {"size": "3"}, {"size": "32"}, {"size": "1"}]}}}, "dtype": {"type": "DT_FLOAT"}}}, {"name": "model_1/block1a_dwconv/depthwise_bn_offset", "op": "Const", "attr": {"value": {"tensor": {"dtype": "DT_FLOAT", "tensorShape": {"dim": [{"size": "32"}]}}}, "dtype": {"type": "DT_FLOAT"}}}, {"name": "model_1/block1a_project_conv/Conv2D_weights", "op": "Const", "attr": {"dtype": {"type": "DT_FLOAT"}, "value": {"tensor": {"dtype": "DT_FLOAT", "tensorShape": {"dim": [{"size": "1"}, {"size": "1"}, {"size": "32"}, {"size": "16"}]}}}}}, {"name": "model_1/block1a_project_conv/Conv2D_bn_offset", "op": "Const", "attr": {"value": {"tensor": {"dtype": "DT_FLOAT", "tensorShape": {"dim": [{"size": "16"}]}}}, "dtype": {"type": "DT_FLOAT"}}}, {"name": "model_1/block2a_expand_conv/Conv2D_weights", "op": "Const", "attr": {"dtype": {"type": "DT_FLOAT"}, "value": {"tensor": {"dtype": "DT_FLOAT", "tensorShape": {"dim": [{"size": "1"}, {"size": "1"}, {"size": "16"}, {"size": "96"}]}}}}}, {"name": "model_1/block2a_expand_conv/Conv2D_bn_offset", "op": "Const", "attr": {"dtype": {"type": "DT_FLOAT"}, "value": {"tensor": {"dtype": "DT_FLOAT", "tensorShape": {"dim": [{"size": "96"}]}}}}}, {"name": "model_1/block2a_dwconv/depthwise_weights", "op": "Const", "attr": {"dtype": {"type": "DT_FLOAT"}, "value": {"tensor": {"dtype": "DT_FLOAT", "tensorShape": {"dim": [{"size": "3"}, {"size": "3"}, {"size": "96"}, {"size": "1"}]}}}}}, {"name": "model_1/block2a_dwconv/depthwise_bn_offset", "op": "Const", "attr": {"value": {"tensor": {"dtype": "DT_FLOAT", "tensorShape": {"dim": [{"size": "96"}]}}}, "dtype": {"type": "DT_FLOAT"}}}, {"name": "model_1/block2a_project_conv/Conv2D_weights", "op": "Const", "attr": {"value": {"tensor": {"dtype": "DT_FLOAT", "tensorShape": {"dim": [{"size": "1"}, {"size": "1"}, {"size": "96"}, {"size": "24"}]}}}, "dtype": {"type": "DT_FLOAT"}}}, {"name": "model_1/block2a_project_conv/Conv2D_bn_offset", "op": "Const", "attr": {"dtype": {"type": "DT_FLOAT"}, "value": {"tensor": {"dtype": "DT_FLOAT", "tensorShape": {"dim": [{"size": "24"}]}}}}}, {"name": "model_1/block2b_expand_conv/Conv2D_weights", "op": "Const", "attr": {"value": {"tensor": {"dtype": "DT_FLOAT", "tensorShape": {"dim": [{"size": "1"}, {"size": "1"}, {"size": "24"}, {"size": "144"}]}}}, "dtype": {"type": "DT_FLOAT"}}}, {"name": "model_1/block2b_expand_conv/Conv2D_bn_offset", "op": "Const", "attr": {"value": {"tensor": {"dtype": "DT_FLOAT", "tensorShape": {"dim": [{"size": "144"}]}}}, "dtype": {"type": "DT_FLOAT"}}}, {"name": "model_1/block2b_dwconv/depthwise_weights", "op": "Const", "attr": {"value": {"tensor": {"dtype": "DT_FLOAT", "tensorShape": {"dim": [{"size": "3"}, {"size": "3"}, {"size": "144"}, {"size": "1"}]}}}, "dtype": {"type": "DT_FLOAT"}}}, {"name": "model_1/block2b_dwconv/depthwise_bn_offset", "op": "Const", "attr": {"dtype": {"type": "DT_FLOAT"}, "value": {"tensor": {"dtype": "DT_FLOAT", "tensorShape": {"dim": [{"size": "144"}]}}}}}, {"name": "model_1/block2b_project_conv/Conv2D_weights", "op": "Const", "attr": {"dtype": {"type": "DT_FLOAT"}, "value": {"tensor": {"dtype": "DT_FLOAT", "tensorShape": {"dim": [{"size": "1"}, {"size": "1"}, {"size": "144"}, {"size": "24"}]}}}}}, {"name": "model_1/block2b_project_conv/Conv2D_bn_offset", "op": "Const", "attr": {"dtype": {"type": "DT_FLOAT"}, "value": {"tensor": {"dtype": "DT_FLOAT", "tensorShape": {"dim": [{"size": "24"}]}}}}}, {"name": "model_1/block3a_expand_conv/Conv2D_weights", "op": "Const", "attr": {"value": {"tensor": {"dtype": "DT_FLOAT", "tensorShape": {"dim": [{"size": "1"}, {"size": "1"}, {"size": "24"}, {"size": "144"}]}}}, "dtype": {"type": "DT_FLOAT"}}}, {"name": "model_1/block3a_expand_conv/Conv2D_bn_offset", "op": "Const", "attr": {"dtype": {"type": "DT_FLOAT"}, "value": {"tensor": {"dtype": "DT_FLOAT", "tensorShape": {"dim": [{"size": "144"}]}}}}}, {"name": "model_1/block3a_dwconv/depthwise_weights", "op": "Const", "attr": {"dtype": {"type": "DT_FLOAT"}, "value": {"tensor": {"dtype": "DT_FLOAT", "tensorShape": {"dim": [{"size": "5"}, {"size": "5"}, {"size": "144"}, {"size": "1"}]}}}}}, {"name": "model_1/block3a_dwconv/depthwise_bn_offset", "op": "Const", "attr": {"dtype": {"type": "DT_FLOAT"}, "value": {"tensor": {"dtype": "DT_FLOAT", "tensorShape": {"dim": [{"size": "144"}]}}}}}, {"name": "model_1/block3a_project_conv/Conv2D_weights", "op": "Const", "attr": {"dtype": {"type": "DT_FLOAT"}, "value": {"tensor": {"dtype": "DT_FLOAT", "tensorShape": {"dim": [{"size": "1"}, {"size": "1"}, {"size": "144"}, {"size": "40"}]}}}}}, {"name": "model_1/block3a_project_conv/Conv2D_bn_offset", "op": "Const", "attr": {"value": {"tensor": {"dtype": "DT_FLOAT", "tensorShape": {"dim": [{"size": "40"}]}}}, "dtype": {"type": "DT_FLOAT"}}}, {"name": "model_1/block3b_expand_conv/Conv2D_weights", "op": "Const", "attr": {"dtype": {"type": "DT_FLOAT"}, "value": {"tensor": {"dtype": "DT_FLOAT", "tensorShape": {"dim": [{"size": "1"}, {"size": "1"}, {"size": "40"}, {"size": "240"}]}}}}}, {"name": "model_1/block3b_expand_conv/Conv2D_bn_offset", "op": "Const", "attr": {"dtype": {"type": "DT_FLOAT"}, "value": {"tensor": {"dtype": "DT_FLOAT", "tensorShape": {"dim": [{"size": "240"}]}}}}}, {"name": "model_1/block3b_dwconv/depthwise_weights", "op": "Const", "attr": {"value": {"tensor": {"dtype": "DT_FLOAT", "tensorShape": {"dim": [{"size": "5"}, {"size": "5"}, {"size": "240"}, {"size": "1"}]}}}, "dtype": {"type": "DT_FLOAT"}}}, {"name": "model_1/block3b_dwconv/depthwise_bn_offset", "op": "Const", "attr": {"dtype": {"type": "DT_FLOAT"}, "value": {"tensor": {"dtype": "DT_FLOAT", "tensorShape": {"dim": [{"size": "240"}]}}}}}, {"name": "model_1/block3b_project_conv/Conv2D_weights", "op": "Const", "attr": {"value": {"tensor": {"dtype": "DT_FLOAT", "tensorShape": {"dim": [{"size": "1"}, {"size": "1"}, {"size": "240"}, {"size": "40"}]}}}, "dtype": {"type": "DT_FLOAT"}}}, {"name": "model_1/block3b_project_conv/Conv2D_bn_offset", "op": "Const", "attr": {"dtype": {"type": "DT_FLOAT"}, "value": {"tensor": {"dtype": "DT_FLOAT", "tensorShape": {"dim": [{"size": "40"}]}}}}}, {"name": "model_1/block4a_expand_conv/Conv2D_weights", "op": "Const", "attr": {"dtype": {"type": "DT_FLOAT"}, "value": {"tensor": {"dtype": "DT_FLOAT", "tensorShape": {"dim": [{"size": "1"}, {"size": "1"}, {"size": "40"}, {"size": "240"}]}}}}}, {"name": "model_1/block4a_expand_conv/Conv2D_bn_offset", "op": "Const", "attr": {"value": {"tensor": {"dtype": "DT_FLOAT", "tensorShape": {"dim": [{"size": "240"}]}}}, "dtype": {"type": "DT_FLOAT"}}}, {"name": "model_1/block4a_dwconv/depthwise_weights", "op": "Const", "attr": {"value": {"tensor": {"dtype": "DT_FLOAT", "tensorShape": {"dim": [{"size": "3"}, {"size": "3"}, {"size": "240"}, {"size": "1"}]}}}, "dtype": {"type": "DT_FLOAT"}}}, {"name": "model_1/block4a_dwconv/depthwise_bn_offset", "op": "Const", "attr": {"value": {"tensor": {"dtype": "DT_FLOAT", "tensorShape": {"dim": [{"size": "240"}]}}}, "dtype": {"type": "DT_FLOAT"}}}, {"name": "model_1/block4a_project_conv/Conv2D_weights", "op": "Const", "attr": {"dtype": {"type": "DT_FLOAT"}, "value": {"tensor": {"dtype": "DT_FLOAT", "tensorShape": {"dim": [{"size": "1"}, {"size": "1"}, {"size": "240"}, {"size": "80"}]}}}}}, {"name": "model_1/block4a_project_conv/Conv2D_bn_offset", "op": "Const", "attr": {"dtype": {"type": "DT_FLOAT"}, "value": {"tensor": {"dtype": "DT_FLOAT", "tensorShape": {"dim": [{"size": "80"}]}}}}}, {"name": "model_1/block4b_expand_conv/Conv2D_weights", "op": "Const", "attr": {"dtype": {"type": "DT_FLOAT"}, "value": {"tensor": {"dtype": "DT_FLOAT", "tensorShape": {"dim": [{"size": "1"}, {"size": "1"}, {"size": "80"}, {"size": "480"}]}}}}}, {"name": "model_1/block4b_expand_conv/Conv2D_bn_offset", "op": "Const", "attr": {"value": {"tensor": {"dtype": "DT_FLOAT", "tensorShape": {"dim": [{"size": "480"}]}}}, "dtype": {"type": "DT_FLOAT"}}}, {"name": "model_1/block4b_dwconv/depthwise_weights", "op": "Const", "attr": {"dtype": {"type": "DT_FLOAT"}, "value": {"tensor": {"dtype": "DT_FLOAT", "tensorShape": {"dim": [{"size": "3"}, {"size": "3"}, {"size": "480"}, {"size": "1"}]}}}}}, {"name": "model_1/block4b_dwconv/depthwise_bn_offset", "op": "Const", "attr": {"value": {"tensor": {"dtype": "DT_FLOAT", "tensorShape": {"dim": [{"size": "480"}]}}}, "dtype": {"type": "DT_FLOAT"}}}, {"name": "model_1/block4b_project_conv/Conv2D_weights", "op": "Const", "attr": {"dtype": {"type": "DT_FLOAT"}, "value": {"tensor": {"dtype": "DT_FLOAT", "tensorShape": {"dim": [{"size": "1"}, {"size": "1"}, {"size": "480"}, {"size": "80"}]}}}}}, {"name": "model_1/block4b_project_conv/Conv2D_bn_offset", "op": "Const", "attr": {"dtype": {"type": "DT_FLOAT"}, "value": {"tensor": {"dtype": "DT_FLOAT", "tensorShape": {"dim": [{"size": "80"}]}}}}}, {"name": "model_1/block4c_expand_conv/Conv2D_weights", "op": "Const", "attr": {"value": {"tensor": {"dtype": "DT_FLOAT", "tensorShape": {"dim": [{"size": "1"}, {"size": "1"}, {"size": "80"}, {"size": "480"}]}}}, "dtype": {"type": "DT_FLOAT"}}}, {"name": "model_1/block4c_expand_conv/Conv2D_bn_offset", "op": "Const", "attr": {"dtype": {"type": "DT_FLOAT"}, "value": {"tensor": {"dtype": "DT_FLOAT", "tensorShape": {"dim": [{"size": "480"}]}}}}}, {"name": "model_1/block4c_dwconv/depthwise_weights", "op": "Const", "attr": {"dtype": {"type": "DT_FLOAT"}, "value": {"tensor": {"dtype": "DT_FLOAT", "tensorShape": {"dim": [{"size": "3"}, {"size": "3"}, {"size": "480"}, {"size": "1"}]}}}}}, {"name": "model_1/block4c_dwconv/depthwise_bn_offset", "op": "Const", "attr": {"dtype": {"type": "DT_FLOAT"}, "value": {"tensor": {"dtype": "DT_FLOAT", "tensorShape": {"dim": [{"size": "480"}]}}}}}, {"name": "model_1/block4c_project_conv/Conv2D_weights", "op": "Const", "attr": {"dtype": {"type": "DT_FLOAT"}, "value": {"tensor": {"dtype": "DT_FLOAT", "tensorShape": {"dim": [{"size": "1"}, {"size": "1"}, {"size": "480"}, {"size": "80"}]}}}}}, {"name": "model_1/block4c_project_conv/Conv2D_bn_offset", "op": "Const", "attr": {"value": {"tensor": {"dtype": "DT_FLOAT", "tensorShape": {"dim": [{"size": "80"}]}}}, "dtype": {"type": "DT_FLOAT"}}}, {"name": "model_1/block5a_expand_conv/Conv2D_weights", "op": "Const", "attr": {"value": {"tensor": {"dtype": "DT_FLOAT", "tensorShape": {"dim": [{"size": "1"}, {"size": "1"}, {"size": "80"}, {"size": "480"}]}}}, "dtype": {"type": "DT_FLOAT"}}}, {"name": "model_1/block5a_expand_conv/Conv2D_bn_offset", "op": "Const", "attr": {"value": {"tensor": {"dtype": "DT_FLOAT", "tensorShape": {"dim": [{"size": "480"}]}}}, "dtype": {"type": "DT_FLOAT"}}}, {"name": "model_1/block5a_dwconv/depthwise_weights", "op": "Const", "attr": {"dtype": {"type": "DT_FLOAT"}, "value": {"tensor": {"dtype": "DT_FLOAT", "tensorShape": {"dim": [{"size": "5"}, {"size": "5"}, {"size": "480"}, {"size": "1"}]}}}}}, {"name": "model_1/block5a_dwconv/depthwise_bn_offset", "op": "Const", "attr": {"value": {"tensor": {"dtype": "DT_FLOAT", "tensorShape": {"dim": [{"size": "480"}]}}}, "dtype": {"type": "DT_FLOAT"}}}, {"name": "model_1/block5a_project_conv/Conv2D_weights", "op": "Const", "attr": {"dtype": {"type": "DT_FLOAT"}, "value": {"tensor": {"dtype": "DT_FLOAT", "tensorShape": {"dim": [{"size": "1"}, {"size": "1"}, {"size": "480"}, {"size": "112"}]}}}}}, {"name": "model_1/block5a_project_conv/Conv2D_bn_offset", "op": "Const", "attr": {"dtype": {"type": "DT_FLOAT"}, "value": {"tensor": {"dtype": "DT_FLOAT", "tensorShape": {"dim": [{"size": "112"}]}}}}}, {"name": "model_1/block5b_expand_conv/Conv2D_weights", "op": "Const", "attr": {"dtype": {"type": "DT_FLOAT"}, "value": {"tensor": {"dtype": "DT_FLOAT", "tensorShape": {"dim": [{"size": "1"}, {"size": "1"}, {"size": "112"}, {"size": "672"}]}}}}}, {"name": "model_1/block5b_expand_conv/Conv2D_bn_offset", "op": "Const", "attr": {"dtype": {"type": "DT_FLOAT"}, "value": {"tensor": {"dtype": "DT_FLOAT", "tensorShape": {"dim": [{"size": "672"}]}}}}}, {"name": "model_1/block5b_dwconv/depthwise_weights", "op": "Const", "attr": {"value": {"tensor": {"dtype": "DT_FLOAT", "tensorShape": {"dim": [{"size": "5"}, {"size": "5"}, {"size": "672"}, {"size": "1"}]}}}, "dtype": {"type": "DT_FLOAT"}}}, {"name": "model_1/block5b_dwconv/depthwise_bn_offset", "op": "Const", "attr": {"dtype": {"type": "DT_FLOAT"}, "value": {"tensor": {"dtype": "DT_FLOAT", "tensorShape": {"dim": [{"size": "672"}]}}}}}, {"name": "model_1/block5b_project_conv/Conv2D_weights", "op": "Const", "attr": {"value": {"tensor": {"dtype": "DT_FLOAT", "tensorShape": {"dim": [{"size": "1"}, {"size": "1"}, {"size": "672"}, {"size": "112"}]}}}, "dtype": {"type": "DT_FLOAT"}}}, {"name": "model_1/block5b_project_conv/Conv2D_bn_offset", "op": "Const", "attr": {"dtype": {"type": "DT_FLOAT"}, "value": {"tensor": {"dtype": "DT_FLOAT", "tensorShape": {"dim": [{"size": "112"}]}}}}}, {"name": "model_1/block5c_expand_conv/Conv2D_weights", "op": "Const", "attr": {"dtype": {"type": "DT_FLOAT"}, "value": {"tensor": {"dtype": "DT_FLOAT", "tensorShape": {"dim": [{"size": "1"}, {"size": "1"}, {"size": "112"}, {"size": "672"}]}}}}}, {"name": "model_1/block5c_expand_conv/Conv2D_bn_offset", "op": "Const", "attr": {"dtype": {"type": "DT_FLOAT"}, "value": {"tensor": {"dtype": "DT_FLOAT", "tensorShape": {"dim": [{"size": "672"}]}}}}}, {"name": "model_1/block5c_dwconv/depthwise_weights", "op": "Const", "attr": {"dtype": {"type": "DT_FLOAT"}, "value": {"tensor": {"dtype": "DT_FLOAT", "tensorShape": {"dim": [{"size": "5"}, {"size": "5"}, {"size": "672"}, {"size": "1"}]}}}}}, {"name": "model_1/block5c_dwconv/depthwise_bn_offset", "op": "Const", "attr": {"value": {"tensor": {"dtype": "DT_FLOAT", "tensorShape": {"dim": [{"size": "672"}]}}}, "dtype": {"type": "DT_FLOAT"}}}, {"name": "model_1/block5c_project_conv/Conv2D_weights", "op": "Const", "attr": {"dtype": {"type": "DT_FLOAT"}, "value": {"tensor": {"dtype": "DT_FLOAT", "tensorShape": {"dim": [{"size": "1"}, {"size": "1"}, {"size": "672"}, {"size": "112"}]}}}}}, {"name": "model_1/block5c_project_conv/Conv2D_bn_offset", "op": "Const", "attr": {"value": {"tensor": {"dtype": "DT_FLOAT", "tensorShape": {"dim": [{"size": "112"}]}}}, "dtype": {"type": "DT_FLOAT"}}}, {"name": "model_1/block6a_expand_conv/Conv2D_weights", "op": "Const", "attr": {"dtype": {"type": "DT_FLOAT"}, "value": {"tensor": {"dtype": "DT_FLOAT", "tensorShape": {"dim": [{"size": "1"}, {"size": "1"}, {"size": "112"}, {"size": "672"}]}}}}}, {"name": "model_1/block6a_expand_conv/Conv2D_bn_offset", "op": "Const", "attr": {"dtype": {"type": "DT_FLOAT"}, "value": {"tensor": {"dtype": "DT_FLOAT", "tensorShape": {"dim": [{"size": "672"}]}}}}}, {"name": "model_1/block6a_dwconv/depthwise_weights", "op": "Const", "attr": {"value": {"tensor": {"dtype": "DT_FLOAT", "tensorShape": {"dim": [{"size": "5"}, {"size": "5"}, {"size": "672"}, {"size": "1"}]}}}, "dtype": {"type": "DT_FLOAT"}}}, {"name": "model_1/block6a_dwconv/depthwise_bn_offset", "op": "Const", "attr": {"dtype": {"type": "DT_FLOAT"}, "value": {"tensor": {"dtype": "DT_FLOAT", "tensorShape": {"dim": [{"size": "672"}]}}}}}, {"name": "model_1/block6a_project_conv/Conv2D_weights", "op": "Const", "attr": {"value": {"tensor": {"dtype": "DT_FLOAT", "tensorShape": {"dim": [{"size": "1"}, {"size": "1"}, {"size": "672"}, {"size": "192"}]}}}, "dtype": {"type": "DT_FLOAT"}}}, {"name": "model_1/block6a_project_conv/Conv2D_bn_offset", "op": "Const", "attr": {"value": {"tensor": {"dtype": "DT_FLOAT", "tensorShape": {"dim": [{"size": "192"}]}}}, "dtype": {"type": "DT_FLOAT"}}}, {"name": "model_1/block6b_expand_conv/Conv2D_weights", "op": "Const", "attr": {"dtype": {"type": "DT_FLOAT"}, "value": {"tensor": {"dtype": "DT_FLOAT", "tensorShape": {"dim": [{"size": "1"}, {"size": "1"}, {"size": "192"}, {"size": "1152"}]}}}}}, {"name": "model_1/block6b_expand_conv/Conv2D_bn_offset", "op": "Const", "attr": {"value": {"tensor": {"dtype": "DT_FLOAT", "tensorShape": {"dim": [{"size": "1152"}]}}}, "dtype": {"type": "DT_FLOAT"}}}, {"name": "model_1/block6b_dwconv/depthwise_weights", "op": "Const", "attr": {"dtype": {"type": "DT_FLOAT"}, "value": {"tensor": {"dtype": "DT_FLOAT", "tensorShape": {"dim": [{"size": "5"}, {"size": "5"}, {"size": "1152"}, {"size": "1"}]}}}}}, {"name": "model_1/block6b_dwconv/depthwise_bn_offset", "op": "Const", "attr": {"dtype": {"type": "DT_FLOAT"}, "value": {"tensor": {"dtype": "DT_FLOAT", "tensorShape": {"dim": [{"size": "1152"}]}}}}}, {"name": "model_1/block6b_project_conv/Conv2D_weights", "op": "Const", "attr": {"value": {"tensor": {"dtype": "DT_FLOAT", "tensorShape": {"dim": [{"size": "1"}, {"size": "1"}, {"size": "1152"}, {"size": "192"}]}}}, "dtype": {"type": "DT_FLOAT"}}}, {"name": "model_1/block6b_project_conv/Conv2D_bn_offset", "op": "Const", "attr": {"value": {"tensor": {"dtype": "DT_FLOAT", "tensorShape": {"dim": [{"size": "192"}]}}}, "dtype": {"type": "DT_FLOAT"}}}, {"name": "model_1/block6c_expand_conv/Conv2D_weights", "op": "Const", "attr": {"value": {"tensor": {"dtype": "DT_FLOAT", "tensorShape": {"dim": [{"size": "1"}, {"size": "1"}, {"size": "192"}, {"size": "1152"}]}}}, "dtype": {"type": "DT_FLOAT"}}}, {"name": "model_1/block6c_expand_conv/Conv2D_bn_offset", "op": "Const", "attr": {"value": {"tensor": {"dtype": "DT_FLOAT", "tensorShape": {"dim": [{"size": "1152"}]}}}, "dtype": {"type": "DT_FLOAT"}}}, {"name": "model_1/block6c_dwconv/depthwise_weights", "op": "Const", "attr": {"value": {"tensor": {"dtype": "DT_FLOAT", "tensorShape": {"dim": [{"size": "5"}, {"size": "5"}, {"size": "1152"}, {"size": "1"}]}}}, "dtype": {"type": "DT_FLOAT"}}}, {"name": "model_1/block6c_dwconv/depthwise_bn_offset", "op": "Const", "attr": {"value": {"tensor": {"dtype": "DT_FLOAT", "tensorShape": {"dim": [{"size": "1152"}]}}}, "dtype": {"type": "DT_FLOAT"}}}, {"name": "model_1/block6c_project_conv/Conv2D_weights", "op": "Const", "attr": {"dtype": {"type": "DT_FLOAT"}, "value": {"tensor": {"dtype": "DT_FLOAT", "tensorShape": {"dim": [{"size": "1"}, {"size": "1"}, {"size": "1152"}, {"size": "192"}]}}}}}, {"name": "model_1/block6c_project_conv/Conv2D_bn_offset", "op": "Const", "attr": {"value": {"tensor": {"dtype": "DT_FLOAT", "tensorShape": {"dim": [{"size": "192"}]}}}, "dtype": {"type": "DT_FLOAT"}}}, {"name": "model_1/block6d_expand_conv/Conv2D_weights", "op": "Const", "attr": {"value": {"tensor": {"dtype": "DT_FLOAT", "tensorShape": {"dim": [{"size": "1"}, {"size": "1"}, {"size": "192"}, {"size": "1152"}]}}}, "dtype": {"type": "DT_FLOAT"}}}, {"name": "model_1/block6d_expand_conv/Conv2D_bn_offset", "op": "Const", "attr": {"dtype": {"type": "DT_FLOAT"}, "value": {"tensor": {"dtype": "DT_FLOAT", "tensorShape": {"dim": [{"size": "1152"}]}}}}}, {"name": "model_1/block6d_dwconv/depthwise_weights", "op": "Const", "attr": {"value": {"tensor": {"dtype": "DT_FLOAT", "tensorShape": {"dim": [{"size": "5"}, {"size": "5"}, {"size": "1152"}, {"size": "1"}]}}}, "dtype": {"type": "DT_FLOAT"}}}, {"name": "model_1/block6d_dwconv/depthwise_bn_offset", "op": "Const", "attr": {"dtype": {"type": "DT_FLOAT"}, "value": {"tensor": {"dtype": "DT_FLOAT", "tensorShape": {"dim": [{"size": "1152"}]}}}}}, {"name": "model_1/block6d_project_conv/Conv2D_weights", "op": "Const", "attr": {"dtype": {"type": "DT_FLOAT"}, "value": {"tensor": {"dtype": "DT_FLOAT", "tensorShape": {"dim": [{"size": "1"}, {"size": "1"}, {"size": "1152"}, {"size": "192"}]}}}}}, {"name": "model_1/block6d_project_conv/Conv2D_bn_offset", "op": "Const", "attr": {"value": {"tensor": {"dtype": "DT_FLOAT", "tensorShape": {"dim": [{"size": "192"}]}}}, "dtype": {"type": "DT_FLOAT"}}}, {"name": "model_1/block7a_expand_conv/Conv2D_weights", "op": "Const", "attr": {"dtype": {"type": "DT_FLOAT"}, "value": {"tensor": {"dtype": "DT_FLOAT", "tensorShape": {"dim": [{"size": "1"}, {"size": "1"}, {"size": "192"}, {"size": "1152"}]}}}}}, {"name": "model_1/block7a_expand_conv/Conv2D_bn_offset", "op": "Const", "attr": {"dtype": {"type": "DT_FLOAT"}, "value": {"tensor": {"dtype": "DT_FLOAT", "tensorShape": {"dim": [{"size": "1152"}]}}}}}, {"name": "model_1/block7a_dwconv/depthwise_weights", "op": "Const", "attr": {"value": {"tensor": {"dtype": "DT_FLOAT", "tensorShape": {"dim": [{"size": "3"}, {"size": "3"}, {"size": "1152"}, {"size": "1"}]}}}, "dtype": {"type": "DT_FLOAT"}}}, {"name": "model_1/block7a_dwconv/depthwise_bn_offset", "op": "Const", "attr": {"value": {"tensor": {"dtype": "DT_FLOAT", "tensorShape": {"dim": [{"size": "1152"}]}}}, "dtype": {"type": "DT_FLOAT"}}}, {"name": "model_1/block7a_project_conv/Conv2D_weights", "op": "Const", "attr": {"value": {"tensor": {"dtype": "DT_FLOAT", "tensorShape": {"dim": [{"size": "1"}, {"size": "1"}, {"size": "1152"}, {"size": "320"}]}}}, "dtype": {"type": "DT_FLOAT"}}}, {"name": "model_1/block7a_project_conv/Conv2D_bn_offset", "op": "Const", "attr": {"value": {"tensor": {"dtype": "DT_FLOAT", "tensorShape": {"dim": [{"size": "320"}]}}}, "dtype": {"type": "DT_FLOAT"}}}, {"name": "model_1/conv2d/Conv2D_weights", "op": "Const", "attr": {"dtype": {"type": "DT_FLOAT"}, "value": {"tensor": {"dtype": "DT_FLOAT", "tensorShape": {"dim": [{"size": "1"}, {"size": "1"}, {"size": "320"}, {"size": "64"}]}}}}}, {"name": "model_1/conv2d/Conv2D_bn_offset", "op": "Const", "attr": {"value": {"tensor": {"dtype": "DT_FLOAT", "tensorShape": {"dim": [{"size": "64"}]}}}, "dtype": {"type": "DT_FLOAT"}}}, {"name": "model_1/separable_conv2d/separable_conv2d_weights", "op": "Const", "attr": {"dtype": {"type": "DT_FLOAT"}, "value": {"tensor": {"dtype": "DT_FLOAT", "tensorShape": {"dim": [{"size": "1"}, {"size": "1"}, {"size": "64"}, {"size": "128"}]}}}}}, {"name": "model_1/separable_conv2d/separable_conv2d_bn_offset", "op": "Const", "attr": {"dtype": {"type": "DT_FLOAT"}, "value": {"tensor": {"dtype": "DT_FLOAT", "tensorShape": {"dim": [{"size": "128"}]}}}}}, {"name": "model_1/conv2d_1/Conv2D_weights", "op": "Const", "attr": {"dtype": {"type": "DT_FLOAT"}, "value": {"tensor": {"dtype": "DT_FLOAT", "tensorShape": {"dim": [{"size": "1"}, {"size": "1"}, {"size": "128"}, {"size": "64"}]}}}}}, {"name": "model_1/conv2d_1/Conv2D_bn_offset", "op": "Const", "attr": {"dtype": {"type": "DT_FLOAT"}, "value": {"tensor": {"dtype": "DT_FLOAT", "tensorShape": {"dim": [{"size": "64"}]}}}}}, {"name": "model_1/separable_conv2d_1/separable_conv2d_weights", "op": "Const", "attr": {"value": {"tensor": {"dtype": "DT_FLOAT", "tensorShape": {"dim": [{"size": "1"}, {"size": "1"}, {"size": "64"}, {"size": "128"}]}}}, "dtype": {"type": "DT_FLOAT"}}}, {"name": "model_1/separable_conv2d_1/separable_conv2d_bn_offset", "op": "Const", "attr": {"value": {"tensor": {"dtype": "DT_FLOAT", "tensorShape": {"dim": [{"size": "128"}]}}}, "dtype": {"type": "DT_FLOAT"}}}, {"name": "model_1/conv2d_2/Conv2D_weights", "op": "Const", "attr": {"value": {"tensor": {"dtype": "DT_FLOAT", "tensorShape": {"dim": [{"size": "1"}, {"size": "1"}, {"size": "128"}, {"size": "64"}]}}}, "dtype": {"type": "DT_FLOAT"}}}, {"name": "model_1/conv2d_2/Conv2D_bn_offset", "op": "Const", "attr": {"dtype": {"type": "DT_FLOAT"}, "value": {"tensor": {"dtype": "DT_FLOAT", "tensorShape": {"dim": [{"size": "64"}]}}}}}, {"name": "model_1/separable_conv2d_2/separable_conv2d_weights", "op": "Const", "attr": {"dtype": {"type": "DT_FLOAT"}, "value": {"tensor": {"dtype": "DT_FLOAT", "tensorShape": {"dim": [{"size": "1"}, {"size": "1"}, {"size": "64"}, {"size": "128"}]}}}}}, {"name": "model_1/rescaling/mul", "op": "Mul", "input": ["x", "model_1/rescaling/Cast/x"], "attr": {"T": {"type": "DT_FLOAT"}}}, {"name": "model_1/rescaling/add", "op": "AddV2", "input": ["model_1/rescaling/mul", "model_1/rescaling/Cast_1/x"], "attr": {"T": {"type": "DT_FLOAT"}}}, {"name": "model_1/stem_conv_pad/Pad", "op": "Pad", "input": ["model_1/rescaling/add", "model_1/stem_conv_pad/Pad/paddings"], "attr": {"Tpaddings": {"type": "DT_INT32"}, "T": {"type": "DT_FLOAT"}}}, {"name": "model_1/stem_activation/Relu6", "op": "_FusedConv2D", "input": ["model_1/stem_conv_pad/Pad", "model_1/stem_conv/Conv2D_weights", "model_1/stem_conv/Conv2D_bn_offset"], "device": "/device:CPU:0", "attr": {"data_format": {"s": "TkhXQw=="}, "fused_ops": {"list": {"s": ["Qmlhc0FkZA==", "UmVsdTY="]}}, "dilations": {"list": {"i": ["1", "1", "1", "1"]}}, "T": {"type": "DT_FLOAT"}, "use_cudnn_on_gpu": {"b": true}, "explicit_paddings": {"list": {}}, "epsilon": {"f": 0.0}, "strides": {"list": {"i": ["1", "2", "2", "1"]}}, "padding": {"s": "VkFMSUQ="}, "num_args": {"i": "1"}}}, {"name": "model_1/block1a_dwconv/depthwise", "op": "FusedDepthwiseConv2dNative", "input": ["model_1/stem_activation/Relu6", "model_1/block1a_dwconv/depthwise_weights", "model_1/block1a_dwconv/depthwise_bn_offset"], "attr": {"padding": {"s": "U0FNRQ=="}, "fused_ops": {"list": {"s": ["Qmlhc0FkZA==", "UmVsdTY="]}}, "num_args": {"i": "1"}, "strides": {"list": {"i": ["1", "1", "1", "1"]}}, "dilations": {"list": {"i": ["1", "1", "1", "1"]}}, "data_format": {"s": "TkhXQw=="}, "T": {"type": "DT_FLOAT"}, "explicit_paddings": {"list": {}}}}, {"name": "model_1/block1a_project_bn/FusedBatchNormV3", "op": "_FusedConv2D", "input": ["model_1/block1a_dwconv/depthwise", "model_1/block1a_project_conv/Conv2D_weights", "model_1/block1a_project_conv/Conv2D_bn_offset"], "device": "/device:CPU:0", "attr": {"epsilon": {"f": 0.0}, "num_args": {"i": "1"}, "T": {"type": "DT_FLOAT"}, "use_cudnn_on_gpu": {"b": true}, "explicit_paddings": {"list": {}}, "dilations": {"list": {"i": ["1", "1", "1", "1"]}}, "data_format": {"s": "TkhXQw=="}, "strides": {"list": {"i": ["1", "1", "1", "1"]}}, "padding": {"s": "U0FNRQ=="}, "fused_ops": {"list": {"s": ["Qmlhc0FkZA=="]}}}}, {"name": "model_1/block2a_expand_activation/Relu6", "op": "_FusedConv2D", "input": ["model_1/block1a_project_bn/FusedBatchNormV3", "model_1/block2a_expand_conv/Conv2D_weights", "model_1/block2a_expand_conv/Conv2D_bn_offset"], "device": "/device:CPU:0", "attr": {"data_format": {"s": "TkhXQw=="}, "explicit_paddings": {"list": {}}, "fused_ops": {"list": {"s": ["Qmlhc0FkZA==", "UmVsdTY="]}}, "strides": {"list": {"i": ["1", "1", "1", "1"]}}, "use_cudnn_on_gpu": {"b": true}, "epsilon": {"f": 0.0}, "dilations": {"list": {"i": ["1", "1", "1", "1"]}}, "num_args": {"i": "1"}, "padding": {"s": "U0FNRQ=="}, "T": {"type": "DT_FLOAT"}}}, {"name": "model_1/block2a_dwconv_pad/Pad", "op": "Pad", "input": ["model_1/block2a_expand_activation/Relu6", "model_1/block2a_dwconv_pad/Pad/paddings"], "attr": {"Tpaddings": {"type": "DT_INT32"}, "T": {"type": "DT_FLOAT"}}}, {"name": "model_1/block2a_dwconv/depthwise", "op": "FusedDepthwiseConv2dNative", "input": ["model_1/block2a_dwconv_pad/Pad", "model_1/block2a_dwconv/depthwise_weights", "model_1/block2a_dwconv/depthwise_bn_offset"], "attr": {"num_args": {"i": "1"}, "fused_ops": {"list": {"s": ["Qmlhc0FkZA==", "UmVsdTY="]}}, "explicit_paddings": {"list": {}}, "dilations": {"list": {"i": ["1", "1", "1", "1"]}}, "strides": {"list": {"i": ["1", "2", "2", "1"]}}, "data_format": {"s": "TkhXQw=="}, "T": {"type": "DT_FLOAT"}, "padding": {"s": "VkFMSUQ="}}}, {"name": "model_1/block2a_project_bn/FusedBatchNormV3", "op": "_FusedConv2D", "input": ["model_1/block2a_dwconv/depthwise", "model_1/block2a_project_conv/Conv2D_weights", "model_1/block2a_project_conv/Conv2D_bn_offset"], "device": "/device:CPU:0", "attr": {"data_format": {"s": "TkhXQw=="}, "dilations": {"list": {"i": ["1", "1", "1", "1"]}}, "epsilon": {"f": 0.0}, "padding": {"s": "U0FNRQ=="}, "num_args": {"i": "1"}, "use_cudnn_on_gpu": {"b": true}, "fused_ops": {"list": {"s": ["Qmlhc0FkZA=="]}}, "explicit_paddings": {"list": {}}, "strides": {"list": {"i": ["1", "1", "1", "1"]}}, "T": {"type": "DT_FLOAT"}}}, {"name": "model_1/block2b_expand_activation/Relu6", "op": "_FusedConv2D", "input": ["model_1/block2a_project_bn/FusedBatchNormV3", "model_1/block2b_expand_conv/Conv2D_weights", "model_1/block2b_expand_conv/Conv2D_bn_offset"], "device": "/device:CPU:0", "attr": {"fused_ops": {"list": {"s": ["Qmlhc0FkZA==", "UmVsdTY="]}}, "strides": {"list": {"i": ["1", "1", "1", "1"]}}, "use_cudnn_on_gpu": {"b": true}, "T": {"type": "DT_FLOAT"}, "padding": {"s": "U0FNRQ=="}, "data_format": {"s": "TkhXQw=="}, "epsilon": {"f": 0.0}, "dilations": {"list": {"i": ["1", "1", "1", "1"]}}, "num_args": {"i": "1"}, "explicit_paddings": {"list": {}}}}, {"name": "model_1/block2b_dwconv/depthwise", "op": "FusedDepthwiseConv2dNative", "input": ["model_1/block2b_expand_activation/Relu6", "model_1/block2b_dwconv/depthwise_weights", "model_1/block2b_dwconv/depthwise_bn_offset"], "attr": {"fused_ops": {"list": {"s": ["Qmlhc0FkZA==", "UmVsdTY="]}}, "T": {"type": "DT_FLOAT"}, "strides": {"list": {"i": ["1", "1", "1", "1"]}}, "dilations": {"list": {"i": ["1", "1", "1", "1"]}}, "explicit_paddings": {"list": {}}, "data_format": {"s": "TkhXQw=="}, "num_args": {"i": "1"}, "padding": {"s": "U0FNRQ=="}}}, {"name": "model_1/block2b_project_bn/FusedBatchNormV3", "op": "_FusedConv2D", "input": ["model_1/block2b_dwconv/depthwise", "model_1/block2b_project_conv/Conv2D_weights", "model_1/block2b_project_conv/Conv2D_bn_offset"], "device": "/device:CPU:0", "attr": {"dilations": {"list": {"i": ["1", "1", "1", "1"]}}, "use_cudnn_on_gpu": {"b": true}, "T": {"type": "DT_FLOAT"}, "epsilon": {"f": 0.0}, "strides": {"list": {"i": ["1", "1", "1", "1"]}}, "num_args": {"i": "1"}, "data_format": {"s": "TkhXQw=="}, "explicit_paddings": {"list": {}}, "fused_ops": {"list": {"s": ["Qmlhc0FkZA=="]}}, "padding": {"s": "U0FNRQ=="}}}, {"name": "model_1/block2b_add/add", "op": "AddV2", "input": ["model_1/block2b_project_bn/FusedBatchNormV3", "model_1/block2a_project_bn/FusedBatchNormV3"], "attr": {"T": {"type": "DT_FLOAT"}}}, {"name": "model_1/block3a_expand_activation/Relu6", "op": "_FusedConv2D", "input": ["model_1/block2b_add/add", "model_1/block3a_expand_conv/Conv2D_weights", "model_1/block3a_expand_conv/Conv2D_bn_offset"], "device": "/device:CPU:0", "attr": {"padding": {"s": "U0FNRQ=="}, "use_cudnn_on_gpu": {"b": true}, "fused_ops": {"list": {"s": ["Qmlhc0FkZA==", "UmVsdTY="]}}, "data_format": {"s": "TkhXQw=="}, "num_args": {"i": "1"}, "epsilon": {"f": 0.0}, "explicit_paddings": {"list": {}}, "strides": {"list": {"i": ["1", "1", "1", "1"]}}, "dilations": {"list": {"i": ["1", "1", "1", "1"]}}, "T": {"type": "DT_FLOAT"}}}, {"name": "model_1/block3a_dwconv_pad/Pad", "op": "Pad", "input": ["model_1/block3a_expand_activation/Relu6", "model_1/block3a_dwconv_pad/Pad/paddings"], "attr": {"Tpaddings": {"type": "DT_INT32"}, "T": {"type": "DT_FLOAT"}}}, {"name": "model_1/block3a_dwconv/depthwise", "op": "FusedDepthwiseConv2dNative", "input": ["model_1/block3a_dwconv_pad/Pad", "model_1/block3a_dwconv/depthwise_weights", "model_1/block3a_dwconv/depthwise_bn_offset"], "attr": {"explicit_paddings": {"list": {}}, "dilations": {"list": {"i": ["1", "1", "1", "1"]}}, "strides": {"list": {"i": ["1", "2", "2", "1"]}}, "num_args": {"i": "1"}, "fused_ops": {"list": {"s": ["Qmlhc0FkZA==", "UmVsdTY="]}}, "padding": {"s": "VkFMSUQ="}, "data_format": {"s": "TkhXQw=="}, "T": {"type": "DT_FLOAT"}}}, {"name": "model_1/block3a_project_bn/FusedBatchNormV3", "op": "_FusedConv2D", "input": ["model_1/block3a_dwconv/depthwise", "model_1/block3a_project_conv/Conv2D_weights", "model_1/block3a_project_conv/Conv2D_bn_offset"], "device": "/device:CPU:0", "attr": {"epsilon": {"f": 0.0}, "dilations": {"list": {"i": ["1", "1", "1", "1"]}}, "T": {"type": "DT_FLOAT"}, "padding": {"s": "U0FNRQ=="}, "num_args": {"i": "1"}, "use_cudnn_on_gpu": {"b": true}, "data_format": {"s": "TkhXQw=="}, "strides": {"list": {"i": ["1", "1", "1", "1"]}}, "explicit_paddings": {"list": {}}, "fused_ops": {"list": {"s": ["Qmlhc0FkZA=="]}}}}, {"name": "model_1/block3b_expand_activation/Relu6", "op": "_FusedConv2D", "input": ["model_1/block3a_project_bn/FusedBatchNormV3", "model_1/block3b_expand_conv/Conv2D_weights", "model_1/block3b_expand_conv/Conv2D_bn_offset"], "device": "/device:CPU:0", "attr": {"padding": {"s": "U0FNRQ=="}, "dilations": {"list": {"i": ["1", "1", "1", "1"]}}, "data_format": {"s": "TkhXQw=="}, "num_args": {"i": "1"}, "epsilon": {"f": 0.0}, "explicit_paddings": {"list": {}}, "strides": {"list": {"i": ["1", "1", "1", "1"]}}, "use_cudnn_on_gpu": {"b": true}, "fused_ops": {"list": {"s": ["Qmlhc0FkZA==", "UmVsdTY="]}}, "T": {"type": "DT_FLOAT"}}}, {"name": "model_1/block3b_dwconv/depthwise", "op": "FusedDepthwiseConv2dNative", "input": ["model_1/block3b_expand_activation/Relu6", "model_1/block3b_dwconv/depthwise_weights", "model_1/block3b_dwconv/depthwise_bn_offset"], "attr": {"T": {"type": "DT_FLOAT"}, "num_args": {"i": "1"}, "dilations": {"list": {"i": ["1", "1", "1", "1"]}}, "explicit_paddings": {"list": {}}, "padding": {"s": "U0FNRQ=="}, "fused_ops": {"list": {"s": ["Qmlhc0FkZA==", "UmVsdTY="]}}, "data_format": {"s": "TkhXQw=="}, "strides": {"list": {"i": ["1", "1", "1", "1"]}}}}, {"name": "model_1/block3b_project_bn/FusedBatchNormV3", "op": "_FusedConv2D", "input": ["model_1/block3b_dwconv/depthwise", "model_1/block3b_project_conv/Conv2D_weights", "model_1/block3b_project_conv/Conv2D_bn_offset"], "device": "/device:CPU:0", "attr": {"num_args": {"i": "1"}, "T": {"type": "DT_FLOAT"}, "epsilon": {"f": 0.0}, "strides": {"list": {"i": ["1", "1", "1", "1"]}}, "data_format": {"s": "TkhXQw=="}, "use_cudnn_on_gpu": {"b": true}, "explicit_paddings": {"list": {}}, "fused_ops": {"list": {"s": ["Qmlhc0FkZA=="]}}, "dilations": {"list": {"i": ["1", "1", "1", "1"]}}, "padding": {"s": "U0FNRQ=="}}}, {"name": "model_1/block3b_add/add", "op": "AddV2", "input": ["model_1/block3b_project_bn/FusedBatchNormV3", "model_1/block3a_project_bn/FusedBatchNormV3"], "attr": {"T": {"type": "DT_FLOAT"}}}, {"name": "model_1/block3b_add/add_mbox_loc_1/separable_conv2d/depthwise", "op": "DepthwiseConv2dNative", "input": ["model_1/block3b_add/add", "model_1/block3b_add/add_mbox_loc_1/separable_conv2d/ReadVariableOp"], "attr": {"dilations": {"list": {"i": ["1", "1", "1", "1"]}}, "padding": {"s": "U0FNRQ=="}, "data_format": {"s": "TkhXQw=="}, "explicit_paddings": {"list": {}}, "T": {"type": "DT_FLOAT"}, "strides": {"list": {"i": ["1", "1", "1", "1"]}}}}, {"name": "model_1/block3b_add/add_mbox_conf_1/separable_conv2d/depthwise", "op": "DepthwiseConv2dNative", "input": ["model_1/block3b_add/add", "model_1/block3b_add/add_mbox_conf_1/separable_conv2d/ReadVariableOp"], "attr": {"padding": {"s": "U0FNRQ=="}, "T": {"type": "DT_FLOAT"}, "explicit_paddings": {"list": {}}, "strides": {"list": {"i": ["1", "1", "1", "1"]}}, "dilations": {"list": {"i": ["1", "1", "1", "1"]}}, "data_format": {"s": "TkhXQw=="}}}, {"name": "model_1/block4a_expand_activation/Relu6", "op": "_FusedConv2D", "input": ["model_1/block3b_add/add", "model_1/block4a_expand_conv/Conv2D_weights", "model_1/block4a_expand_conv/Conv2D_bn_offset"], "device": "/device:CPU:0", "attr": {"epsilon": {"f": 0.0}, "fused_ops": {"list": {"s": ["Qmlhc0FkZA==", "UmVsdTY="]}}, "padding": {"s": "U0FNRQ=="}, "strides": {"list": {"i": ["1", "1", "1", "1"]}}, "num_args": {"i": "1"}, "T": {"type": "DT_FLOAT"}, "data_format": {"s": "TkhXQw=="}, "explicit_paddings": {"list": {}}, "dilations": {"list": {"i": ["1", "1", "1", "1"]}}, "use_cudnn_on_gpu": {"b": true}}}, {"name": "model_1/block3b_add/add_mbox_loc_1/BiasAdd", "op": "_FusedConv2D", "input": ["model_1/block3b_add/add_mbox_loc_1/separable_conv2d/depthwise", "model_1/block3b_add/add_mbox_loc_1/separable_conv2d/ReadVariableOp_1", "model_1/block3b_add/add_mbox_loc_1/BiasAdd/ReadVariableOp"], "device": "/device:CPU:0", "attr": {"epsilon": {"f": 0.0}, "explicit_paddings": {"list": {}}, "data_format": {"s": "TkhXQw=="}, "num_args": {"i": "1"}, "T": {"type": "DT_FLOAT"}, "dilations": {"list": {"i": ["1", "1", "1", "1"]}}, "use_cudnn_on_gpu": {"b": true}, "fused_ops": {"list": {"s": ["Qmlhc0FkZA=="]}}, "strides": {"list": {"i": ["1", "1", "1", "1"]}}, "padding": {"s": "VkFMSUQ="}}}, {"name": "model_1/block3b_add/add_mbox_conf_1/BiasAdd", "op": "_FusedConv2D", "input": ["model_1/block3b_add/add_mbox_conf_1/separable_conv2d/depthwise", "model_1/block3b_add/add_mbox_conf_1/separable_conv2d/ReadVariableOp_1", "model_1/block3b_add/add_mbox_conf_1/BiasAdd/ReadVariableOp"], "device": "/device:CPU:0", "attr": {"num_args": {"i": "1"}, "padding": {"s": "VkFMSUQ="}, "use_cudnn_on_gpu": {"b": true}, "explicit_paddings": {"list": {}}, "fused_ops": {"list": {"s": ["Qmlhc0FkZA=="]}}, "strides": {"list": {"i": ["1", "1", "1", "1"]}}, "T": {"type": "DT_FLOAT"}, "epsilon": {"f": 0.0}, "dilations": {"list": {"i": ["1", "1", "1", "1"]}}, "data_format": {"s": "TkhXQw=="}}}, {"name": "model_1/block4a_dwconv_pad/Pad", "op": "Pad", "input": ["model_1/block4a_expand_activation/Relu6", "model_1/block4a_dwconv_pad/Pad/paddings"], "attr": {"Tpaddings": {"type": "DT_INT32"}, "T": {"type": "DT_FLOAT"}}}, {"name": "model_1/block3b_add/add_mbox_loc_flat/Reshape", "op": "Reshape", "input": ["model_1/block3b_add/add_mbox_loc_1/BiasAdd", "model_1/block3b_add/add_mbox_loc_flat/Const"], "attr": {"Tshape": {"type": "DT_INT32"}, "T": {"type": "DT_FLOAT"}}}, {"name": "model_1/block3b_add/add_mbox_conf_flat/Reshape", "op": "Reshape", "input": ["model_1/block3b_add/add_mbox_conf_1/BiasAdd", "model_1/block3b_add/add_mbox_conf_flat/Const"], "attr": {"T": {"type": "DT_FLOAT"}, "Tshape": {"type": "DT_INT32"}}}, {"name": "model_1/block4a_dwconv/depthwise", "op": "FusedDepthwiseConv2dNative", "input": ["model_1/block4a_dwconv_pad/Pad", "model_1/block4a_dwconv/depthwise_weights", "model_1/block4a_dwconv/depthwise_bn_offset"], "attr": {"strides": {"list": {"i": ["1", "2", "2", "1"]}}, "fused_ops": {"list": {"s": ["Qmlhc0FkZA==", "UmVsdTY="]}}, "num_args": {"i": "1"}, "dilations": {"list": {"i": ["1", "1", "1", "1"]}}, "T": {"type": "DT_FLOAT"}, "data_format": {"s": "TkhXQw=="}, "padding": {"s": "VkFMSUQ="}, "explicit_paddings": {"list": {}}}}, {"name": "model_1/block4a_project_bn/FusedBatchNormV3", "op": "_FusedConv2D", "input": ["model_1/block4a_dwconv/depthwise", "model_1/block4a_project_conv/Conv2D_weights", "model_1/block4a_project_conv/Conv2D_bn_offset"], "device": "/device:CPU:0", "attr": {"dilations": {"list": {"i": ["1", "1", "1", "1"]}}, "T": {"type": "DT_FLOAT"}, "explicit_paddings": {"list": {}}, "padding": {"s": "U0FNRQ=="}, "strides": {"list": {"i": ["1", "1", "1", "1"]}}, "num_args": {"i": "1"}, "use_cudnn_on_gpu": {"b": true}, "data_format": {"s": "TkhXQw=="}, "fused_ops": {"list": {"s": ["Qmlhc0FkZA=="]}}, "epsilon": {"f": 0.0}}}, {"name": "model_1/block4b_expand_activation/Relu6", "op": "_FusedConv2D", "input": ["model_1/block4a_project_bn/FusedBatchNormV3", "model_1/block4b_expand_conv/Conv2D_weights", "model_1/block4b_expand_conv/Conv2D_bn_offset"], "device": "/device:CPU:0", "attr": {"strides": {"list": {"i": ["1", "1", "1", "1"]}}, "num_args": {"i": "1"}, "T": {"type": "DT_FLOAT"}, "use_cudnn_on_gpu": {"b": true}, "padding": {"s": "U0FNRQ=="}, "data_format": {"s": "TkhXQw=="}, "dilations": {"list": {"i": ["1", "1", "1", "1"]}}, "explicit_paddings": {"list": {}}, "epsilon": {"f": 0.0}, "fused_ops": {"list": {"s": ["Qmlhc0FkZA==", "UmVsdTY="]}}}}, {"name": "model_1/block4b_dwconv/depthwise", "op": "FusedDepthwiseConv2dNative", "input": ["model_1/block4b_expand_activation/Relu6", "model_1/block4b_dwconv/depthwise_weights", "model_1/block4b_dwconv/depthwise_bn_offset"], "attr": {"data_format": {"s": "TkhXQw=="}, "fused_ops": {"list": {"s": ["Qmlhc0FkZA==", "UmVsdTY="]}}, "strides": {"list": {"i": ["1", "1", "1", "1"]}}, "dilations": {"list": {"i": ["1", "1", "1", "1"]}}, "num_args": {"i": "1"}, "explicit_paddings": {"list": {}}, "padding": {"s": "U0FNRQ=="}, "T": {"type": "DT_FLOAT"}}}, {"name": "model_1/block4b_project_bn/FusedBatchNormV3", "op": "_FusedConv2D", "input": ["model_1/block4b_dwconv/depthwise", "model_1/block4b_project_conv/Conv2D_weights", "model_1/block4b_project_conv/Conv2D_bn_offset"], "device": "/device:CPU:0", "attr": {"T": {"type": "DT_FLOAT"}, "padding": {"s": "U0FNRQ=="}, "fused_ops": {"list": {"s": ["Qmlhc0FkZA=="]}}, "use_cudnn_on_gpu": {"b": true}, "epsilon": {"f": 0.0}, "strides": {"list": {"i": ["1", "1", "1", "1"]}}, "num_args": {"i": "1"}, "data_format": {"s": "TkhXQw=="}, "dilations": {"list": {"i": ["1", "1", "1", "1"]}}, "explicit_paddings": {"list": {}}}}, {"name": "model_1/block4b_add/add", "op": "AddV2", "input": ["model_1/block4b_project_bn/FusedBatchNormV3", "model_1/block4a_project_bn/FusedBatchNormV3"], "attr": {"T": {"type": "DT_FLOAT"}}}, {"name": "model_1/block4c_expand_activation/Relu6", "op": "_FusedConv2D", "input": ["model_1/block4b_add/add", "model_1/block4c_expand_conv/Conv2D_weights", "model_1/block4c_expand_conv/Conv2D_bn_offset"], "device": "/device:CPU:0", "attr": {"epsilon": {"f": 0.0}, "dilations": {"list": {"i": ["1", "1", "1", "1"]}}, "strides": {"list": {"i": ["1", "1", "1", "1"]}}, "padding": {"s": "U0FNRQ=="}, "use_cudnn_on_gpu": {"b": true}, "T": {"type": "DT_FLOAT"}, "data_format": {"s": "TkhXQw=="}, "explicit_paddings": {"list": {}}, "fused_ops": {"list": {"s": ["Qmlhc0FkZA==", "UmVsdTY="]}}, "num_args": {"i": "1"}}}, {"name": "model_1/block4c_dwconv/depthwise", "op": "FusedDepthwiseConv2dNative", "input": ["model_1/block4c_expand_activation/Relu6", "model_1/block4c_dwconv/depthwise_weights", "model_1/block4c_dwconv/depthwise_bn_offset"], "attr": {"fused_ops": {"list": {"s": ["Qmlhc0FkZA==", "UmVsdTY="]}}, "dilations": {"list": {"i": ["1", "1", "1", "1"]}}, "padding": {"s": "U0FNRQ=="}, "T": {"type": "DT_FLOAT"}, "strides": {"list": {"i": ["1", "1", "1", "1"]}}, "data_format": {"s": "TkhXQw=="}, "num_args": {"i": "1"}, "explicit_paddings": {"list": {}}}}, {"name": "model_1/block4c_project_bn/FusedBatchNormV3", "op": "_FusedConv2D", "input": ["model_1/block4c_dwconv/depthwise", "model_1/block4c_project_conv/Conv2D_weights", "model_1/block4c_project_conv/Conv2D_bn_offset"], "device": "/device:CPU:0", "attr": {"T": {"type": "DT_FLOAT"}, "num_args": {"i": "1"}, "data_format": {"s": "TkhXQw=="}, "epsilon": {"f": 0.0}, "dilations": {"list": {"i": ["1", "1", "1", "1"]}}, "strides": {"list": {"i": ["1", "1", "1", "1"]}}, "use_cudnn_on_gpu": {"b": true}, "explicit_paddings": {"list": {}}, "padding": {"s": "U0FNRQ=="}, "fused_ops": {"list": {"s": ["Qmlhc0FkZA=="]}}}}, {"name": "model_1/block4c_add/add", "op": "AddV2", "input": ["model_1/block4c_project_bn/FusedBatchNormV3", "model_1/block4b_add/add"], "attr": {"T": {"type": "DT_FLOAT"}}}, {"name": "model_1/block5a_expand_activation/Relu6", "op": "_FusedConv2D", "input": ["model_1/block4c_add/add", "model_1/block5a_expand_conv/Conv2D_weights", "model_1/block5a_expand_conv/Conv2D_bn_offset"], "device": "/device:CPU:0", "attr": {"explicit_paddings": {"list": {}}, "padding": {"s": "U0FNRQ=="}, "strides": {"list": {"i": ["1", "1", "1", "1"]}}, "T": {"type": "DT_FLOAT"}, "use_cudnn_on_gpu": {"b": true}, "fused_ops": {"list": {"s": ["Qmlhc0FkZA==", "UmVsdTY="]}}, "num_args": {"i": "1"}, "data_format": {"s": "TkhXQw=="}, "epsilon": {"f": 0.0}, "dilations": {"list": {"i": ["1", "1", "1", "1"]}}}}, {"name": "model_1/block5a_dwconv/depthwise", "op": "FusedDepthwiseConv2dNative", "input": ["model_1/block5a_expand_activation/Relu6", "model_1/block5a_dwconv/depthwise_weights", "model_1/block5a_dwconv/depthwise_bn_offset"], "attr": {"data_format": {"s": "TkhXQw=="}, "strides": {"list": {"i": ["1", "1", "1", "1"]}}, "padding": {"s": "U0FNRQ=="}, "num_args": {"i": "1"}, "dilations": {"list": {"i": ["1", "1", "1", "1"]}}, "T": {"type": "DT_FLOAT"}, "fused_ops": {"list": {"s": ["Qmlhc0FkZA==", "UmVsdTY="]}}, "explicit_paddings": {"list": {}}}}, {"name": "model_1/block5a_project_bn/FusedBatchNormV3", "op": "_FusedConv2D", "input": ["model_1/block5a_dwconv/depthwise", "model_1/block5a_project_conv/Conv2D_weights", "model_1/block5a_project_conv/Conv2D_bn_offset"], "device": "/device:CPU:0", "attr": {"padding": {"s": "U0FNRQ=="}, "dilations": {"list": {"i": ["1", "1", "1", "1"]}}, "strides": {"list": {"i": ["1", "1", "1", "1"]}}, "num_args": {"i": "1"}, "use_cudnn_on_gpu": {"b": true}, "T": {"type": "DT_FLOAT"}, "data_format": {"s": "TkhXQw=="}, "epsilon": {"f": 0.0}, "explicit_paddings": {"list": {}}, "fused_ops": {"list": {"s": ["Qmlhc0FkZA=="]}}}}, {"name": "model_1/block5b_expand_activation/Relu6", "op": "_FusedConv2D", "input": ["model_1/block5a_project_bn/FusedBatchNormV3", "model_1/block5b_expand_conv/Conv2D_weights", "model_1/block5b_expand_conv/Conv2D_bn_offset"], "device": "/device:CPU:0", "attr": {"strides": {"list": {"i": ["1", "1", "1", "1"]}}, "T": {"type": "DT_FLOAT"}, "use_cudnn_on_gpu": {"b": true}, "data_format": {"s": "TkhXQw=="}, "dilations": {"list": {"i": ["1", "1", "1", "1"]}}, "epsilon": {"f": 0.0}, "fused_ops": {"list": {"s": ["Qmlhc0FkZA==", "UmVsdTY="]}}, "padding": {"s": "U0FNRQ=="}, "explicit_paddings": {"list": {}}, "num_args": {"i": "1"}}}, {"name": "model_1/block5b_dwconv/depthwise", "op": "FusedDepthwiseConv2dNative", "input": ["model_1/block5b_expand_activation/Relu6", "model_1/block5b_dwconv/depthwise_weights", "model_1/block5b_dwconv/depthwise_bn_offset"], "attr": {"padding": {"s": "U0FNRQ=="}, "dilations": {"list": {"i": ["1", "1", "1", "1"]}}, "strides": {"list": {"i": ["1", "1", "1", "1"]}}, "data_format": {"s": "TkhXQw=="}, "T": {"type": "DT_FLOAT"}, "explicit_paddings": {"list": {}}, "fused_ops": {"list": {"s": ["Qmlhc0FkZA==", "UmVsdTY="]}}, "num_args": {"i": "1"}}}, {"name": "model_1/block5b_project_bn/FusedBatchNormV3", "op": "_FusedConv2D", "input": ["model_1/block5b_dwconv/depthwise", "model_1/block5b_project_conv/Conv2D_weights", "model_1/block5b_project_conv/Conv2D_bn_offset"], "device": "/device:CPU:0", "attr": {"explicit_paddings": {"list": {}}, "fused_ops": {"list": {"s": ["Qmlhc0FkZA=="]}}, "T": {"type": "DT_FLOAT"}, "dilations": {"list": {"i": ["1", "1", "1", "1"]}}, "num_args": {"i": "1"}, "use_cudnn_on_gpu": {"b": true}, "data_format": {"s": "TkhXQw=="}, "strides": {"list": {"i": ["1", "1", "1", "1"]}}, "padding": {"s": "U0FNRQ=="}, "epsilon": {"f": 0.0}}}, {"name": "model_1/block5b_add/add", "op": "AddV2", "input": ["model_1/block5b_project_bn/FusedBatchNormV3", "model_1/block5a_project_bn/FusedBatchNormV3"], "attr": {"T": {"type": "DT_FLOAT"}}}, {"name": "model_1/block5c_expand_activation/Relu6", "op": "_FusedConv2D", "input": ["model_1/block5b_add/add", "model_1/block5c_expand_conv/Conv2D_weights", "model_1/block5c_expand_conv/Conv2D_bn_offset"], "device": "/device:CPU:0", "attr": {"dilations": {"list": {"i": ["1", "1", "1", "1"]}}, "explicit_paddings": {"list": {}}, "T": {"type": "DT_FLOAT"}, "padding": {"s": "U0FNRQ=="}, "strides": {"list": {"i": ["1", "1", "1", "1"]}}, "data_format": {"s": "TkhXQw=="}, "num_args": {"i": "1"}, "epsilon": {"f": 0.0}, "use_cudnn_on_gpu": {"b": true}, "fused_ops": {"list": {"s": ["Qmlhc0FkZA==", "UmVsdTY="]}}}}, {"name": "model_1/block5c_dwconv/depthwise", "op": "FusedDepthwiseConv2dNative", "input": ["model_1/block5c_expand_activation/Relu6", "model_1/block5c_dwconv/depthwise_weights", "model_1/block5c_dwconv/depthwise_bn_offset"], "attr": {"dilations": {"list": {"i": ["1", "1", "1", "1"]}}, "explicit_paddings": {"list": {}}, "data_format": {"s": "TkhXQw=="}, "padding": {"s": "U0FNRQ=="}, "fused_ops": {"list": {"s": ["Qmlhc0FkZA==", "UmVsdTY="]}}, "T": {"type": "DT_FLOAT"}, "strides": {"list": {"i": ["1", "1", "1", "1"]}}, "num_args": {"i": "1"}}}, {"name": "model_1/block5c_project_bn/FusedBatchNormV3", "op": "_FusedConv2D", "input": ["model_1/block5c_dwconv/depthwise", "model_1/block5c_project_conv/Conv2D_weights", "model_1/block5c_project_conv/Conv2D_bn_offset"], "device": "/device:CPU:0", "attr": {"explicit_paddings": {"list": {}}, "data_format": {"s": "TkhXQw=="}, "use_cudnn_on_gpu": {"b": true}, "padding": {"s": "U0FNRQ=="}, "T": {"type": "DT_FLOAT"}, "strides": {"list": {"i": ["1", "1", "1", "1"]}}, "epsilon": {"f": 0.0}, "dilations": {"list": {"i": ["1", "1", "1", "1"]}}, "fused_ops": {"list": {"s": ["Qmlhc0FkZA=="]}}, "num_args": {"i": "1"}}}, {"name": "model_1/block5c_add/add", "op": "AddV2", "input": ["model_1/block5c_project_bn/FusedBatchNormV3", "model_1/block5b_add/add"], "attr": {"T": {"type": "DT_FLOAT"}}}, {"name": "model_1/block5c_add/add_mbox_loc_1/separable_conv2d/depthwise", "op": "DepthwiseConv2dNative", "input": ["model_1/block5c_add/add", "model_1/block5c_add/add_mbox_loc_1/separable_conv2d/ReadVariableOp"], "attr": {"explicit_paddings": {"list": {}}, "padding": {"s": "U0FNRQ=="}, "data_format": {"s": "TkhXQw=="}, "dilations": {"list": {"i": ["1", "1", "1", "1"]}}, "strides": {"list": {"i": ["1", "1", "1", "1"]}}, "T": {"type": "DT_FLOAT"}}}, {"name": "model_1/block5c_add/add_mbox_conf_1/separable_conv2d/depthwise", "op": "DepthwiseConv2dNative", "input": ["model_1/block5c_add/add", "model_1/block5c_add/add_mbox_conf_1/separable_conv2d/ReadVariableOp"], "attr": {"data_format": {"s": "TkhXQw=="}, "padding": {"s": "U0FNRQ=="}, "dilations": {"list": {"i": ["1", "1", "1", "1"]}}, "T": {"type": "DT_FLOAT"}, "strides": {"list": {"i": ["1", "1", "1", "1"]}}, "explicit_paddings": {"list": {}}}}, {"name": "model_1/block6a_expand_activation/Relu6", "op": "_FusedConv2D", "input": ["model_1/block5c_add/add", "model_1/block6a_expand_conv/Conv2D_weights", "model_1/block6a_expand_conv/Conv2D_bn_offset"], "device": "/device:CPU:0", "attr": {"data_format": {"s": "TkhXQw=="}, "T": {"type": "DT_FLOAT"}, "use_cudnn_on_gpu": {"b": true}, "num_args": {"i": "1"}, "strides": {"list": {"i": ["1", "1", "1", "1"]}}, "fused_ops": {"list": {"s": ["Qmlhc0FkZA==", "UmVsdTY="]}}, "epsilon": {"f": 0.0}, "dilations": {"list": {"i": ["1", "1", "1", "1"]}}, "padding": {"s": "U0FNRQ=="}, "explicit_paddings": {"list": {}}}}, {"name": "model_1/block5c_add/add_mbox_loc_1/BiasAdd", "op": "_FusedConv2D", "input": ["model_1/block5c_add/add_mbox_loc_1/separable_conv2d/depthwise", "model_1/block5c_add/add_mbox_loc_1/separable_conv2d/ReadVariableOp_1", "model_1/block5c_add/add_mbox_loc_1/BiasAdd/ReadVariableOp"], "device": "/device:CPU:0", "attr": {"explicit_paddings": {"list": {}}, "fused_ops": {"list": {"s": ["Qmlhc0FkZA=="]}}, "data_format": {"s": "TkhXQw=="}, "dilations": {"list": {"i": ["1", "1", "1", "1"]}}, "use_cudnn_on_gpu": {"b": true}, "strides": {"list": {"i": ["1", "1", "1", "1"]}}, "T": {"type": "DT_FLOAT"}, "epsilon": {"f": 0.0}, "padding": {"s": "VkFMSUQ="}, "num_args": {"i": "1"}}}, {"name": "model_1/block5c_add/add_mbox_conf_1/BiasAdd", "op": "_FusedConv2D", "input": ["model_1/block5c_add/add_mbox_conf_1/separable_conv2d/depthwise", "model_1/block5c_add/add_mbox_conf_1/separable_conv2d/ReadVariableOp_1", "model_1/block5c_add/add_mbox_conf_1/BiasAdd/ReadVariableOp"], "device": "/device:CPU:0", "attr": {"T": {"type": "DT_FLOAT"}, "use_cudnn_on_gpu": {"b": true}, "num_args": {"i": "1"}, "epsilon": {"f": 0.0}, "fused_ops": {"list": {"s": ["Qmlhc0FkZA=="]}}, "padding": {"s": "VkFMSUQ="}, "explicit_paddings": {"list": {}}, "strides": {"list": {"i": ["1", "1", "1", "1"]}}, "data_format": {"s": "TkhXQw=="}, "dilations": {"list": {"i": ["1", "1", "1", "1"]}}}}, {"name": "model_1/block6a_dwconv_pad/Pad", "op": "Pad", "input": ["model_1/block6a_expand_activation/Relu6", "model_1/block6a_dwconv_pad/Pad/paddings"], "attr": {"T": {"type": "DT_FLOAT"}, "Tpaddings": {"type": "DT_INT32"}}}, {"name": "model_1/block5c_add/add_mbox_loc_flat/Reshape", "op": "Reshape", "input": ["model_1/block5c_add/add_mbox_loc_1/BiasAdd", "model_1/block5c_add/add_mbox_loc_flat/Const"], "attr": {"T": {"type": "DT_FLOAT"}, "Tshape": {"type": "DT_INT32"}}}, {"name": "model_1/block5c_add/add_mbox_conf_flat/Reshape", "op": "Reshape", "input": ["model_1/block5c_add/add_mbox_conf_1/BiasAdd", "model_1/block5c_add/add_mbox_conf_flat/Const"], "attr": {"Tshape": {"type": "DT_INT32"}, "T": {"type": "DT_FLOAT"}}}, {"name": "model_1/block6a_dwconv/depthwise", "op": "FusedDepthwiseConv2dNative", "input": ["model_1/block6a_dwconv_pad/Pad", "model_1/block6a_dwconv/depthwise_weights", "model_1/block6a_dwconv/depthwise_bn_offset"], "attr": {"dilations": {"list": {"i": ["1", "1", "1", "1"]}}, "strides": {"list": {"i": ["1", "2", "2", "1"]}}, "explicit_paddings": {"list": {}}, "T": {"type": "DT_FLOAT"}, "num_args": {"i": "1"}, "padding": {"s": "VkFMSUQ="}, "fused_ops": {"list": {"s": ["Qmlhc0FkZA==", "UmVsdTY="]}}, "data_format": {"s": "TkhXQw=="}}}, {"name": "model_1/block6a_project_bn/FusedBatchNormV3", "op": "_FusedConv2D", "input": ["model_1/block6a_dwconv/depthwise", "model_1/block6a_project_conv/Conv2D_weights", "model_1/block6a_project_conv/Conv2D_bn_offset"], "device": "/device:CPU:0", "attr": {"padding": {"s": "U0FNRQ=="}, "num_args": {"i": "1"}, "strides": {"list": {"i": ["1", "1", "1", "1"]}}, "use_cudnn_on_gpu": {"b": true}, "T": {"type": "DT_FLOAT"}, "dilations": {"list": {"i": ["1", "1", "1", "1"]}}, "fused_ops": {"list": {"s": ["Qmlhc0FkZA=="]}}, "data_format": {"s": "TkhXQw=="}, "explicit_paddings": {"list": {}}, "epsilon": {"f": 0.0}}}, {"name": "model_1/block6b_expand_activation/Relu6", "op": "_FusedConv2D", "input": ["model_1/block6a_project_bn/FusedBatchNormV3", "model_1/block6b_expand_conv/Conv2D_weights", "model_1/block6b_expand_conv/Conv2D_bn_offset"], "device": "/device:CPU:0", "attr": {"epsilon": {"f": 0.0}, "padding": {"s": "U0FNRQ=="}, "num_args": {"i": "1"}, "explicit_paddings": {"list": {}}, "strides": {"list": {"i": ["1", "1", "1", "1"]}}, "fused_ops": {"list": {"s": ["Qmlhc0FkZA==", "UmVsdTY="]}}, "use_cudnn_on_gpu": {"b": true}, "data_format": {"s": "TkhXQw=="}, "dilations": {"list": {"i": ["1", "1", "1", "1"]}}, "T": {"type": "DT_FLOAT"}}}, {"name": "model_1/block6b_dwconv/depthwise", "op": "FusedDepthwiseConv2dNative", "input": ["model_1/block6b_expand_activation/Relu6", "model_1/block6b_dwconv/depthwise_weights", "model_1/block6b_dwconv/depthwise_bn_offset"], "attr": {"data_format": {"s": "TkhXQw=="}, "num_args": {"i": "1"}, "padding": {"s": "U0FNRQ=="}, "dilations": {"list": {"i": ["1", "1", "1", "1"]}}, "explicit_paddings": {"list": {}}, "T": {"type": "DT_FLOAT"}, "fused_ops": {"list": {"s": ["Qmlhc0FkZA==", "UmVsdTY="]}}, "strides": {"list": {"i": ["1", "1", "1", "1"]}}}}, {"name": "model_1/block6b_project_bn/FusedBatchNormV3", "op": "_FusedConv2D", "input": ["model_1/block6b_dwconv/depthwise", "model_1/block6b_project_conv/Conv2D_weights", "model_1/block6b_project_conv/Conv2D_bn_offset"], "device": "/device:CPU:0", "attr": {"T": {"type": "DT_FLOAT"}, "use_cudnn_on_gpu": {"b": true}, "data_format": {"s": "TkhXQw=="}, "num_args": {"i": "1"}, "dilations": {"list": {"i": ["1", "1", "1", "1"]}}, "fused_ops": {"list": {"s": ["Qmlhc0FkZA=="]}}, "strides": {"list": {"i": ["1", "1", "1", "1"]}}, "epsilon": {"f": 0.0}, "padding": {"s": "U0FNRQ=="}, "explicit_paddings": {"list": {}}}}, {"name": "model_1/block6b_add/add", "op": "AddV2", "input": ["model_1/block6b_project_bn/FusedBatchNormV3", "model_1/block6a_project_bn/FusedBatchNormV3"], "attr": {"T": {"type": "DT_FLOAT"}}}, {"name": "model_1/block6c_expand_activation/Relu6", "op": "_FusedConv2D", "input": ["model_1/block6b_add/add", "model_1/block6c_expand_conv/Conv2D_weights", "model_1/block6c_expand_conv/Conv2D_bn_offset"], "device": "/device:CPU:0", "attr": {"dilations": {"list": {"i": ["1", "1", "1", "1"]}}, "data_format": {"s": "TkhXQw=="}, "strides": {"list": {"i": ["1", "1", "1", "1"]}}, "padding": {"s": "U0FNRQ=="}, "use_cudnn_on_gpu": {"b": true}, "num_args": {"i": "1"}, "T": {"type": "DT_FLOAT"}, "explicit_paddings": {"list": {}}, "fused_ops": {"list": {"s": ["Qmlhc0FkZA==", "UmVsdTY="]}}, "epsilon": {"f": 0.0}}}, {"name": "model_1/block6c_dwconv/depthwise", "op": "FusedDepthwiseConv2dNative", "input": ["model_1/block6c_expand_activation/Relu6", "model_1/block6c_dwconv/depthwise_weights", "model_1/block6c_dwconv/depthwise_bn_offset"], "attr": {"fused_ops": {"list": {"s": ["Qmlhc0FkZA==", "UmVsdTY="]}}, "num_args": {"i": "1"}, "T": {"type": "DT_FLOAT"}, "padding": {"s": "U0FNRQ=="}, "strides": {"list": {"i": ["1", "1", "1", "1"]}}, "data_format": {"s": "TkhXQw=="}, "dilations": {"list": {"i": ["1", "1", "1", "1"]}}, "explicit_paddings": {"list": {}}}}, {"name": "model_1/block6c_project_bn/FusedBatchNormV3", "op": "_FusedConv2D", "input": ["model_1/block6c_dwconv/depthwise", "model_1/block6c_project_conv/Conv2D_weights", "model_1/block6c_project_conv/Conv2D_bn_offset"], "device": "/device:CPU:0", "attr": {"fused_ops": {"list": {"s": ["Qmlhc0FkZA=="]}}, "explicit_paddings": {"list": {}}, "dilations": {"list": {"i": ["1", "1", "1", "1"]}}, "num_args": {"i": "1"}, "strides": {"list": {"i": ["1", "1", "1", "1"]}}, "T": {"type": "DT_FLOAT"}, "epsilon": {"f": 0.0}, "padding": {"s": "U0FNRQ=="}, "use_cudnn_on_gpu": {"b": true}, "data_format": {"s": "TkhXQw=="}}}, {"name": "model_1/block6c_add/add", "op": "AddV2", "input": ["model_1/block6c_project_bn/FusedBatchNormV3", "model_1/block6b_add/add"], "attr": {"T": {"type": "DT_FLOAT"}}}, {"name": "model_1/block6d_expand_activation/Relu6", "op": "_FusedConv2D", "input": ["model_1/block6c_add/add", "model_1/block6d_expand_conv/Conv2D_weights", "model_1/block6d_expand_conv/Conv2D_bn_offset"], "device": "/device:CPU:0", "attr": {"padding": {"s": "U0FNRQ=="}, "epsilon": {"f": 0.0}, "T": {"type": "DT_FLOAT"}, "strides": {"list": {"i": ["1", "1", "1", "1"]}}, "data_format": {"s": "TkhXQw=="}, "use_cudnn_on_gpu": {"b": true}, "fused_ops": {"list": {"s": ["Qmlhc0FkZA==", "UmVsdTY="]}}, "num_args": {"i": "1"}, "explicit_paddings": {"list": {}}, "dilations": {"list": {"i": ["1", "1", "1", "1"]}}}}, {"name": "model_1/block6d_dwconv/depthwise", "op": "FusedDepthwiseConv2dNative", "input": ["model_1/block6d_expand_activation/Relu6", "model_1/block6d_dwconv/depthwise_weights", "model_1/block6d_dwconv/depthwise_bn_offset"], "attr": {"fused_ops": {"list": {"s": ["Qmlhc0FkZA==", "UmVsdTY="]}}, "num_args": {"i": "1"}, "T": {"type": "DT_FLOAT"}, "strides": {"list": {"i": ["1", "1", "1", "1"]}}, "explicit_paddings": {"list": {}}, "dilations": {"list": {"i": ["1", "1", "1", "1"]}}, "padding": {"s": "U0FNRQ=="}, "data_format": {"s": "TkhXQw=="}}}, {"name": "model_1/block6d_project_bn/FusedBatchNormV3", "op": "_FusedConv2D", "input": ["model_1/block6d_dwconv/depthwise", "model_1/block6d_project_conv/Conv2D_weights", "model_1/block6d_project_conv/Conv2D_bn_offset"], "device": "/device:CPU:0", "attr": {"strides": {"list": {"i": ["1", "1", "1", "1"]}}, "fused_ops": {"list": {"s": ["Qmlhc0FkZA=="]}}, "dilations": {"list": {"i": ["1", "1", "1", "1"]}}, "num_args": {"i": "1"}, "T": {"type": "DT_FLOAT"}, "padding": {"s": "U0FNRQ=="}, "epsilon": {"f": 0.0}, "use_cudnn_on_gpu": {"b": true}, "data_format": {"s": "TkhXQw=="}, "explicit_paddings": {"list": {}}}}, {"name": "model_1/block6d_add/add", "op": "AddV2", "input": ["model_1/block6d_project_bn/FusedBatchNormV3", "model_1/block6c_add/add"], "attr": {"T": {"type": "DT_FLOAT"}}}, {"name": "model_1/block7a_expand_activation/Relu6", "op": "_FusedConv2D", "input": ["model_1/block6d_add/add", "model_1/block7a_expand_conv/Conv2D_weights", "model_1/block7a_expand_conv/Conv2D_bn_offset"], "device": "/device:CPU:0", "attr": {"T": {"type": "DT_FLOAT"}, "fused_ops": {"list": {"s": ["Qmlhc0FkZA==", "UmVsdTY="]}}, "epsilon": {"f": 0.0}, "num_args": {"i": "1"}, "explicit_paddings": {"list": {}}, "use_cudnn_on_gpu": {"b": true}, "data_format": {"s": "TkhXQw=="}, "strides": {"list": {"i": ["1", "1", "1", "1"]}}, "dilations": {"list": {"i": ["1", "1", "1", "1"]}}, "padding": {"s": "U0FNRQ=="}}}, {"name": "model_1/block7a_dwconv/depthwise", "op": "FusedDepthwiseConv2dNative", "input": ["model_1/block7a_expand_activation/Relu6", "model_1/block7a_dwconv/depthwise_weights", "model_1/block7a_dwconv/depthwise_bn_offset"], "attr": {"strides": {"list": {"i": ["1", "1", "1", "1"]}}, "dilations": {"list": {"i": ["1", "1", "1", "1"]}}, "padding": {"s": "U0FNRQ=="}, "num_args": {"i": "1"}, "explicit_paddings": {"list": {}}, "fused_ops": {"list": {"s": ["Qmlhc0FkZA==", "UmVsdTY="]}}, "T": {"type": "DT_FLOAT"}, "data_format": {"s": "TkhXQw=="}}}, {"name": "model_1/block7a_project_bn/FusedBatchNormV3", "op": "_FusedConv2D", "input": ["model_1/block7a_dwconv/depthwise", "model_1/block7a_project_conv/Conv2D_weights", "model_1/block7a_project_conv/Conv2D_bn_offset"], "device": "/device:CPU:0", "attr": {"dilations": {"list": {"i": ["1", "1", "1", "1"]}}, "explicit_paddings": {"list": {}}, "data_format": {"s": "TkhXQw=="}, "padding": {"s": "U0FNRQ=="}, "strides": {"list": {"i": ["1", "1", "1", "1"]}}, "T": {"type": "DT_FLOAT"}, "epsilon": {"f": 0.0}, "use_cudnn_on_gpu": {"b": true}, "num_args": {"i": "1"}, "fused_ops": {"list": {"s": ["Qmlhc0FkZA=="]}}}}, {"name": "model_1/block7a_project_bn/FusedBatchNormV3_mbox_loc_1/separable_conv2d/depthwise", "op": "DepthwiseConv2dNative", "input": ["model_1/block7a_project_bn/FusedBatchNormV3", "model_1/block7a_project_bn/FusedBatchNormV3_mbox_loc_1/separable_conv2d/ReadVariableOp"], "attr": {"explicit_paddings": {"list": {}}, "data_format": {"s": "TkhXQw=="}, "padding": {"s": "U0FNRQ=="}, "strides": {"list": {"i": ["1", "1", "1", "1"]}}, "dilations": {"list": {"i": ["1", "1", "1", "1"]}}, "T": {"type": "DT_FLOAT"}}}, {"name": "model_1/block7a_project_bn/FusedBatchNormV3_mbox_conf_1/separable_conv2d/depthwise", "op": "DepthwiseConv2dNative", "input": ["model_1/block7a_project_bn/FusedBatchNormV3", "model_1/block7a_project_bn/FusedBatchNormV3_mbox_conf_1/separable_conv2d/ReadVariableOp"], "attr": {"dilations": {"list": {"i": ["1", "1", "1", "1"]}}, "T": {"type": "DT_FLOAT"}, "strides": {"list": {"i": ["1", "1", "1", "1"]}}, "explicit_paddings": {"list": {}}, "padding": {"s": "U0FNRQ=="}, "data_format": {"s": "TkhXQw=="}}}, {"name": "model_1/re_lu/Relu6", "op": "_FusedConv2D", "input": ["model_1/block7a_project_bn/FusedBatchNormV3", "model_1/conv2d/Conv2D_weights", "model_1/conv2d/Conv2D_bn_offset"], "device": "/device:CPU:0", "attr": {"use_cudnn_on_gpu": {"b": true}, "strides": {"list": {"i": ["1", "1", "1", "1"]}}, "fused_ops": {"list": {"s": ["Qmlhc0FkZA==", "UmVsdTY="]}}, "epsilon": {"f": 0.0}, "explicit_paddings": {"list": {}}, "dilations": {"list": {"i": ["1", "1", "1", "1"]}}, "num_args": {"i": "1"}, "T": {"type": "DT_FLOAT"}, "data_format": {"s": "TkhXQw=="}, "padding": {"s": "U0FNRQ=="}}}, {"name": "model_1/block7a_project_bn/FusedBatchNormV3_mbox_loc_1/BiasAdd", "op": "_FusedConv2D", "input": ["model_1/block7a_project_bn/FusedBatchNormV3_mbox_loc_1/separable_conv2d/depthwise", "model_1/block7a_project_bn/FusedBatchNormV3_mbox_loc_1/separable_conv2d/ReadVariableOp_1", "model_1/block7a_project_bn/FusedBatchNormV3_mbox_loc_1/BiasAdd/ReadVariableOp"], "device": "/device:CPU:0", "attr": {"padding": {"s": "VkFMSUQ="}, "explicit_paddings": {"list": {}}, "num_args": {"i": "1"}, "epsilon": {"f": 0.0}, "use_cudnn_on_gpu": {"b": true}, "dilations": {"list": {"i": ["1", "1", "1", "1"]}}, "fused_ops": {"list": {"s": ["Qmlhc0FkZA=="]}}, "T": {"type": "DT_FLOAT"}, "strides": {"list": {"i": ["1", "1", "1", "1"]}}, "data_format": {"s": "TkhXQw=="}}}, {"name": "model_1/block7a_project_bn/FusedBatchNormV3_mbox_conf_1/BiasAdd", "op": "_FusedConv2D", "input": ["model_1/block7a_project_bn/FusedBatchNormV3_mbox_conf_1/separable_conv2d/depthwise", "model_1/block7a_project_bn/FusedBatchNormV3_mbox_conf_1/separable_conv2d/ReadVariableOp_1", "model_1/block7a_project_bn/FusedBatchNormV3_mbox_conf_1/BiasAdd/ReadVariableOp"], "device": "/device:CPU:0", "attr": {"fused_ops": {"list": {"s": ["Qmlhc0FkZA=="]}}, "data_format": {"s": "TkhXQw=="}, "use_cudnn_on_gpu": {"b": true}, "num_args": {"i": "1"}, "strides": {"list": {"i": ["1", "1", "1", "1"]}}, "padding": {"s": "VkFMSUQ="}, "epsilon": {"f": 0.0}, "T": {"type": "DT_FLOAT"}, "dilations": {"list": {"i": ["1", "1", "1", "1"]}}, "explicit_paddings": {"list": {}}}}, {"name": "model_1/x5_padding/Pad", "op": "Pad", "input": ["model_1/re_lu/Relu6", "model_1/x5_padding/Pad/paddings"], "attr": {"T": {"type": "DT_FLOAT"}, "Tpaddings": {"type": "DT_INT32"}}}, {"name": "model_1/block7a_project_bn/FusedBatchNormV3_mbox_loc_flat/Reshape", "op": "Reshape", "input": ["model_1/block7a_project_bn/FusedBatchNormV3_mbox_loc_1/BiasAdd", "model_1/block7a_project_bn/FusedBatchNormV3_mbox_loc_flat/Const"], "attr": {"T": {"type": "DT_FLOAT"}, "Tshape": {"type": "DT_INT32"}}}, {"name": "model_1/block7a_project_bn/FusedBatchNormV3_mbox_conf_flat/Reshape", "op": "Reshape", "input": ["model_1/block7a_project_bn/FusedBatchNormV3_mbox_conf_1/BiasAdd", "model_1/block7a_project_bn/FusedBatchNormV3_mbox_conf_flat/Const"], "attr": {"T": {"type": "DT_FLOAT"}, "Tshape": {"type": "DT_INT32"}}}, {"name": "model_1/separable_conv2d/separable_conv2d/depthwise", "op": "DepthwiseConv2dNative", "input": ["model_1/x5_padding/Pad", "model_1/separable_conv2d/separable_conv2d/ReadVariableOp"], "attr": {"dilations": {"list": {"i": ["1", "1", "1", "1"]}}, "explicit_paddings": {"list": {}}, "strides": {"list": {"i": ["1", "2", "2", "1"]}}, "T": {"type": "DT_FLOAT"}, "data_format": {"s": "TkhXQw=="}, "padding": {"s": "VkFMSUQ="}}}, {"name": "model_1/re_lu_1/Relu6", "op": "_FusedConv2D", "input": ["model_1/separable_conv2d/separable_conv2d/depthwise", "model_1/separable_conv2d/separable_conv2d_weights", "model_1/separable_conv2d/separable_conv2d_bn_offset"], "device": "/device:CPU:0", "attr": {"padding": {"s": "VkFMSUQ="}, "T": {"type": "DT_FLOAT"}, "strides": {"list": {"i": ["1", "1", "1", "1"]}}, "explicit_paddings": {"list": {}}, "use_cudnn_on_gpu": {"b": true}, "fused_ops": {"list": {"s": ["Qmlhc0FkZA==", "UmVsdTY="]}}, "epsilon": {"f": 0.0}, "num_args": {"i": "1"}, "dilations": {"list": {"i": ["1", "1", "1", "1"]}}, "data_format": {"s": "TkhXQw=="}}}, {"name": "model_1/re_lu_1/Relu6_mbox_loc_1/separable_conv2d/depthwise", "op": "DepthwiseConv2dNative", "input": ["model_1/re_lu_1/Relu6", "model_1/re_lu_1/Relu6_mbox_loc_1/separable_conv2d/ReadVariableOp"], "attr": {"strides": {"list": {"i": ["1", "1", "1", "1"]}}, "T": {"type": "DT_FLOAT"}, "padding": {"s": "U0FNRQ=="}, "data_format": {"s": "TkhXQw=="}, "dilations": {"list": {"i": ["1", "1", "1", "1"]}}, "explicit_paddings": {"list": {}}}}, {"name": "model_1/re_lu_1/Relu6_mbox_conf_1/separable_conv2d/depthwise", "op": "DepthwiseConv2dNative", "input": ["model_1/re_lu_1/Relu6", "model_1/re_lu_1/Relu6_mbox_conf_1/separable_conv2d/ReadVariableOp"], "attr": {"explicit_paddings": {"list": {}}, "T": {"type": "DT_FLOAT"}, "padding": {"s": "U0FNRQ=="}, "dilations": {"list": {"i": ["1", "1", "1", "1"]}}, "strides": {"list": {"i": ["1", "1", "1", "1"]}}, "data_format": {"s": "TkhXQw=="}}}, {"name": "model_1/re_lu_2/Relu6", "op": "_FusedConv2D", "input": ["model_1/re_lu_1/Relu6", "model_1/conv2d_1/Conv2D_weights", "model_1/conv2d_1/Conv2D_bn_offset"], "device": "/device:CPU:0", "attr": {"num_args": {"i": "1"}, "epsilon": {"f": 0.0}, "data_format": {"s": "TkhXQw=="}, "explicit_paddings": {"list": {}}, "use_cudnn_on_gpu": {"b": true}, "fused_ops": {"list": {"s": ["Qmlhc0FkZA==", "UmVsdTY="]}}, "padding": {"s": "U0FNRQ=="}, "T": {"type": "DT_FLOAT"}, "dilations": {"list": {"i": ["1", "1", "1", "1"]}}, "strides": {"list": {"i": ["1", "1", "1", "1"]}}}}, {"name": "model_1/re_lu_1/Relu6_mbox_loc_1/BiasAdd", "op": "_FusedConv2D", "input": ["model_1/re_lu_1/Relu6_mbox_loc_1/separable_conv2d/depthwise", "model_1/re_lu_1/Relu6_mbox_loc_1/separable_conv2d/ReadVariableOp_1", "model_1/re_lu_1/Relu6_mbox_loc_1/BiasAdd/ReadVariableOp"], "device": "/device:CPU:0", "attr": {"strides": {"list": {"i": ["1", "1", "1", "1"]}}, "fused_ops": {"list": {"s": ["Qmlhc0FkZA=="]}}, "num_args": {"i": "1"}, "epsilon": {"f": 0.0}, "data_format": {"s": "TkhXQw=="}, "T": {"type": "DT_FLOAT"}, "padding": {"s": "VkFMSUQ="}, "use_cudnn_on_gpu": {"b": true}, "explicit_paddings": {"list": {}}, "dilations": {"list": {"i": ["1", "1", "1", "1"]}}}}, {"name": "model_1/re_lu_1/Relu6_mbox_conf_1/BiasAdd", "op": "_FusedConv2D", "input": ["model_1/re_lu_1/Relu6_mbox_conf_1/separable_conv2d/depthwise", "model_1/re_lu_1/Relu6_mbox_conf_1/separable_conv2d/ReadVariableOp_1", "model_1/re_lu_1/Relu6_mbox_conf_1/BiasAdd/ReadVariableOp"], "device": "/device:CPU:0", "attr": {"T": {"type": "DT_FLOAT"}, "fused_ops": {"list": {"s": ["Qmlhc0FkZA=="]}}, "explicit_paddings": {"list": {}}, "padding": {"s": "VkFMSUQ="}, "data_format": {"s": "TkhXQw=="}, "dilations": {"list": {"i": ["1", "1", "1", "1"]}}, "strides": {"list": {"i": ["1", "1", "1", "1"]}}, "num_args": {"i": "1"}, "use_cudnn_on_gpu": {"b": true}, "epsilon": {"f": 0.0}}}, {"name": "model_1/separable_conv2d_1/separable_conv2d/depthwise", "op": "DepthwiseConv2dNative", "input": ["model_1/re_lu_2/Relu6", "model_1/separable_conv2d_1/separable_conv2d/ReadVariableOp"], "attr": {"padding": {"s": "VkFMSUQ="}, "explicit_paddings": {"list": {}}, "dilations": {"list": {"i": ["1", "1", "1", "1"]}}, "data_format": {"s": "TkhXQw=="}, "T": {"type": "DT_FLOAT"}, "strides": {"list": {"i": ["1", "1", "1", "1"]}}}}, {"name": "model_1/re_lu_1/Relu6_mbox_loc_flat/Reshape", "op": "Reshape", "input": ["model_1/re_lu_1/Relu6_mbox_loc_1/BiasAdd", "model_1/re_lu_1/Relu6_mbox_loc_flat/Const"], "attr": {"T": {"type": "DT_FLOAT"}, "Tshape": {"type": "DT_INT32"}}}, {"name": "model_1/re_lu_1/Relu6_mbox_conf_flat/Reshape", "op": "Reshape", "input": ["model_1/re_lu_1/Relu6_mbox_conf_1/BiasAdd", "model_1/re_lu_1/Relu6_mbox_conf_flat/Const"], "attr": {"T": {"type": "DT_FLOAT"}, "Tshape": {"type": "DT_INT32"}}}, {"name": "model_1/re_lu_3/Relu6", "op": "_FusedConv2D", "input": ["model_1/separable_conv2d_1/separable_conv2d/depthwise", "model_1/separable_conv2d_1/separable_conv2d_weights", "model_1/separable_conv2d_1/separable_conv2d_bn_offset"], "device": "/device:CPU:0", "attr": {"strides": {"list": {"i": ["1", "1", "1", "1"]}}, "use_cudnn_on_gpu": {"b": true}, "fused_ops": {"list": {"s": ["Qmlhc0FkZA==", "UmVsdTY="]}}, "padding": {"s": "VkFMSUQ="}, "epsilon": {"f": 0.0}, "dilations": {"list": {"i": ["1", "1", "1", "1"]}}, "explicit_paddings": {"list": {}}, "num_args": {"i": "1"}, "T": {"type": "DT_FLOAT"}, "data_format": {"s": "TkhXQw=="}}}, {"name": "model_1/re_lu_3/Relu6_mbox_loc_1/separable_conv2d/depthwise", "op": "DepthwiseConv2dNative", "input": ["model_1/re_lu_3/Relu6", "model_1/re_lu_3/Relu6_mbox_loc_1/separable_conv2d/ReadVariableOp"], "attr": {"data_format": {"s": "TkhXQw=="}, "padding": {"s": "U0FNRQ=="}, "T": {"type": "DT_FLOAT"}, "dilations": {"list": {"i": ["1", "1", "1", "1"]}}, "strides": {"list": {"i": ["1", "1", "1", "1"]}}, "explicit_paddings": {"list": {}}}}, {"name": "model_1/re_lu_3/Relu6_mbox_conf_1/separable_conv2d/depthwise", "op": "DepthwiseConv2dNative", "input": ["model_1/re_lu_3/Relu6", "model_1/re_lu_3/Relu6_mbox_conf_1/separable_conv2d/ReadVariableOp"], "attr": {"T": {"type": "DT_FLOAT"}, "strides": {"list": {"i": ["1", "1", "1", "1"]}}, "dilations": {"list": {"i": ["1", "1", "1", "1"]}}, "explicit_paddings": {"list": {}}, "data_format": {"s": "TkhXQw=="}, "padding": {"s": "U0FNRQ=="}}}, {"name": "model_1/re_lu_4/Relu6", "op": "_FusedConv2D", "input": ["model_1/re_lu_3/Relu6", "model_1/conv2d_2/Conv2D_weights", "model_1/conv2d_2/Conv2D_bn_offset"], "device": "/device:CPU:0", "attr": {"strides": {"list": {"i": ["1", "1", "1", "1"]}}, "data_format": {"s": "TkhXQw=="}, "dilations": {"list": {"i": ["1", "1", "1", "1"]}}, "num_args": {"i": "1"}, "use_cudnn_on_gpu": {"b": true}, "fused_ops": {"list": {"s": ["Qmlhc0FkZA==", "UmVsdTY="]}}, "epsilon": {"f": 0.0}, "T": {"type": "DT_FLOAT"}, "padding": {"s": "U0FNRQ=="}, "explicit_paddings": {"list": {}}}}, {"name": "model_1/re_lu_3/Relu6_mbox_loc_1/BiasAdd", "op": "_FusedConv2D", "input": ["model_1/re_lu_3/Relu6_mbox_loc_1/separable_conv2d/depthwise", "model_1/re_lu_3/Relu6_mbox_loc_1/separable_conv2d/ReadVariableOp_1", "model_1/re_lu_3/Relu6_mbox_loc_1/BiasAdd/ReadVariableOp"], "device": "/device:CPU:0", "attr": {"num_args": {"i": "1"}, "explicit_paddings": {"list": {}}, "data_format": {"s": "TkhXQw=="}, "T": {"type": "DT_FLOAT"}, "use_cudnn_on_gpu": {"b": true}, "epsilon": {"f": 0.0}, "dilations": {"list": {"i": ["1", "1", "1", "1"]}}, "strides": {"list": {"i": ["1", "1", "1", "1"]}}, "fused_ops": {"list": {"s": ["Qmlhc0FkZA=="]}}, "padding": {"s": "VkFMSUQ="}}}, {"name": "model_1/re_lu_3/Relu6_mbox_conf_1/BiasAdd", "op": "_FusedConv2D", "input": ["model_1/re_lu_3/Relu6_mbox_conf_1/separable_conv2d/depthwise", "model_1/re_lu_3/Relu6_mbox_conf_1/separable_conv2d/ReadVariableOp_1", "model_1/re_lu_3/Relu6_mbox_conf_1/BiasAdd/ReadVariableOp"], "device": "/device:CPU:0", "attr": {"dilations": {"list": {"i": ["1", "1", "1", "1"]}}, "T": {"type": "DT_FLOAT"}, "use_cudnn_on_gpu": {"b": true}, "explicit_paddings": {"list": {}}, "fused_ops": {"list": {"s": ["Qmlhc0FkZA=="]}}, "padding": {"s": "VkFMSUQ="}, "data_format": {"s": "TkhXQw=="}, "epsilon": {"f": 0.0}, "num_args": {"i": "1"}, "strides": {"list": {"i": ["1", "1", "1", "1"]}}}}, {"name": "model_1/separable_conv2d_2/separable_conv2d/depthwise", "op": "DepthwiseConv2dNative", "input": ["model_1/re_lu_4/Relu6", "model_1/separable_conv2d_2/separable_conv2d/ReadVariableOp"], "attr": {"padding": {"s": "VkFMSUQ="}, "strides": {"list": {"i": ["1", "1", "1", "1"]}}, "dilations": {"list": {"i": ["1", "1", "1", "1"]}}, "T": {"type": "DT_FLOAT"}, "data_format": {"s": "TkhXQw=="}, "explicit_paddings": {"list": {}}}}, {"name": "model_1/re_lu_3/Relu6_mbox_loc_flat/Reshape", "op": "Reshape", "input": ["model_1/re_lu_3/Relu6_mbox_loc_1/BiasAdd", "model_1/re_lu_3/Relu6_mbox_loc_flat/Const"], "attr": {"T": {"type": "DT_FLOAT"}, "Tshape": {"type": "DT_INT32"}}}, {"name": "model_1/re_lu_3/Relu6_mbox_conf_flat/Reshape", "op": "Reshape", "input": ["model_1/re_lu_3/Relu6_mbox_conf_1/BiasAdd", "model_1/re_lu_3/Relu6_mbox_conf_flat/Const"], "attr": {"T": {"type": "DT_FLOAT"}, "Tshape": {"type": "DT_INT32"}}}, {"name": "model_1/re_lu_5/Relu6", "op": "_FusedConv2D", "input": ["model_1/separable_conv2d_2/separable_conv2d/depthwise", "model_1/separable_conv2d_2/separable_conv2d_weights", "model_1/separable_conv2d_2/separable_conv2d_bn_offset"], "device": "/device:CPU:0", "attr": {"explicit_paddings": {"list": {}}, "num_args": {"i": "1"}, "dilations": {"list": {"i": ["1", "1", "1", "1"]}}, "epsilon": {"f": 0.0}, "use_cudnn_on_gpu": {"b": true}, "fused_ops": {"list": {"s": ["Qmlhc0FkZA==", "UmVsdTY="]}}, "T": {"type": "DT_FLOAT"}, "data_format": {"s": "TkhXQw=="}, "padding": {"s": "VkFMSUQ="}, "strides": {"list": {"i": ["1", "1", "1", "1"]}}}}, {"name": "model_1/re_lu_5/Relu6_mbox_loc_1/separable_conv2d/depthwise", "op": "DepthwiseConv2dNative", "input": ["model_1/re_lu_5/Relu6", "model_1/re_lu_5/Relu6_mbox_loc_1/separable_conv2d/ReadVariableOp"], "attr": {"strides": {"list": {"i": ["1", "1", "1", "1"]}}, "dilations": {"list": {"i": ["1", "1", "1", "1"]}}, "data_format": {"s": "TkhXQw=="}, "padding": {"s": "U0FNRQ=="}, "T": {"type": "DT_FLOAT"}, "explicit_paddings": {"list": {}}}}, {"name": "model_1/re_lu_5/Relu6_mbox_conf_1/separable_conv2d/depthwise", "op": "DepthwiseConv2dNative", "input": ["model_1/re_lu_5/Relu6", "model_1/re_lu_5/Relu6_mbox_conf_1/separable_conv2d/ReadVariableOp"], "attr": {"dilations": {"list": {"i": ["1", "1", "1", "1"]}}, "data_format": {"s": "TkhXQw=="}, "strides": {"list": {"i": ["1", "1", "1", "1"]}}, "explicit_paddings": {"list": {}}, "T": {"type": "DT_FLOAT"}, "padding": {"s": "U0FNRQ=="}}}, {"name": "model_1/re_lu_5/Relu6_mbox_loc_1/BiasAdd", "op": "_FusedConv2D", "input": ["model_1/re_lu_5/Relu6_mbox_loc_1/separable_conv2d/depthwise", "model_1/re_lu_5/Relu6_mbox_loc_1/separable_conv2d/ReadVariableOp_1", "model_1/re_lu_5/Relu6_mbox_loc_1/BiasAdd/ReadVariableOp"], "device": "/device:CPU:0", "attr": {"fused_ops": {"list": {"s": ["Qmlhc0FkZA=="]}}, "explicit_paddings": {"list": {}}, "T": {"type": "DT_FLOAT"}, "padding": {"s": "VkFMSUQ="}, "num_args": {"i": "1"}, "epsilon": {"f": 0.0}, "dilations": {"list": {"i": ["1", "1", "1", "1"]}}, "data_format": {"s": "TkhXQw=="}, "use_cudnn_on_gpu": {"b": true}, "strides": {"list": {"i": ["1", "1", "1", "1"]}}}}, {"name": "model_1/re_lu_5/Relu6_mbox_conf_1/BiasAdd", "op": "_FusedConv2D", "input": ["model_1/re_lu_5/Relu6_mbox_conf_1/separable_conv2d/depthwise", "model_1/re_lu_5/Relu6_mbox_conf_1/separable_conv2d/ReadVariableOp_1", "model_1/re_lu_5/Relu6_mbox_conf_1/BiasAdd/ReadVariableOp"], "device": "/device:CPU:0", "attr": {"strides": {"list": {"i": ["1", "1", "1", "1"]}}, "padding": {"s": "VkFMSUQ="}, "epsilon": {"f": 0.0}, "data_format": {"s": "TkhXQw=="}, "T": {"type": "DT_FLOAT"}, "use_cudnn_on_gpu": {"b": true}, "explicit_paddings": {"list": {}}, "dilations": {"list": {"i": ["1", "1", "1", "1"]}}, "fused_ops": {"list": {"s": ["Qmlhc0FkZA=="]}}, "num_args": {"i": "1"}}}, {"name": "model_1/re_lu_5/Relu6_mbox_loc_flat/Reshape", "op": "Reshape", "input": ["model_1/re_lu_5/Relu6_mbox_loc_1/BiasAdd", "model_1/re_lu_5/Relu6_mbox_loc_flat/Const"], "attr": {"T": {"type": "DT_FLOAT"}, "Tshape": {"type": "DT_INT32"}}}, {"name": "model_1/re_lu_5/Relu6_mbox_conf_flat/Reshape", "op": "Reshape", "input": ["model_1/re_lu_5/Relu6_mbox_conf_1/BiasAdd", "model_1/re_lu_5/Relu6_mbox_conf_flat/Const"], "attr": {"Tshape": {"type": "DT_INT32"}, "T": {"type": "DT_FLOAT"}}}, {"name": "model_1/mbox_loc/concat", "op": "ConcatV2", "input": ["model_1/block3b_add/add_mbox_loc_flat/Reshape", "model_1/block5c_add/add_mbox_loc_flat/Reshape", "model_1/block7a_project_bn/FusedBatchNormV3_mbox_loc_flat/Reshape", "model_1/re_lu_1/Relu6_mbox_loc_flat/Reshape", "model_1/re_lu_3/Relu6_mbox_loc_flat/Reshape", "model_1/re_lu_5/Relu6_mbox_loc_flat/Reshape", "model_1/mbox_loc/concat/axis"], "attr": {"N": {"i": "6"}, "Tidx": {"type": "DT_INT32"}, "T": {"type": "DT_FLOAT"}}}, {"name": "model_1/mbox_conf/concat", "op": "ConcatV2", "input": ["model_1/block3b_add/add_mbox_conf_flat/Reshape", "model_1/block5c_add/add_mbox_conf_flat/Reshape", "model_1/block7a_project_bn/FusedBatchNormV3_mbox_conf_flat/Reshape", "model_1/re_lu_1/Relu6_mbox_conf_flat/Reshape", "model_1/re_lu_3/Relu6_mbox_conf_flat/Reshape", "model_1/re_lu_5/Relu6_mbox_conf_flat/Reshape", "model_1/mbox_conf/concat/axis"], "attr": {"N": {"i": "6"}, "Tidx": {"type": "DT_INT32"}, "T": {"type": "DT_FLOAT"}}}, {"name": "model_1/mbox_loc_final/Shape", "op": "Shape", "input": ["model_1/mbox_loc/concat"], "attr": {"T": {"type": "DT_FLOAT"}, "out_type": {"type": "DT_INT32"}}}, {"name": "model_1/mbox_conf_logits/Shape", "op": "Shape", "input": ["model_1/mbox_conf/concat"], "attr": {"T": {"type": "DT_FLOAT"}, "out_type": {"type": "DT_INT32"}}}, {"name": "model_1/mbox_loc_final/strided_slice", "op": "StridedSlice", "input": ["model_1/mbox_loc_final/Shape", "model_1/mbox_loc_final/strided_slice/stack", "model_1/mbox_loc_final/strided_slice/stack_1", "model_1/mbox_loc_final/strided_slice/stack_2"], "attr": {"Index": {"type": "DT_INT32"}, "T": {"type": "DT_INT32"}, "ellipsis_mask": {"i": "0"}, "begin_mask": {"i": "0"}, "shrink_axis_mask": {"i": "1"}, "end_mask": {"i": "0"}, "new_axis_mask": {"i": "0"}}}, {"name": "model_1/mbox_conf_logits/strided_slice", "op": "StridedSlice", "input": ["model_1/mbox_conf_logits/Shape", "model_1/mbox_conf_logits/strided_slice/stack", "model_1/mbox_conf_logits/strided_slice/stack_1", "model_1/mbox_conf_logits/strided_slice/stack_2"], "attr": {"end_mask": {"i": "0"}, "new_axis_mask": {"i": "0"}, "ellipsis_mask": {"i": "0"}, "shrink_axis_mask": {"i": "1"}, "begin_mask": {"i": "0"}, "Index": {"type": "DT_INT32"}, "T": {"type": "DT_INT32"}}}, {"name": "model_1/mbox_loc_final/Reshape/shape", "op": "Pack", "input": ["model_1/mbox_loc_final/strided_slice", "model_1/mbox_loc_final/Reshape/shape/1", "model_1/mbox_loc_final/Reshape/shape/2"], "attr": {"T": {"type": "DT_INT32"}, "axis": {"i": "0"}, "N": {"i": "3"}}}, {"name": "model_1/mbox_conf_logits/Reshape/shape", "op": "Pack", "input": ["model_1/mbox_conf_logits/strided_slice", "model_1/mbox_conf_logits/Reshape/shape/1", "model_1/mbox_conf_logits/Reshape/shape/2"], "attr": {"N": {"i": "3"}, "axis": {"i": "0"}, "T": {"type": "DT_INT32"}}}, {"name": "model_1/mbox_loc_final/Reshape", "op": "Reshape", "input": ["model_1/mbox_loc/concat", "model_1/mbox_loc_final/Reshape/shape"], "attr": {"Tshape": {"type": "DT_INT32"}, "T": {"type": "DT_FLOAT"}}}, {"name": "model_1/mbox_conf_logits/Reshape", "op": "Reshape", "input": ["model_1/mbox_conf/concat", "model_1/mbox_conf_logits/Reshape/shape"], "attr": {"Tshape": {"type": "DT_INT32"}, "T": {"type": "DT_FLOAT"}}}, {"name": "model_1/predictions/concat", "op": "ConcatV2", "input": ["model_1/mbox_loc_final/Reshape", "model_1/mbox_conf_logits/Reshape", "model_1/predictions/concat/axis"], "attr": {"N": {"i": "2"}, "T": {"type": "DT_FLOAT"}, "Tidx": {"type": "DT_INT32"}}}, {"name": "model_1/tf.__operators__.getitem/strided_slice", "op": "StridedSlice", "input": ["model_1/predictions/concat", "model_1/tf.__operators__.getitem/strided_slice/stack", "model_1/tf.__operators__.getitem/strided_slice/stack_1", "model_1/tf.__operators__.getitem/strided_slice/stack_2"], "attr": {"new_axis_mask": {"i": "0"}, "shrink_axis_mask": {"i": "1"}, "begin_mask": {"i": "0"}, "ellipsis_mask": {"i": "0"}, "T": {"type": "DT_FLOAT"}, "Index": {"type": "DT_INT32"}, "end_mask": {"i": "0"}}}, {"name": "model_1/tf.__operators__.getitem_1/strided_slice", "op": "StridedSlice", "input": ["model_1/tf.__operators__.getitem/strided_slice", "model_1/tf.__operators__.getitem_1/strided_slice/stack", "model_1/tf.__operators__.getitem_1/strided_slice/stack_1", "model_1/tf.__operators__.getitem_1/strided_slice/stack_2"], "attr": {"new_axis_mask": {"i": "0"}, "end_mask": {"i": "3"}, "Index": {"type": "DT_INT32"}, "ellipsis_mask": {"i": "0"}, "T": {"type": "DT_FLOAT"}, "shrink_axis_mask": {"i": "0"}, "begin_mask": {"i": "1"}}}, {"name": "model_1/tf.__operators__.getitem_2/strided_slice", "op": "StridedSlice", "input": ["model_1/tf.__operators__.getitem/strided_slice", "model_1/tf.__operators__.getitem_2/strided_slice/stack", "model_1/tf.__operators__.getitem_2/strided_slice/stack_1", "model_1/tf.__operators__.getitem_2/strided_slice/stack_2"], "attr": {"begin_mask": {"i": "3"}, "ellipsis_mask": {"i": "0"}, "new_axis_mask": {"i": "0"}, "Index": {"type": "DT_INT32"}, "end_mask": {"i": "1"}, "shrink_axis_mask": {"i": "0"}, "T": {"type": "DT_FLOAT"}}}, {"name": "model_1/tf.__operators__.getitem_3/strided_slice", "op": "StridedSlice", "input": ["model_1/tf.__operators__.getitem_1/strided_slice", "model_1/tf.__operators__.getitem_3/strided_slice/stack", "model_1/tf.__operators__.getitem_3/strided_slice/stack_1", "model_1/tf.__operators__.getitem_3/strided_slice/stack_2"], "attr": {"T": {"type": "DT_FLOAT"}, "Index": {"type": "DT_INT32"}, "shrink_axis_mask": {"i": "0"}, "new_axis_mask": {"i": "0"}, "end_mask": {"i": "0"}, "ellipsis_mask": {"i": "1"}, "begin_mask": {"i": "2"}}}, {"name": "model_1/tf.__operators__.getitem_4/strided_slice", "op": "StridedSlice", "input": ["model_1/tf.__operators__.getitem_1/strided_slice", "model_1/tf.__operators__.getitem_4/strided_slice/stack", "model_1/tf.__operators__.getitem_4/strided_slice/stack_1", "model_1/tf.__operators__.getitem_4/strided_slice/stack_2"], "attr": {"T": {"type": "DT_FLOAT"}, "Index": {"type": "DT_INT32"}, "begin_mask": {"i": "0"}, "shrink_axis_mask": {"i": "0"}, "end_mask": {"i": "2"}, "ellipsis_mask": {"i": "1"}, "new_axis_mask": {"i": "0"}}}, {"name": "model_1/tf.nn.softmax/Softmax", "op": "Softmax", "input": ["model_1/tf.__operators__.getitem_2/strided_slice"], "attr": {"T": {"type": "DT_FLOAT"}}}, {"name": "model_1/tf.math.multiply_1/Mul", "op": "Mul", "input": ["model_1/tf.__operators__.getitem_3/strided_slice", "model_1/tf.math.multiply/Mul"], "attr": {"T": {"type": "DT_FLOAT"}}}, {"name": "model_1/tf.math.multiply_2/Mul", "op": "Mul", "input": ["model_1/tf.__operators__.getitem_4/strided_slice", "model_1/tf.math.multiply_2/Mul/y"], "attr": {"T": {"type": "DT_FLOAT"}}}, {"name": "model_1/tf.__operators__.getitem_12/strided_slice", "op": "StridedSlice", "input": ["model_1/tf.nn.softmax/Softmax", "model_1/tf.__operators__.getitem_12/strided_slice/stack", "model_1/tf.__operators__.getitem_12/strided_slice/stack_1", "model_1/tf.__operators__.getitem_12/strided_slice/stack_2"], "attr": {"end_mask": {"i": "3"}, "T": {"type": "DT_FLOAT"}, "shrink_axis_mask": {"i": "0"}, "new_axis_mask": {"i": "0"}, "begin_mask": {"i": "1"}, "Index": {"type": "DT_INT32"}, "ellipsis_mask": {"i": "0"}}}, {"name": "model_1/tf.__operators__.add/AddV2", "op": "AddV2", "input": ["model_1/tf.math.multiply_1/Mul", "model_1/tf.__operators__.add/AddV2/y"], "attr": {"T": {"type": "DT_FLOAT"}}}, {"name": "model_1/tf.math.exp/Exp", "op": "Exp", "input": ["model_1/tf.math.multiply_2/Mul"], "attr": {"T": {"type": "DT_FLOAT"}}}, {"name": "model_1/tf.reshape_3/Reshape", "op": "Reshape", "input": ["model_1/tf.__operators__.getitem_12/strided_slice", "model_1/tf.reshape_3/Reshape/shape"], "attr": {"T": {"type": "DT_FLOAT"}, "Tshape": {"type": "DT_INT32"}}}, {"name": "model_1/tf.math.multiply_3/Mul", "op": "Mul", "input": ["model_1/tf.math.exp/Exp", "model_1/tf.math.multiply_3/Mul/y"], "attr": {"T": {"type": "DT_FLOAT"}}}, {"name": "model_1/tf.math.greater/Greater", "op": "Greater", "input": ["model_1/tf.reshape_3/Reshape", "model_1/tf.math.greater/Greater/y"], "attr": {"T": {"type": "DT_FLOAT"}}}, {"name": "model_1/tf.concat/concat", "op": "ConcatV2", "input": ["model_1/tf.__operators__.add/AddV2", "model_1/tf.math.multiply_3/Mul", "model_1/tf.math.subtract/Sub"], "attr": {"Tidx": {"type": "DT_INT32"}, "T": {"type": "DT_FLOAT"}, "N": {"i": "2"}}}, {"name": "model_1/tf.compat.v1.boolean_mask_2/boolean_mask/Where", "op": "Where", "input": ["model_1/tf.math.greater/Greater"], "attr": {"T": {"type": "DT_BOOL"}}}, {"name": "model_1/tf.compat.v1.boolean_mask/boolean_mask/Where", "op": "Where", "input": ["model_1/tf.math.greater/Greater"], "attr": {"T": {"type": "DT_BOOL"}}}, {"name": "model_1/tf.compat.v1.boolean_mask_1/boolean_mask/Where", "op": "Where", "input": ["model_1/tf.math.greater/Greater"], "attr": {"T": {"type": "DT_BOOL"}}}, {"name": "model_1/tf.__operators__.getitem_5/strided_slice", "op": "StridedSlice", "input": ["model_1/tf.concat/concat", "model_1/tf.__operators__.getitem_5/strided_slice/stack", "model_1/tf.__operators__.getitem_5/strided_slice/stack_1", "model_1/tf.__operators__.getitem_5/strided_slice/stack_2"], "attr": {"ellipsis_mask": {"i": "1"}, "shrink_axis_mask": {"i": "0"}, "T": {"type": "DT_FLOAT"}, "Index": {"type": "DT_INT32"}, "begin_mask": {"i": "2"}, "new_axis_mask": {"i": "0"}, "end_mask": {"i": "0"}}}, {"name": "model_1/tf.__operators__.getitem_6/strided_slice", "op": "StridedSlice", "input": ["model_1/tf.concat/concat", "model_1/tf.__operators__.getitem_6/strided_slice/stack", "model_1/tf.__operators__.getitem_6/strided_slice/stack_1", "model_1/tf.__operators__.getitem_6/strided_slice/stack_2"], "attr": {"end_mask": {"i": "2"}, "T": {"type": "DT_FLOAT"}, "ellipsis_mask": {"i": "1"}, "begin_mask": {"i": "0"}, "shrink_axis_mask": {"i": "0"}, "new_axis_mask": {"i": "0"}, "Index": {"type": "DT_INT32"}}}, {"name": "model_1/tf.__operators__.getitem_7/strided_slice", "op": "StridedSlice", "input": ["model_1/tf.concat/concat", "model_1/tf.__operators__.getitem_7/strided_slice/stack", "model_1/tf.__operators__.getitem_7/strided_slice/stack_1", "model_1/tf.__operators__.getitem_7/strided_slice/stack_2"], "attr": {"new_axis_mask": {"i": "0"}, "ellipsis_mask": {"i": "1"}, "T": {"type": "DT_FLOAT"}, "Index": {"type": "DT_INT32"}, "end_mask": {"i": "0"}, "shrink_axis_mask": {"i": "0"}, "begin_mask": {"i": "2"}}}, {"name": "model_1/tf.__operators__.getitem_8/strided_slice", "op": "StridedSlice", "input": ["model_1/tf.concat/concat", "model_1/tf.__operators__.getitem_8/strided_slice/stack", "model_1/tf.__operators__.getitem_8/strided_slice/stack_1", "model_1/tf.__operators__.getitem_8/strided_slice/stack_2"], "attr": {"Index": {"type": "DT_INT32"}, "end_mask": {"i": "2"}, "new_axis_mask": {"i": "0"}, "begin_mask": {"i": "0"}, "ellipsis_mask": {"i": "1"}, "T": {"type": "DT_FLOAT"}, "shrink_axis_mask": {"i": "0"}}}, {"name": "model_1/tf.compat.v1.boolean_mask_2/boolean_mask/Squeeze", "op": "Squeeze", "input": ["model_1/tf.compat.v1.boolean_mask_2/boolean_mask/Where"], "attr": {"squeeze_dims": {"list": {"i": ["1"]}}, "T": {"type": "DT_INT64"}}}, {"name": "model_1/tf.compat.v1.boolean_mask/boolean_mask/Squeeze", "op": "Squeeze", "input": ["model_1/tf.compat.v1.boolean_mask/boolean_mask/Where"], "attr": {"squeeze_dims": {"list": {"i": ["1"]}}, "T": {"type": "DT_INT64"}}}, {"name": "model_1/tf.compat.v1.boolean_mask_1/boolean_mask/Squeeze", "op": "Squeeze", "input": ["model_1/tf.compat.v1.boolean_mask_1/boolean_mask/Where"], "attr": {"T": {"type": "DT_INT64"}, "squeeze_dims": {"list": {"i": ["1"]}}}}, {"name": "model_1/tf.math.truediv/truediv", "op": "Mul", "input": ["model_1/tf.__operators__.getitem_6/strided_slice", "ConstantFolding/model_1/tf.math.truediv/truediv_recip"], "attr": {"T": {"type": "DT_FLOAT"}}}, {"name": "model_1/tf.math.truediv_1/truediv", "op": "Mul", "input": ["model_1/tf.__operators__.getitem_8/strided_slice", "ConstantFolding/model_1/tf.math.truediv_1/truediv_recip"], "attr": {"T": {"type": "DT_FLOAT"}}}, {"name": "model_1/tf.compat.v1.boolean_mask_2/boolean_mask/GatherV2", "op": "GatherV2", "input": ["model_1/tf.compat.v1.boolean_mask_2/boolean_mask/Reshape", "model_1/tf.compat.v1.boolean_mask_2/boolean_mask/Squeeze", "model_1/tf.compat.v1.boolean_mask_2/boolean_mask/GatherV2/axis"], "attr": {"Taxis": {"type": "DT_INT32"}, "batch_dims": {"i": "0"}, "Tparams": {"type": "DT_FLOAT"}, "Tindices": {"type": "DT_INT64"}}}, {"name": "model_1/tf.compat.v1.boolean_mask_1/boolean_mask/GatherV2", "op": "GatherV2", "input": ["model_1/tf.reshape_3/Reshape", "model_1/tf.compat.v1.boolean_mask_1/boolean_mask/Squeeze", "model_1/tf.compat.v1.boolean_mask_1/boolean_mask/GatherV2/axis"], "attr": {"Tindices": {"type": "DT_INT64"}, "Taxis": {"type": "DT_INT32"}, "batch_dims": {"i": "0"}, "Tparams": {"type": "DT_FLOAT"}}}, {"name": "model_1/tf.math.subtract_1/Sub", "op": "Sub", "input": ["model_1/tf.__operators__.getitem_5/strided_slice", "model_1/tf.math.truediv/truediv"], "attr": {"T": {"type": "DT_FLOAT"}}}, {"name": "model_1/tf.__operators__.add_1/AddV2", "op": "AddV2", "input": ["model_1/tf.__operators__.getitem_7/strided_slice", "model_1/tf.math.truediv_1/truediv"], "attr": {"T": {"type": "DT_FLOAT"}}}, {"name": "model_1/tf.concat_1/concat", "op": "ConcatV2", "input": ["model_1/tf.math.subtract_1/Sub", "model_1/tf.__operators__.add_1/AddV2", "model_1/tf.math.subtract_2/Sub"], "attr": {"N": {"i": "2"}, "Tidx": {"type": "DT_INT32"}, "T": {"type": "DT_FLOAT"}}}, {"name": "model_1/tf.reshape/Reshape", "op": "Reshape", "input": ["model_1/tf.concat_1/concat", "model_1/tf.reshape/Reshape/shape"], "attr": {"Tshape": {"type": "DT_INT32"}, "T": {"type": "DT_FLOAT"}}}, {"name": "model_1/tf.broadcast_to/BroadcastTo", "op": "BroadcastTo", "input": ["model_1/tf.reshape/Reshape", "model_1/tf.broadcast_to/BroadcastTo/shape"], "attr": {"T": {"type": "DT_FLOAT"}, "Tidx": {"type": "DT_INT32"}}}, {"name": "model_1/tf.__operators__.getitem_11/strided_slice", "op": "StridedSlice", "input": ["model_1/tf.broadcast_to/BroadcastTo", "model_1/tf.__operators__.getitem_11/strided_slice/stack", "model_1/tf.__operators__.getitem_11/strided_slice/stack_1", "model_1/tf.__operators__.getitem_11/strided_slice/stack_2"], "attr": {"Index": {"type": "DT_INT32"}, "ellipsis_mask": {"i": "0"}, "shrink_axis_mask": {"i": "0"}, "begin_mask": {"i": "1"}, "T": {"type": "DT_FLOAT"}, "new_axis_mask": {"i": "0"}, "end_mask": {"i": "3"}}}, {"name": "model_1/tf.reshape_2/Reshape", "op": "Reshape", "input": ["model_1/tf.__operators__.getitem_11/strided_slice", "model_1/tf.reshape_2/Reshape/shape"], "attr": {"T": {"type": "DT_FLOAT"}, "Tshape": {"type": "DT_INT32"}}}, {"name": "model_1/tf.compat.v1.boolean_mask/boolean_mask/GatherV2", "op": "GatherV2", "input": ["model_1/tf.reshape_2/Reshape", "model_1/tf.compat.v1.boolean_mask/boolean_mask/Squeeze", "model_1/tf.compat.v1.boolean_mask/boolean_mask/GatherV2/axis"], "attr": {"Tparams": {"type": "DT_FLOAT"}, "batch_dims": {"i": "0"}, "Tindices": {"type": "DT_INT64"}, "Taxis": {"type": "DT_INT32"}}}, {"name": "model_1/tf.math.reduce_max/Max", "op": "Max", "input": ["model_1/tf.compat.v1.boolean_mask/boolean_mask/GatherV2", "model_1/tf.math.reduce_max/Const"], "attr": {"keep_dims": {"b": false}, "T": {"type": "DT_FLOAT"}, "Tidx": {"type": "DT_INT32"}}}, {"name": "model_1/tf.__operators__.add_2/AddV2", "op": "AddV2", "input": ["model_1/tf.math.reduce_max/Max", "model_1/tf.__operators__.add_2/y"], "attr": {"T": {"type": "DT_FLOAT"}}}, {"name": "model_1/tf.math.multiply_4/Mul", "op": "Mul", "input": ["model_1/tf.compat.v1.boolean_mask_2/boolean_mask/GatherV2", "model_1/tf.__operators__.add_2/AddV2"], "attr": {"T": {"type": "DT_FLOAT"}}}, {"name": "model_1/tf.__operators__.getitem_14/strided_slice", "op": "StridedSlice", "input": ["model_1/tf.math.multiply_4/Mul", "model_1/tf.__operators__.getitem_14/strided_slice/stack", "model_1/tf.__operators__.getitem_14/strided_slice/stack_1", "model_1/tf.__operators__.getitem_14/strided_slice/stack_2"], "attr": {"shrink_axis_mask": {"i": "0"}, "end_mask": {"i": "1"}, "begin_mask": {"i": "1"}, "ellipsis_mask": {"i": "0"}, "new_axis_mask": {"i": "2"}, "Index": {"type": "DT_INT32"}, "T": {"type": "DT_FLOAT"}}}, {"name": "model_1/tf.__operators__.add_3/AddV2", "op": "AddV2", "input": ["model_1/tf.compat.v1.boolean_mask/boolean_mask/GatherV2", "model_1/tf.__operators__.getitem_14/strided_slice"], "attr": {"T": {"type": "DT_FLOAT"}}}, {"name": "model_1/tf.image.non_max_suppression/non_max_suppression/NonMaxSuppressionV3", "op": "NonMaxSuppressionV3", "input": ["model_1/tf.__operators__.add_3/AddV2", "model_1/tf.compat.v1.boolean_mask_1/boolean_mask/GatherV2", "model_1/tf.image.non_max_suppression/non_max_suppression/NonMaxSuppressionV3/max_output_size", "model_1/tf.image.non_max_suppression/non_max_suppression/iou_threshold", "model_1/tf.image.non_max_suppression/non_max_suppression/score_threshold"], "attr": {"T": {"type": "DT_FLOAT"}, "T_threshold": {"type": "DT_FLOAT"}}}, {"name": "model_1/tf.compat.v1.gather/GatherV2", "op": "GatherV2", "input": ["model_1/tf.compat.v1.boolean_mask/boolean_mask/GatherV2", "model_1/tf.image.non_max_suppression/non_max_suppression/NonMaxSuppressionV3", "model_1/tf.compat.v1.gather/GatherV2/axis"], "attr": {"batch_dims": {"i": "0"}, "Tindices": {"type": "DT_INT32"}, "Tparams": {"type": "DT_FLOAT"}, "Taxis": {"type": "DT_INT32"}}}, {"name": "model_1/tf.compat.v1.gather_2/GatherV2", "op": "GatherV2", "input": ["model_1/tf.compat.v1.boolean_mask_2/boolean_mask/GatherV2", "model_1/tf.image.non_max_suppression/non_max_suppression/NonMaxSuppressionV3", "model_1/tf.compat.v1.gather_2/GatherV2/axis"], "attr": {"batch_dims": {"i": "0"}, "Tindices": {"type": "DT_INT32"}, "Taxis": {"type": "DT_INT32"}, "Tparams": {"type": "DT_FLOAT"}}}, {"name": "model_1/tf.compat.v1.gather_1/GatherV2", "op": "GatherV2", "input": ["model_1/tf.compat.v1.boolean_mask_1/boolean_mask/GatherV2", "model_1/tf.image.non_max_suppression/non_max_suppression/NonMaxSuppressionV3", "model_1/tf.compat.v1.gather_1/GatherV2/axis"], "attr": {"Taxis": {"type": "DT_INT32"}, "Tindices": {"type": "DT_INT32"}, "batch_dims": {"i": "0"}, "Tparams": {"type": "DT_FLOAT"}}}, {"name": "model_1/tf.expand_dims_1/ExpandDims", "op": "ExpandDims", "input": ["model_1/tf.compat.v1.gather_2/GatherV2", "model_1/tf.expand_dims_1/ExpandDims/dim"], "attr": {"T": {"type": "DT_FLOAT"}, "Tdim": {"type": "DT_INT32"}}}, {"name": "model_1/tf.expand_dims/ExpandDims", "op": "ExpandDims", "input": ["model_1/tf.compat.v1.gather_1/GatherV2", "model_1/tf.expand_dims/ExpandDims/dim"], "attr": {"T": {"type": "DT_FLOAT"}, "Tdim": {"type": "DT_INT32"}}}, {"name": "model_1/concatenate/concat", "op": "ConcatV2", "input": ["model_1/tf.compat.v1.gather/GatherV2", "model_1/tf.expand_dims/ExpandDims", "model_1/tf.expand_dims_1/ExpandDims", "model_1/concatenate/concat/axis"], "attr": {"N": {"i": "3"}, "T": {"type": "DT_FLOAT"}, "Tidx": {"type": "DT_INT32"}}}, {"name": "Identity", "op": "Identity", "input": ["model_1/concatenate/concat"], "attr": {"T": {"type": "DT_FLOAT"}}}], "library": {}, "versions": {"producer": 808}}, "weightsManifest": [{"paths": ["group1-shard1of1.bin"], "weights": [{"name": "model_1/tf.compat.v1.gather/GatherV2/axis", "shape": [], "dtype": "int32"}, {"name": "model_1/tf.compat.v1.gather_1/GatherV2/axis", "shape": [], "dtype": "int32"}, {"name": "model_1/tf.expand_dims/ExpandDims/dim", "shape": [], "dtype": "int32"}, {"name": "model_1/tf.compat.v1.boolean_mask_2/boolean_mask/Reshape", "shape": [11640], "dtype": "float32", "quantization": {"dtype": "uint8", "min": 1.0, "scale": 0.00784313725490196, "original_dtype": "float32"}}, {"name": "model_1/tf.compat.v1.boolean_mask_2/boolean_mask/GatherV2/axis", "shape": [], "dtype": "int32"}, {"name": "model_1/tf.__operators__.getitem_5/strided_slice/stack", "shape": [2], "dtype": "int32"}, {"name": "model_1/tf.__operators__.getitem_5/strided_slice/stack_1", "shape": [2], "dtype": "int32"}, {"name": "model_1/tf.__operators__.getitem_5/strided_slice/stack_2", "shape": [2], "dtype": "int32"}, {"name": "model_1/tf.__operators__.getitem_6/strided_slice/stack", "shape": [2], "dtype": "int32"}, {"name": "model_1/tf.__operators__.getitem_6/strided_slice/stack_1", "shape": [2], "dtype": "int32"}, {"name": "model_1/tf.__operators__.getitem_6/strided_slice/stack_2", "shape": [2], "dtype": "int32"}, {"name": "ConstantFolding/model_1/tf.math.truediv/truediv_recip", "shape": [], "dtype": "float32", "quantization": {"dtype": "uint8", "min": 0.5, "scale": 1.0, "original_dtype": "float32"}}, {"name": "model_1/tf.__operators__.getitem_7/strided_slice/stack", "shape": [2], "dtype": "int32"}, {"name": "model_1/tf.__operators__.getitem_7/strided_slice/stack_1", "shape": [2], "dtype": "int32"}, {"name": "model_1/tf.__operators__.getitem_7/strided_slice/stack_2", "shape": [2], "dtype": "int32"}, {"name": "model_1/tf.__operators__.getitem_3/strided_slice/stack", "shape": [2], "dtype": "int32"}, {"name": "model_1/tf.__operators__.getitem_3/strided_slice/stack_1", "shape": [2], "dtype": "int32"}, {"name": "model_1/tf.__operators__.getitem_3/strided_slice/stack_2", "shape": [2], "dtype": "int32"}, {"name": "model_1/tf.math.multiply/Mul", "shape": [1, 3880, 2], "dtype": "float32", "quantization": {"dtype": "uint8", "min": 0.010000000707805157, "scale": 0.00033774477082724666, "original_dtype": "float32"}}, {"name": "model_1/tf.__operators__.add/AddV2/y", "shape": [1, 3880, 2], "dtype": "float32", "quantization": {"dtype": "uint8", "min": 0.013333333656191826, "scale": 0.003869281044485522, "original_dtype": "float32"}}, {"name": "model_1/tf.__operators__.getitem_1/strided_slice/stack", "shape": [2], "dtype": "int32"}, {"name": "model_1/tf.__operators__.getitem_1/strided_slice/stack_1", "shape": [2], "dtype": "int32"}, {"name": "model_1/tf.__operators__.getitem_1/strided_slice/stack_2", "shape": [2], "dtype": "int32"}, {"name": "model_1/tf.__operators__.getitem_4/strided_slice/stack", "shape": [2], "dtype": "int32"}, {"name": "model_1/tf.__operators__.getitem_4/strided_slice/stack_1", "shape": [2], "dtype": "int32"}, {"name": "model_1/tf.__operators__.getitem_4/strided_slice/stack_2", "shape": [2], "dtype": "int32"}, {"name": "model_1/tf.math.multiply_2/Mul/y", "shape": [], "dtype": "float32", "quantization": {"dtype": "uint8", "min": 0.20000000298023224, "scale": 1.0, "original_dtype": "float32"}}, {"name": "model_1/tf.math.multiply_3/Mul/y", "shape": [1, 3880, 2], "dtype": "float32", "quantization": {"dtype": "uint8", "min": 0.10000000149011612, "scale": 0.0033774477301859386, "original_dtype": "float32"}}, {"name": "model_1/tf.math.subtract/Sub", "shape": [], "dtype": "int32"}, {"name": "model_1/tf.__operators__.getitem_8/strided_slice/stack", "shape": [2], "dtype": "int32"}, {"name": "model_1/tf.__operators__.getitem_8/strided_slice/stack_1", "shape": [2], "dtype": "int32"}, {"name": "model_1/tf.__operators__.getitem_8/strided_slice/stack_2", "shape": [2], "dtype": "int32"}, {"name": "ConstantFolding/model_1/tf.math.truediv_1/truediv_recip", "shape": [], "dtype": "float32", "quantization": {"dtype": "uint8", "min": 0.5, "scale": 1.0, "original_dtype": "float32"}}, {"name": "model_1/tf.math.subtract_2/Sub", "shape": [], "dtype": "int32"}, {"name": "model_1/tf.reshape/Reshape/shape", "shape": [3], "dtype": "int32"}, {"name": "model_1/tf.broadcast_to/BroadcastTo/shape", "shape": [3], "dtype": "int32"}, {"name": "model_1/tf.__operators__.getitem_11/strided_slice/stack", "shape": [2], "dtype": "int32"}, {"name": "model_1/tf.__operators__.getitem_11/strided_slice/stack_1", "shape": [2], "dtype": "int32"}, {"name": "model_1/tf.__operators__.getitem_11/strided_slice/stack_2", "shape": [2], "dtype": "int32"}, {"name": "model_1/tf.reshape_2/Reshape/shape", "shape": [2], "dtype": "int32"}, {"name": "model_1/tf.compat.v1.boolean_mask/boolean_mask/GatherV2/axis", "shape": [], "dtype": "int32"}, {"name": "model_1/tf.math.reduce_max/Const", "shape": [2], "dtype": "int32"}, {"name": "model_1/tf.__operators__.add_2/y", "shape": [], "dtype": "float32", "quantization": {"dtype": "uint8", "min": 1.0, "scale": 1.0, "original_dtype": "float32"}}, {"name": "model_1/tf.__operators__.getitem_14/strided_slice/stack", "shape": [2], "dtype": "int32"}, {"name": "model_1/tf.__operators__.getitem_14/strided_slice/stack_1", "shape": [2], "dtype": "int32"}, {"name": "model_1/tf.__operators__.getitem_14/strided_slice/stack_2", "shape": [2], "dtype": "int32"}, {"name": "model_1/block3b_add/add_mbox_loc_1/separable_conv2d/ReadVariableOp", "shape": [3, 3, 40, 1], "dtype": "float32", "quantization": {"dtype": "uint8", "min": -1.0020270600038417, "scale": 0.007591114090938194, "original_dtype": "float32"}}, {"name": "model_1/block3b_add/add_mbox_loc_1/separable_conv2d/ReadVariableOp_1", "shape": [1, 1, 40, 8], "dtype": "float32", "quantization": {"dtype": "uint8", "min": -0.897995393416461, "scale": 0.007877152573828605, "original_dtype": "float32"}}, {"name": "model_1/block3b_add/add_mbox_loc_1/BiasAdd/ReadVariableOp", "shape": [8], "dtype": "float32", "quantization": {"dtype": "uint8", "min": -1.2864760001500448, "scale": 0.007612284024556478, "original_dtype": "float32"}}, {"name": "model_1/block3b_add/add_mbox_loc_flat/Const", "shape": [2], "dtype": "int32"}, {"name": "model_1/block5c_add/add_mbox_loc_1/separable_conv2d/ReadVariableOp", "shape": [3, 3, 112, 1], "dtype": "float32", "quantization": {"dtype": "uint8", "min": -1.0695640713560814, "scale": 0.008625516704484528, "original_dtype": "float32"}}, {"name": "model_1/block5c_add/add_mbox_loc_1/separable_conv2d/ReadVariableOp_1", "shape": [1, 1, 112, 8], "dtype": "float32", "quantization": {"dtype": "uint8", "min": -1.064163387522978, "scale": 0.008313776465023265, "original_dtype": "float32"}}, {"name": "model_1/block5c_add/add_mbox_loc_1/BiasAdd/ReadVariableOp", "shape": [8], "dtype": "float32", "quantization": {"dtype": "uint8", "min": -0.2506131085695005, "scale": 0.0019277931428423115, "original_dtype": "float32"}}, {"name": "model_1/block5c_add/add_mbox_loc_flat/Const", "shape": [2], "dtype": "int32"}, {"name": "model_1/block7a_project_bn/FusedBatchNormV3_mbox_loc_1/separable_conv2d/ReadVariableOp", "shape": [3, 3, 320, 1], "dtype": "float32", "quantization": {"dtype": "uint8", "min": -1.122193437464097, "scale": 0.008906297122730928, "original_dtype": "float32"}}, {"name": "model_1/block7a_project_bn/FusedBatchNormV3_mbox_loc_1/separable_conv2d/ReadVariableOp_1", "shape": [1, 1, 320, 8], "dtype": "float32", "quantization": {"dtype": "uint8", "min": -1.1542276466594021, "scale": 0.009160536878249224, "original_dtype": "float32"}}, {"name": "model_1/block7a_project_bn/FusedBatchNormV3_mbox_loc_1/BiasAdd/ReadVariableOp", "shape": [8], "dtype": "float32", "quantization": {"dtype": "uint8", "min": -0.2712145416175618, "scale": 0.0020392070798312917, "original_dtype": "float32"}}, {"name": "model_1/block7a_project_bn/FusedBatchNormV3_mbox_loc_flat/Const", "shape": [2], "dtype": "int32"}, {"name": "model_1/re_lu_1/Relu6_mbox_loc_1/separable_conv2d/ReadVariableOp", "shape": [3, 3, 128, 1], "dtype": "float32", "quantization": {"dtype": "uint8", "min": -1.3564750259997798, "scale": 0.010851800207998238, "original_dtype": "float32"}}, {"name": "model_1/re_lu_1/Relu6_mbox_loc_1/separable_conv2d/ReadVariableOp_1", "shape": [1, 1, 128, 8], "dtype": "float32", "quantization": {"dtype": "uint8", "min": -1.63646925944908, "scale": 0.01319733273749258, "original_dtype": "float32"}}, {"name": "model_1/re_lu_1/Relu6_mbox_loc_1/BiasAdd/ReadVariableOp", "shape": [8], "dtype": "float32", "quantization": {"dtype": "uint8", "min": -0.2673528664252337, "scale": 0.0019234019167283002, "original_dtype": "float32"}}, {"name": "model_1/re_lu_1/Relu6_mbox_loc_flat/Const", "shape": [2], "dtype": "int32"}, {"name": "model_1/re_lu_3/Relu6_mbox_loc_1/separable_conv2d/ReadVariableOp", "shape": [3, 3, 128, 1], "dtype": "float32", "quantization": {"dtype": "uint8", "min": -1.259903123332005, "scale": 0.009920497034110276, "original_dtype": "float32"}}, {"name": "model_1/re_lu_3/Relu6_mbox_loc_1/separable_conv2d/ReadVariableOp_1", "shape": [1, 1, 128, 8], "dtype": "float32", "quantization": {"dtype": "uint8", "min": -1.4983094982072418, "scale": 0.010779205023073682, "original_dtype": "float32"}}, {"name": "model_1/re_lu_3/Relu6_mbox_loc_1/BiasAdd/ReadVariableOp", "shape": [8], "dtype": "float32", "quantization": {"dtype": "uint8", "min": -0.23873717521919924, "scale": 0.0021127183647716746, "original_dtype": "float32"}}, {"name": "model_1/re_lu_3/Relu6_mbox_loc_flat/Const", "shape": [2], "dtype": "int32"}, {"name": "model_1/re_lu_5/Relu6_mbox_loc_1/separable_conv2d/ReadVariableOp", "shape": [3, 3, 128, 1], "dtype": "float32", "quantization": {"dtype": "uint8", "min": -1.058220884846706, "scale": 0.008332447912178787, "original_dtype": "float32"}}, {"name": "model_1/re_lu_5/Relu6_mbox_loc_1/separable_conv2d/ReadVariableOp_1", "shape": [1, 1, 128, 8], "dtype": "float32", "quantization": {"dtype": "uint8", "min": -1.8455693361805936, "scale": 0.014532042017170028, "original_dtype": "float32"}}, {"name": "model_1/re_lu_5/Relu6_mbox_loc_1/BiasAdd/ReadVariableOp", "shape": [8], "dtype": "float32", "quantization": {"dtype": "uint8", "min": -0.1592463505655235, "scale": 0.0006607732388610934, "original_dtype": "float32"}}, {"name": "model_1/re_lu_5/Relu6_mbox_loc_flat/Const", "shape": [2], "dtype": "int32"}, {"name": "model_1/mbox_loc/concat/axis", "shape": [], "dtype": "int32"}, {"name": "model_1/mbox_loc_final/strided_slice/stack", "shape": [1], "dtype": "int32"}, {"name": "model_1/mbox_loc_final/strided_slice/stack_1", "shape": [1], "dtype": "int32"}, {"name": "model_1/mbox_loc_final/strided_slice/stack_2", "shape": [1], "dtype": "int32"}, {"name": "model_1/mbox_loc_final/Reshape/shape/1", "shape": [], "dtype": "int32"}, {"name": "model_1/mbox_loc_final/Reshape/shape/2", "shape": [], "dtype": "int32"}, {"name": "model_1/block3b_add/add_mbox_conf_1/separable_conv2d/ReadVariableOp", "shape": [3, 3, 40, 1], "dtype": "float32", "quantization": {"dtype": "uint8", "min": -0.8421133013332591, "scale": 0.006683438899470311, "original_dtype": "float32"}}, {"name": "model_1/block3b_add/add_mbox_conf_1/separable_conv2d/ReadVariableOp_1", "shape": [1, 1, 40, 8], "dtype": "float32", "quantization": {"dtype": "uint8", "min": -0.7818129258997301, "scale": 0.005706663692698759, "original_dtype": "float32"}}, {"name": "model_1/block3b_add/add_mbox_conf_1/BiasAdd/ReadVariableOp", "shape": [8], "dtype": "float32", "quantization": {"dtype": "uint8", "min": -0.2613605618476868, "scale": 0.0013902157545089722, "original_dtype": "float32"}}, {"name": "model_1/block3b_add/add_mbox_conf_flat/Const", "shape": [2], "dtype": "int32"}, {"name": "model_1/block5c_add/add_mbox_conf_1/separable_conv2d/ReadVariableOp", "shape": [3, 3, 112, 1], "dtype": "float32", "quantization": {"dtype": "uint8", "min": -0.9980718647732455, "scale": 0.0077369911997926, "original_dtype": "float32"}}, {"name": "model_1/block5c_add/add_mbox_conf_1/separable_conv2d/ReadVariableOp_1", "shape": [1, 1, 112, 8], "dtype": "float32", "quantization": {"dtype": "uint8", "min": -0.9791038961971508, "scale": 0.00764924918904024, "original_dtype": "float32"}}, {"name": "model_1/block5c_add/add_mbox_conf_1/BiasAdd/ReadVariableOp", "shape": [8], "dtype": "float32", "quantization": {"dtype": "uint8", "min": -0.032826997851039846, "scale": 0.0003688426724835938, "original_dtype": "float32"}}, {"name": "model_1/block5c_add/add_mbox_conf_flat/Const", "shape": [2], "dtype": "int32"}, {"name": "model_1/block7a_project_bn/FusedBatchNormV3_mbox_conf_1/separable_conv2d/ReadVariableOp", "shape": [3, 3, 320, 1], "dtype": "float32", "quantization": {"dtype": "uint8", "min": -1.0863752926097197, "scale": 0.008691002340877758, "original_dtype": "float32"}}, {"name": "model_1/block7a_project_bn/FusedBatchNormV3_mbox_conf_1/separable_conv2d/ReadVariableOp_1", "shape": [1, 1, 320, 8], "dtype": "float32", "quantization": {"dtype": "uint8", "min": -1.1160653507008271, "scale": 0.008719260552350212, "original_dtype": "float32"}}, {"name": "model_1/block7a_project_bn/FusedBatchNormV3_mbox_conf_1/BiasAdd/ReadVariableOp", "shape": [8], "dtype": "float32", "quantization": {"dtype": "uint8", "min": -0.009783533040214988, "scale": 8.73529735733481e-05, "original_dtype": "float32"}}, {"name": "model_1/block7a_project_bn/FusedBatchNormV3_mbox_conf_flat/Const", "shape": [2], "dtype": "int32"}, {"name": "model_1/re_lu_1/Relu6_mbox_conf_1/separable_conv2d/ReadVariableOp", "shape": [3, 3, 128, 1], "dtype": "float32", "quantization": {"dtype": "uint8", "min": -1.325059835583556, "scale": 0.01011496057697371, "original_dtype": "float32"}}, {"name": "model_1/re_lu_1/Relu6_mbox_conf_1/separable_conv2d/ReadVariableOp_1", "shape": [1, 1, 128, 8], "dtype": "float32", "quantization": {"dtype": "uint8", "min": -1.1822465003705493, "scale": 0.009457972002964395, "original_dtype": "float32"}}, {"name": "model_1/re_lu_1/Relu6_mbox_conf_1/BiasAdd/ReadVariableOp", "shape": [8], "dtype": "float32", "quantization": {"dtype": "uint8", "min": -0.07688243336537304, "scale": 0.0004928361113164939, "original_dtype": "float32"}}, {"name": "model_1/re_lu_1/Relu6_mbox_conf_flat/Const", "shape": [2], "dtype": "int32"}, {"name": "model_1/re_lu_3/Relu6_mbox_conf_1/separable_conv2d/ReadVariableOp", "shape": [3, 3, 128, 1], "dtype": "float32", "quantization": {"dtype": "uint8", "min": -1.0943144723480822, "scale": 0.008417803633446786, "original_dtype": "float32"}}, {"name": "model_1/re_lu_3/Relu6_mbox_conf_1/separable_conv2d/ReadVariableOp_1", "shape": [1, 1, 128, 8], "dtype": "float32", "quantization": {"dtype": "uint8", "min": -1.0951692567152136, "scale": 0.008761354053721708, "original_dtype": "float32"}}, {"name": "model_1/re_lu_3/Relu6_mbox_conf_1/BiasAdd/ReadVariableOp", "shape": [8], "dtype": "float32", "quantization": {"dtype": "uint8", "min": -0.1167519031202092, "scale": 0.0009569828124607311, "original_dtype": "float32"}}, {"name": "model_1/re_lu_3/Relu6_mbox_conf_flat/Const", "shape": [2], "dtype": "int32"}, {"name": "model_1/rescaling/Cast/x", "shape": [], "dtype": "float32", "quantization": {"dtype": "uint8", "min": 0.003921568859368563, "scale": 1.0, "original_dtype": "float32"}}, {"name": "model_1/rescaling/Cast_1/x", "shape": [], "dtype": "float32", "quantization": {"dtype": "uint8", "min": 0.0, "scale": 1.0, "original_dtype": "float32"}}, {"name": "model_1/stem_conv_pad/Pad/paddings", "shape": [4, 2], "dtype": "int32"}, {"name": "model_1/block2a_dwconv_pad/Pad/paddings", "shape": [4, 2], "dtype": "int32"}, {"name": "model_1/block3a_dwconv_pad/Pad/paddings", "shape": [4, 2], "dtype": "int32"}, {"name": "model_1/block4a_dwconv_pad/Pad/paddings", "shape": [4, 2], "dtype": "int32"}, {"name": "model_1/block6a_dwconv_pad/Pad/paddings", "shape": [4, 2], "dtype": "int32"}, {"name": "model_1/x5_padding/Pad/paddings", "shape": [4, 2], "dtype": "int32"}, {"name": "model_1/separable_conv2d/separable_conv2d/ReadVariableOp", "shape": [3, 3, 64, 1], "dtype": "float32", "quantization": {"dtype": "uint8", "min": -1.1616882716908175, "scale": 0.009444620095047295, "original_dtype": "float32"}}, {"name": "model_1/separable_conv2d_1/separable_conv2d/ReadVariableOp", "shape": [3, 3, 64, 1], "dtype": "float32", "quantization": {"dtype": "uint8", "min": -1.1502766889684342, "scale": 0.008916873557894838, "original_dtype": "float32"}}, {"name": "model_1/separable_conv2d_2/separable_conv2d/ReadVariableOp", "shape": [3, 3, 64, 1], "dtype": "float32", "quantization": {"dtype": "uint8", "min": -1.2398460275986616, "scale": 0.009392772936353497, "original_dtype": "float32"}}, {"name": "model_1/re_lu_5/Relu6_mbox_conf_1/separable_conv2d/ReadVariableOp", "shape": [3, 3, 128, 1], "dtype": "float32", "quantization": {"dtype": "uint8", "min": -1.0572955299826228, "scale": 0.00832516165340648, "original_dtype": "float32"}}, {"name": "model_1/re_lu_5/Relu6_mbox_conf_1/separable_conv2d/ReadVariableOp_1", "shape": [1, 1, 128, 8], "dtype": "float32", "quantization": {"dtype": "uint8", "min": -1.2352279588287953, "scale": 0.009429221059761796, "original_dtype": "float32"}}, {"name": "model_1/re_lu_5/Relu6_mbox_conf_1/BiasAdd/ReadVariableOp", "shape": [8], "dtype": "float32", "quantization": {"dtype": "uint8", "min": -0.1897302665254649, "scale": 0.0009439316742560443, "original_dtype": "float32"}}, {"name": "model_1/re_lu_5/Relu6_mbox_conf_flat/Const", "shape": [2], "dtype": "int32"}, {"name": "model_1/mbox_conf/concat/axis", "shape": [], "dtype": "int32"}, {"name": "model_1/mbox_conf_logits/strided_slice/stack", "shape": [1], "dtype": "int32"}, {"name": "model_1/mbox_conf_logits/strided_slice/stack_1", "shape": [1], "dtype": "int32"}, {"name": "model_1/mbox_conf_logits/strided_slice/stack_2", "shape": [1], "dtype": "int32"}, {"name": "model_1/mbox_conf_logits/Reshape/shape/1", "shape": [], "dtype": "int32"}, {"name": "model_1/mbox_conf_logits/Reshape/shape/2", "shape": [], "dtype": "int32"}, {"name": "model_1/predictions/concat/axis", "shape": [], "dtype": "int32"}, {"name": "model_1/tf.__operators__.getitem/strided_slice/stack", "shape": [1], "dtype": "int32"}, {"name": "model_1/tf.__operators__.getitem/strided_slice/stack_1", "shape": [1], "dtype": "int32"}, {"name": "model_1/tf.__operators__.getitem/strided_slice/stack_2", "shape": [1], "dtype": "int32"}, {"name": "model_1/tf.__operators__.getitem_2/strided_slice/stack", "shape": [2], "dtype": "int32"}, {"name": "model_1/tf.__operators__.getitem_2/strided_slice/stack_1", "shape": [2], "dtype": "int32"}, {"name": "model_1/tf.__operators__.getitem_2/strided_slice/stack_2", "shape": [2], "dtype": "int32"}, {"name": "model_1/tf.__operators__.getitem_12/strided_slice/stack", "shape": [2], "dtype": "int32"}, {"name": "model_1/tf.__operators__.getitem_12/strided_slice/stack_1", "shape": [2], "dtype": "int32"}, {"name": "model_1/tf.__operators__.getitem_12/strided_slice/stack_2", "shape": [2], "dtype": "int32"}, {"name": "model_1/tf.reshape_3/Reshape/shape", "shape": [1], "dtype": "int32"}, {"name": "model_1/tf.math.greater/Greater/y", "shape": [], "dtype": "float32", "quantization": {"dtype": "uint8", "min": 0.5, "scale": 1.0, "original_dtype": "float32"}}, {"name": "model_1/tf.compat.v1.boolean_mask_1/boolean_mask/GatherV2/axis", "shape": [], "dtype": "int32"}, {"name": "model_1/tf.image.non_max_suppression/non_max_suppression/NonMaxSuppressionV3/max_output_size", "shape": [], "dtype": "int32"}, {"name": "model_1/tf.image.non_max_suppression/non_max_suppression/iou_threshold", "shape": [], "dtype": "float32", "quantization": {"dtype": "uint8", "min": 0.5, "scale": 1.0, "original_dtype": "float32"}}, {"name": "model_1/tf.image.non_max_suppression/non_max_suppression/score_threshold", "shape": [], "dtype": "float32", "quantization": {"dtype": "uint8", "min": -Infinity, "scale": 1.0, "original_dtype": "float32"}}, {"name": "model_1/tf.compat.v1.gather_2/GatherV2/axis", "shape": [], "dtype": "int32"}, {"name": "model_1/tf.expand_dims_1/ExpandDims/dim", "shape": [], "dtype": "int32"}, {"name": "model_1/concatenate/concat/axis", "shape": [], "dtype": "int32"}, {"name": "model_1/stem_conv/Conv2D_weights", "shape": [3, 3, 3, 32], "dtype": "float32", "quantization": {"dtype": "uint8", "min": -41.10456758386949, "scale": 0.30905689912683826, "original_dtype": "float32"}}, {"name": "model_1/separable_conv2d_2/separable_conv2d_bn_offset", "shape": [128], "dtype": "float32", "quantization": {"dtype": "uint8", "min": -2.375026835647284, "scale": 0.016725541096107632, "original_dtype": "float32"}}, {"name": "model_1/stem_conv/Conv2D_bn_offset", "shape": [32], "dtype": "float32", "quantization": {"dtype": "uint8", "min": -7.79869971555822, "scale": 0.05164701798382927, "original_dtype": "float32"}}, {"name": "model_1/block1a_dwconv/depthwise_weights", "shape": [3, 3, 32, 1], "dtype": "float32", "quantization": {"dtype": "uint8", "min": -27.317448335535385, "scale": 0.22764540279612822, "original_dtype": "float32"}}, {"name": "model_1/block1a_dwconv/depthwise_bn_offset", "shape": [32], "dtype": "float32", "quantization": {"dtype": "uint8", "min": -3.7473245078442146, "scale": 0.045699079363953836, "original_dtype": "float32"}}, {"name": "model_1/block1a_project_conv/Conv2D_weights", "shape": [1, 1, 32, 16], "dtype": "float32", "quantization": {"dtype": "uint8", "min": -3.8584265877218806, "scale": 0.050768770891077376, "original_dtype": "float32"}}, {"name": "model_1/block1a_project_conv/Conv2D_bn_offset", "shape": [16], "dtype": "float32", "quantization": {"dtype": "uint8", "min": -42.74959366742303, "scale": 0.2638863806631051, "original_dtype": "float32"}}, {"name": "model_1/block2a_expand_conv/Conv2D_weights", "shape": [1, 1, 16, 96], "dtype": "float32", "quantization": {"dtype": "uint8", "min": -1.1732096688420166, "scale": 0.00844035732979868, "original_dtype": "float32"}}, {"name": "model_1/block2a_expand_conv/Conv2D_bn_offset", "shape": [96], "dtype": "float32", "quantization": {"dtype": "uint8", "min": -7.853105965782614, "scale": 0.04702458662145278, "original_dtype": "float32"}}, {"name": "model_1/block2a_dwconv/depthwise_weights", "shape": [3, 3, 96, 1], "dtype": "float32", "quantization": {"dtype": "uint8", "min": -6.0610441058289775, "scale": 0.04360463385488473, "original_dtype": "float32"}}, {"name": "model_1/block2a_dwconv/depthwise_bn_offset", "shape": [96], "dtype": "float32", "quantization": {"dtype": "uint8", "min": -5.213872361650654, "scale": 0.0478336913912904, "original_dtype": "float32"}}, {"name": "model_1/block2a_project_conv/Conv2D_weights", "shape": [1, 1, 96, 24], "dtype": "float32", "quantization": {"dtype": "uint8", "min": -4.695047105527392, "scale": 0.03283249724145029, "original_dtype": "float32"}}, {"name": "model_1/block2a_project_conv/Conv2D_bn_offset", "shape": [24], "dtype": "float32", "quantization": {"dtype": "uint8", "min": -18.608708587347294, "scale": 0.14205121059043735, "original_dtype": "float32"}}, {"name": "model_1/block2b_expand_conv/Conv2D_weights", "shape": [1, 1, 24, 144], "dtype": "float32", "quantization": {"dtype": "uint8", "min": -0.42890766461690266, "scale": 0.0031537328280654606, "original_dtype": "float32"}}, {"name": "model_1/block2b_expand_conv/Conv2D_bn_offset", "shape": [144], "dtype": "float32", "quantization": {"dtype": "uint8", "min": -3.4850150080288156, "scale": 0.02978645306007535, "original_dtype": "float32"}}, {"name": "model_1/block2b_dwconv/depthwise_weights", "shape": [3, 3, 144, 1], "dtype": "float32", "quantization": {"dtype": "uint8", "min": -14.864502300935634, "scale": 0.13391443514356427, "original_dtype": "float32"}}, {"name": "model_1/block2b_dwconv/depthwise_bn_offset", "shape": [144], "dtype": "float32", "quantization": {"dtype": "uint8", "min": -13.971567243688247, "scale": 0.11546749788172105, "original_dtype": "float32"}}, {"name": "model_1/block2b_project_conv/Conv2D_weights", "shape": [1, 1, 144, 24], "dtype": "float32", "quantization": {"dtype": "uint8", "min": -2.988952330981984, "scale": 0.029018954669728, "original_dtype": "float32"}}, {"name": "model_1/block2b_project_conv/Conv2D_bn_offset", "shape": [24], "dtype": "float32", "quantization": {"dtype": "uint8", "min": -7.880614942662857, "scale": 0.14593731375301586, "original_dtype": "float32"}}, {"name": "model_1/block3a_expand_conv/Conv2D_weights", "shape": [1, 1, 24, 144], "dtype": "float32", "quantization": {"dtype": "uint8", "min": -0.3272990149610183, "scale": 0.002537201666364483, "original_dtype": "float32"}}, {"name": "model_1/block3a_expand_conv/Conv2D_bn_offset", "shape": [144], "dtype": "float32", "quantization": {"dtype": "uint8", "min": -7.223990552565631, "scale": 0.051971155054429, "original_dtype": "float32"}}, {"name": "model_1/block3a_dwconv/depthwise_weights", "shape": [5, 5, 144, 1], "dtype": "float32", "quantization": {"dtype": "uint8", "min": -2.2334637529709758, "scale": 0.033840359893499636, "original_dtype": "float32"}}, {"name": "model_1/block3a_dwconv/depthwise_bn_offset", "shape": [144], "dtype": "float32", "quantization": {"dtype": "uint8", "min": -3.6408799451940204, "scale": 0.0449491351258521, "original_dtype": "float32"}}, {"name": "model_1/block3a_project_conv/Conv2D_weights", "shape": [1, 1, 144, 40], "dtype": "float32", "quantization": {"dtype": "uint8", "min": -1.2322968090281767, "scale": 0.008557616729362338, "original_dtype": "float32"}}, {"name": "model_1/block3a_project_conv/Conv2D_bn_offset", "shape": [40], "dtype": "float32", "quantization": {"dtype": "uint8", "min": -10.633540800505994, "scale": 0.07042080000335095, "original_dtype": "float32"}}, {"name": "model_1/block3b_expand_conv/Conv2D_weights", "shape": [1, 1, 40, 240], "dtype": "float32", "quantization": {"dtype": "uint8", "min": -0.6958402991294861, "scale": 0.004547975811303831, "original_dtype": "float32"}}, {"name": "model_1/block3b_expand_conv/Conv2D_bn_offset", "shape": [240], "dtype": "float32", "quantization": {"dtype": "uint8", "min": -3.3486034617704505, "scale": 0.03488128606010886, "original_dtype": "float32"}}, {"name": "model_1/block3b_dwconv/depthwise_weights", "shape": [5, 5, 240, 1], "dtype": "float32", "quantization": {"dtype": "uint8", "min": -6.678579582887538, "scale": 0.06360551983702417, "original_dtype": "float32"}}, {"name": "model_1/block3b_dwconv/depthwise_bn_offset", "shape": [240], "dtype": "float32", "quantization": {"dtype": "uint8", "min": -9.425734145968567, "scale": 0.05965654522764916, "original_dtype": "float32"}}, {"name": "model_1/block3b_project_conv/Conv2D_weights", "shape": [1, 1, 240, 40], "dtype": "float32", "quantization": {"dtype": "uint8", "min": -0.6417098999023438, "scale": 0.004718455146340763, "original_dtype": "float32"}}, {"name": "model_1/block3b_project_conv/Conv2D_bn_offset", "shape": [40], "dtype": "float32", "quantization": {"dtype": "uint8", "min": -4.531343751795152, "scale": 0.029811472051283892, "original_dtype": "float32"}}, {"name": "model_1/block4a_expand_conv/Conv2D_weights", "shape": [1, 1, 40, 240], "dtype": "float32", "quantization": {"dtype": "uint8", "min": -0.8156767148597568, "scale": 0.007092840998780494, "original_dtype": "float32"}}, {"name": "model_1/block4a_expand_conv/Conv2D_bn_offset", "shape": [240], "dtype": "float32", "quantization": {"dtype": "uint8", "min": -4.026369171516568, "scale": 0.0356315855886422, "original_dtype": "float32"}}, {"name": "model_1/block4a_dwconv/depthwise_weights", "shape": [3, 3, 240, 1], "dtype": "float32", "quantization": {"dtype": "uint8", "min": -3.7130459448870488, "scale": 0.0350287353291231, "original_dtype": "float32"}}, {"name": "model_1/block4a_dwconv/depthwise_bn_offset", "shape": [240], "dtype": "float32", "quantization": {"dtype": "uint8", "min": -3.12983180214377, "scale": 0.03329608300152947, "original_dtype": "float32"}}, {"name": "model_1/block4a_project_conv/Conv2D_weights", "shape": [1, 1, 240, 80], "dtype": "float32", "quantization": {"dtype": "uint8", "min": -2.235875980526793, "scale": 0.017199046004052254, "original_dtype": "float32"}}, {"name": "model_1/block4a_project_conv/Conv2D_bn_offset", "shape": [80], "dtype": "float32", "quantization": {"dtype": "uint8", "min": -13.154740266238942, "scale": 0.13287616430544386, "original_dtype": "float32"}}, {"name": "model_1/block4b_expand_conv/Conv2D_weights", "shape": [1, 1, 80, 480], "dtype": "float32", "quantization": {"dtype": "uint8", "min": -0.10242340199503244, "scale": 0.000806483480275846, "original_dtype": "float32"}}, {"name": "model_1/block4b_expand_conv/Conv2D_bn_offset", "shape": [480], "dtype": "float32", "quantization": {"dtype": "uint8", "min": -3.7033798647861853, "scale": 0.028487537421432195, "original_dtype": "float32"}}, {"name": "model_1/block4b_dwconv/depthwise_weights", "shape": [3, 3, 480, 1], "dtype": "float32", "quantization": {"dtype": "uint8", "min": -5.036586129431631, "scale": 0.08683769188675226, "original_dtype": "float32"}}, {"name": "model_1/block4b_dwconv/depthwise_bn_offset", "shape": [480], "dtype": "float32", "quantization": {"dtype": "uint8", "min": -5.9438655797173, "scale": 0.051685787649715646, "original_dtype": "float32"}}, {"name": "model_1/block4b_project_conv/Conv2D_weights", "shape": [1, 1, 480, 80], "dtype": "float32", "quantization": {"dtype": "uint8", "min": -1.5012061175178077, "scale": 0.011547739365521599, "original_dtype": "float32"}}, {"name": "model_1/block4b_project_conv/Conv2D_bn_offset", "shape": [80], "dtype": "float32", "quantization": {"dtype": "uint8", "min": -7.435273346246458, "scale": 0.05996188182456821, "original_dtype": "float32"}}, {"name": "model_1/block4c_expand_conv/Conv2D_weights", "shape": [1, 1, 80, 480], "dtype": "float32", "quantization": {"dtype": "uint8", "min": -0.1392826287769804, "scale": 0.0012325896351945166, "original_dtype": "float32"}}, {"name": "model_1/block4c_expand_conv/Conv2D_bn_offset", "shape": [480], "dtype": "float32", "quantization": {"dtype": "uint8", "min": -2.8017320071949676, "scale": 0.02334776672662473, "original_dtype": "float32"}}, {"name": "model_1/block4c_dwconv/depthwise_weights", "shape": [3, 3, 480, 1], "dtype": "float32", "quantization": {"dtype": "uint8", "min": -52.48775646733303, "scale": 0.23858071121515012, "original_dtype": "float32"}}, {"name": "model_1/block4c_dwconv/depthwise_bn_offset", "shape": [480], "dtype": "float32", "quantization": {"dtype": "uint8", "min": -8.102371148502124, "scale": 0.07107343112721162, "original_dtype": "float32"}}, {"name": "model_1/block4c_project_conv/Conv2D_weights", "shape": [1, 1, 480, 80], "dtype": "float32", "quantization": {"dtype": "uint8", "min": -1.1867270913778567, "scale": 0.011521622246386958, "original_dtype": "float32"}}, {"name": "model_1/block4c_project_conv/Conv2D_bn_offset", "shape": [80], "dtype": "float32", "quantization": {"dtype": "uint8", "min": -6.457368794609518, "scale": 0.04392767887489468, "original_dtype": "float32"}}, {"name": "model_1/block5a_expand_conv/Conv2D_weights", "shape": [1, 1, 80, 480], "dtype": "float32", "quantization": {"dtype": "uint8", "min": -0.13314913113911947, "scale": 0.0011888315280278523, "original_dtype": "float32"}}, {"name": "model_1/block5a_expand_conv/Conv2D_bn_offset", "shape": [480], "dtype": "float32", "quantization": {"dtype": "uint8", "min": -3.6324872409596165, "scale": 0.03302261128145106, "original_dtype": "float32"}}, {"name": "model_1/block5a_dwconv/depthwise_weights", "shape": [5, 5, 480, 1], "dtype": "float32", "quantization": {"dtype": "uint8", "min": -9.40870886409984, "scale": 0.05600421942916571, "original_dtype": "float32"}}, {"name": "model_1/block5a_dwconv/depthwise_bn_offset", "shape": [480], "dtype": "float32", "quantization": {"dtype": "uint8", "min": -4.256861355725457, "scale": 0.047829902873319737, "original_dtype": "float32"}}, {"name": "model_1/block5a_project_conv/Conv2D_weights", "shape": [1, 1, 480, 112], "dtype": "float32", "quantization": {"dtype": "uint8", "min": -0.3803691186156927, "scale": 0.0032234671069126504, "original_dtype": "float32"}}, {"name": "model_1/block5a_project_conv/Conv2D_bn_offset", "shape": [112], "dtype": "float32", "quantization": {"dtype": "uint8", "min": -5.8189488018260285, "scale": 0.048090485965504366, "original_dtype": "float32"}}, {"name": "model_1/block5b_expand_conv/Conv2D_weights", "shape": [1, 1, 112, 672], "dtype": "float32", "quantization": {"dtype": "uint8", "min": -0.24484481005107658, "scale": 0.002074956017382005, "original_dtype": "float32"}}, {"name": "model_1/block5b_expand_conv/Conv2D_bn_offset", "shape": [672], "dtype": "float32", "quantization": {"dtype": "uint8", "min": -4.1716094185324275, "scale": 0.026402591256534352, "original_dtype": "float32"}}, {"name": "model_1/block5b_dwconv/depthwise_weights", "shape": [5, 5, 672, 1], "dtype": "float32", "quantization": {"dtype": "uint8", "min": -53.802958918552775, "scale": 0.2908268049651501, "original_dtype": "float32"}}, {"name": "model_1/block5b_dwconv/depthwise_bn_offset", "shape": [672], "dtype": "float32", "quantization": {"dtype": "uint8", "min": -9.142627117680568, "scale": 0.07032790090523514, "original_dtype": "float32"}}, {"name": "model_1/block5b_project_conv/Conv2D_weights", "shape": [1, 1, 672, 112], "dtype": "float32", "quantization": {"dtype": "uint8", "min": -0.31782811950234807, "scale": 0.002207139718766306, "original_dtype": "float32"}}, {"name": "model_1/block5b_project_conv/Conv2D_bn_offset", "shape": [112], "dtype": "float32", "quantization": {"dtype": "uint8", "min": -2.0200356876148895, "scale": 0.015781528809491324, "original_dtype": "float32"}}, {"name": "model_1/block5c_expand_conv/Conv2D_weights", "shape": [1, 1, 112, 672], "dtype": "float32", "quantization": {"dtype": "uint8", "min": -0.3024415706886965, "scale": 0.0030549653604918835, "original_dtype": "float32"}}, {"name": "model_1/block5c_expand_conv/Conv2D_bn_offset", "shape": [672], "dtype": "float32", "quantization": {"dtype": "uint8", "min": -3.026085615158081, "scale": 0.02275252342224121, "original_dtype": "float32"}}, {"name": "model_1/block5c_dwconv/depthwise_weights", "shape": [5, 5, 672, 1], "dtype": "float32", "quantization": {"dtype": "uint8", "min": -21.968935775756837, "scale": 0.15362892150878907, "original_dtype": "float32"}}, {"name": "model_1/block5c_dwconv/depthwise_bn_offset", "shape": [672], "dtype": "float32", "quantization": {"dtype": "uint8", "min": -11.186399903016932, "scale": 0.0712509547962862, "original_dtype": "float32"}}, {"name": "model_1/block5c_project_conv/Conv2D_weights", "shape": [1, 1, 672, 112], "dtype": "float32", "quantization": {"dtype": "uint8", "min": -0.23611494653365192, "scale": 0.001595371260362513, "original_dtype": "float32"}}, {"name": "model_1/block5c_project_conv/Conv2D_bn_offset", "shape": [112], "dtype": "float32", "quantization": {"dtype": "uint8", "min": -2.8083676992678175, "scale": 0.01681657304950789, "original_dtype": "float32"}}, {"name": "model_1/block6a_expand_conv/Conv2D_weights", "shape": [1, 1, 112, 672], "dtype": "float32", "quantization": {"dtype": "uint8", "min": -0.27167535739786486, "scale": 0.002302333537270041, "original_dtype": "float32"}}, {"name": "model_1/block6a_expand_conv/Conv2D_bn_offset", "shape": [672], "dtype": "float32", "quantization": {"dtype": "uint8", "min": -3.432721411013136, "scale": 0.030649298312617285, "original_dtype": "float32"}}, {"name": "model_1/block6a_dwconv/depthwise_weights", "shape": [5, 5, 672, 1], "dtype": "float32", "quantization": {"dtype": "uint8", "min": -7.589176787582098, "scale": 0.05706147960588044, "original_dtype": "float32"}}, {"name": "model_1/block6a_dwconv/depthwise_bn_offset", "shape": [672], "dtype": "float32", "quantization": {"dtype": "uint8", "min": -6.2366454124450685, "scale": 0.04689207077026367, "original_dtype": "float32"}}, {"name": "model_1/block6a_project_conv/Conv2D_weights", "shape": [1, 1, 672, 192], "dtype": "float32", "quantization": {"dtype": "uint8", "min": -1.9415350951400456, "scale": 0.015287677914488549, "original_dtype": "float32"}}, {"name": "model_1/block6a_project_conv/Conv2D_bn_offset", "shape": [192], "dtype": "float32", "quantization": {"dtype": "uint8", "min": -42.06942551556756, "scale": 0.29419178682215075, "original_dtype": "float32"}}, {"name": "model_1/block6b_expand_conv/Conv2D_weights", "shape": [1, 1, 192, 1152], "dtype": "float32", "quantization": {"dtype": "uint8", "min": -0.09915705218034632, "scale": 0.0006982890998615938, "original_dtype": "float32"}}, {"name": "model_1/block6b_expand_conv/Conv2D_bn_offset", "shape": [1152], "dtype": "float32", "quantization": {"dtype": "uint8", "min": -3.210182767755845, "scale": 0.02198755320380716, "original_dtype": "float32"}}, {"name": "model_1/block6b_dwconv/depthwise_weights", "shape": [5, 5, 1152, 1], "dtype": "float32", "quantization": {"dtype": "uint8", "min": -12.351042179032866, "scale": 0.06823780209410424, "original_dtype": "float32"}}, {"name": "model_1/block6b_dwconv/depthwise_bn_offset", "shape": [1152], "dtype": "float32", "quantization": {"dtype": "uint8", "min": -4.957283898895862, "scale": 0.03618455400653914, "original_dtype": "float32"}}, {"name": "model_1/block6b_project_conv/Conv2D_weights", "shape": [1, 1, 1152, 192], "dtype": "float32", "quantization": {"dtype": "uint8", "min": -0.7874357784495634, "scale": 0.006673184563131893, "original_dtype": "float32"}}, {"name": "model_1/block6b_project_conv/Conv2D_bn_offset", "shape": [192], "dtype": "float32", "quantization": {"dtype": "uint8", "min": -7.288880314546473, "scale": 0.05878129285924575, "original_dtype": "float32"}}, {"name": "model_1/block6c_expand_conv/Conv2D_weights", "shape": [1, 1, 192, 1152], "dtype": "float32", "quantization": {"dtype": "uint8", "min": -0.07196483913005566, "scale": 0.0005252907965697494, "original_dtype": "float32"}}, {"name": "model_1/block6c_expand_conv/Conv2D_bn_offset", "shape": [1152], "dtype": "float32", "quantization": {"dtype": "uint8", "min": -2.6293519543666464, "scale": 0.019622029510198855, "original_dtype": "float32"}}, {"name": "model_1/block6c_dwconv/depthwise_weights", "shape": [5, 5, 1152, 1], "dtype": "float32", "quantization": {"dtype": "uint8", "min": -9.782312310910692, "scale": 0.07037634756050858, "original_dtype": "float32"}}, {"name": "model_1/block6c_dwconv/depthwise_bn_offset", "shape": [1152], "dtype": "float32", "quantization": {"dtype": "uint8", "min": -5.63419012929879, "scale": 0.035213688308117434, "original_dtype": "float32"}}, {"name": "model_1/block6c_project_conv/Conv2D_weights", "shape": [1, 1, 1152, 192], "dtype": "float32", "quantization": {"dtype": "uint8", "min": -1.4725955490972482, "scale": 0.014580153951457902, "original_dtype": "float32"}}, {"name": "model_1/block6c_project_conv/Conv2D_bn_offset", "shape": [192], "dtype": "float32", "quantization": {"dtype": "uint8", "min": -10.771806941312903, "scale": 0.07749501396627988, "original_dtype": "float32"}}, {"name": "model_1/block6d_expand_conv/Conv2D_weights", "shape": [1, 1, 192, 1152], "dtype": "float32", "quantization": {"dtype": "uint8", "min": -0.08916148864755442, "scale": 0.0006149068182589961, "original_dtype": "float32"}}, {"name": "model_1/block6d_expand_conv/Conv2D_bn_offset", "shape": [1152], "dtype": "float32", "quantization": {"dtype": "uint8", "min": -3.3685754205666334, "scale": 0.020171110302794212, "original_dtype": "float32"}}, {"name": "model_1/block6d_dwconv/depthwise_weights", "shape": [5, 5, 1152, 1], "dtype": "float32", "quantization": {"dtype": "uint8", "min": -6.043190793430104, "scale": 0.06104233124676873, "original_dtype": "float32"}}, {"name": "model_1/block6d_dwconv/depthwise_bn_offset", "shape": [1152], "dtype": "float32", "quantization": {"dtype": "uint8", "min": -6.011011353661033, "scale": 0.03780510285321404, "original_dtype": "float32"}}, {"name": "model_1/block6d_project_conv/Conv2D_weights", "shape": [1, 1, 1152, 192], "dtype": "float32", "quantization": {"dtype": "uint8", "min": -2.1357056636436313, "scale": 0.015040180729884728, "original_dtype": "float32"}}, {"name": "model_1/block6d_project_conv/Conv2D_bn_offset", "shape": [192], "dtype": "float32", "quantization": {"dtype": "uint8", "min": -9.330411866131952, "scale": 0.10032700931324678, "original_dtype": "float32"}}, {"name": "model_1/block7a_expand_conv/Conv2D_weights", "shape": [1, 1, 192, 1152], "dtype": "float32", "quantization": {"dtype": "uint8", "min": -0.08022044090663685, "scale": 0.0005494550747029922, "original_dtype": "float32"}}, {"name": "model_1/block7a_expand_conv/Conv2D_bn_offset", "shape": [1152], "dtype": "float32", "quantization": {"dtype": "uint8", "min": -2.718693712645886, "scale": 0.01984447965434953, "original_dtype": "float32"}}, {"name": "model_1/block7a_dwconv/depthwise_weights", "shape": [3, 3, 1152, 1], "dtype": "float32", "quantization": {"dtype": "uint8", "min": -6.106312418918983, "scale": 0.03864754695518344, "original_dtype": "float32"}}, {"name": "model_1/block7a_dwconv/depthwise_bn_offset", "shape": [1152], "dtype": "float32", "quantization": {"dtype": "uint8", "min": -5.074960921792423, "scale": 0.044517201068354585, "original_dtype": "float32"}}, {"name": "model_1/block7a_project_conv/Conv2D_weights", "shape": [1, 1, 1152, 320], "dtype": "float32", "quantization": {"dtype": "uint8", "min": -0.10115412648986369, "scale": 0.0009366122823135526, "original_dtype": "float32"}}, {"name": "model_1/block7a_project_conv/Conv2D_bn_offset", "shape": [320], "dtype": "float32", "quantization": {"dtype": "uint8", "min": -2.4705591164383236, "scale": 0.018033278222177544, "original_dtype": "float32"}}, {"name": "model_1/conv2d/Conv2D_weights", "shape": [1, 1, 320, 64], "dtype": "float32", "quantization": {"dtype": "uint8", "min": -0.07936464548110962, "scale": 0.0005922734737396241, "original_dtype": "float32"}}, {"name": "model_1/conv2d/Conv2D_bn_offset", "shape": [64], "dtype": "float32", "quantization": {"dtype": "uint8", "min": -0.3001002046407438, "scale": 0.0019487026275372974, "original_dtype": "float32"}}, {"name": "model_1/separable_conv2d/separable_conv2d_weights", "shape": [1, 1, 64, 128], "dtype": "float32", "quantization": {"dtype": "uint8", "min": -1.3110746944651885, "scale": 0.011706024057724897, "original_dtype": "float32"}}, {"name": "model_1/separable_conv2d/separable_conv2d_bn_offset", "shape": [128], "dtype": "float32", "quantization": {"dtype": "uint8", "min": -1.3990128993988038, "scale": 0.011957375208536784, "original_dtype": "float32"}}, {"name": "model_1/conv2d_1/Conv2D_weights", "shape": [1, 1, 128, 64], "dtype": "float32", "quantization": {"dtype": "uint8", "min": -0.5010872642199199, "scale": 0.004210817346385881, "original_dtype": "float32"}}, {"name": "model_1/conv2d_1/Conv2D_bn_offset", "shape": [64], "dtype": "float32", "quantization": {"dtype": "uint8", "min": -0.522989227257523, "scale": 0.004508527821185542, "original_dtype": "float32"}}, {"name": "model_1/separable_conv2d_1/separable_conv2d_weights", "shape": [1, 1, 64, 128], "dtype": "float32", "quantization": {"dtype": "uint8", "min": -0.5857325422997568, "scale": 0.005049418468101352, "original_dtype": "float32"}}, {"name": "model_1/separable_conv2d_1/separable_conv2d_bn_offset", "shape": [128], "dtype": "float32", "quantization": {"dtype": "uint8", "min": -1.2329075743170346, "scale": 0.010537671575359269, "original_dtype": "float32"}}, {"name": "model_1/conv2d_2/Conv2D_weights", "shape": [1, 1, 128, 64], "dtype": "float32", "quantization": {"dtype": "uint8", "min": -0.7259409079364701, "scale": 0.005458202315311806, "original_dtype": "float32"}}, {"name": "model_1/conv2d_2/Conv2D_bn_offset", "shape": [64], "dtype": "float32", "quantization": {"dtype": "uint8", "min": -0.6386454848682179, "scale": 0.007175791964811437, "original_dtype": "float32"}}, {"name": "model_1/separable_conv2d_2/separable_conv2d_weights", "shape": [1, 1, 64, 128], "dtype": "float32", "quantization": {"dtype": "uint8", "min": -0.6950406691607307, "scale": 0.0072400069704242785, "original_dtype": "float32"}}]}]}