{"format": "graph-model", "generatedBy": "2.6.2", "convertedBy": "TensorFlow.js Converter v3.19.0", "signature": {"outputs": {"Identity": {"name": "Identity"}}}, "modelTopology": {"node": [{"name": "model/tf.compat.v1.gather/GatherV2/axis", "op": "Const", "attr": {"dtype": {"type": "DT_INT32"}, "value": {"tensor": {"dtype": "DT_INT32", "tensorShape": {}}}}}, {"name": "model/tf.compat.v1.gather_1/GatherV2/axis", "op": "Const", "attr": {"dtype": {"type": "DT_INT32"}, "value": {"tensor": {"dtype": "DT_INT32", "tensorShape": {}}}}}, {"name": "model/tf.expand_dims/ExpandDims/dim", "op": "Const", "attr": {"dtype": {"type": "DT_INT32"}, "value": {"tensor": {"dtype": "DT_INT32", "tensorShape": {}}}}}, {"name": "model/tf.compat.v1.boolean_mask_2/boolean_mask/Reshape", "op": "Const", "attr": {"dtype": {"type": "DT_FLOAT"}, "value": {"tensor": {"dtype": "DT_FLOAT", "tensorShape": {"dim": [{"size": "11640"}]}}}}}, {"name": "model/tf.compat.v1.boolean_mask_2/boolean_mask/GatherV2/axis", "op": "Const", "attr": {"dtype": {"type": "DT_INT32"}, "value": {"tensor": {"dtype": "DT_INT32", "tensorShape": {}}}}}, {"name": "model/tf.__operators__.getitem_5/strided_slice/stack", "op": "Const", "attr": {"dtype": {"type": "DT_INT32"}, "value": {"tensor": {"dtype": "DT_INT32", "tensorShape": {"dim": [{"size": "2"}]}}}}}, {"name": "model/tf.__operators__.getitem_5/strided_slice/stack_1", "op": "Const", "attr": {"dtype": {"type": "DT_INT32"}, "value": {"tensor": {"dtype": "DT_INT32", "tensorShape": {"dim": [{"size": "2"}]}}}}}, {"name": "model/tf.__operators__.getitem_5/strided_slice/stack_2", "op": "Const", "attr": {"value": {"tensor": {"dtype": "DT_INT32", "tensorShape": {"dim": [{"size": "2"}]}}}, "dtype": {"type": "DT_INT32"}}}, {"name": "model/tf.__operators__.getitem_6/strided_slice/stack", "op": "Const", "attr": {"value": {"tensor": {"dtype": "DT_INT32", "tensorShape": {"dim": [{"size": "2"}]}}}, "dtype": {"type": "DT_INT32"}}}, {"name": "model/tf.__operators__.getitem_6/strided_slice/stack_1", "op": "Const", "attr": {"dtype": {"type": "DT_INT32"}, "value": {"tensor": {"dtype": "DT_INT32", "tensorShape": {"dim": [{"size": "2"}]}}}}}, {"name": "model/tf.__operators__.getitem_6/strided_slice/stack_2", "op": "Const", "attr": {"dtype": {"type": "DT_INT32"}, "value": {"tensor": {"dtype": "DT_INT32", "tensorShape": {"dim": [{"size": "2"}]}}}}}, {"name": "ConstantFolding/model/tf.math.truediv/truediv_recip", "op": "Const", "attr": {"value": {"tensor": {"dtype": "DT_FLOAT", "tensorShape": {}}}, "dtype": {"type": "DT_FLOAT"}}}, {"name": "model/tf.__operators__.getitem_7/strided_slice/stack", "op": "Const", "attr": {"dtype": {"type": "DT_INT32"}, "value": {"tensor": {"dtype": "DT_INT32", "tensorShape": {"dim": [{"size": "2"}]}}}}}, {"name": "model/tf.__operators__.getitem_7/strided_slice/stack_1", "op": "Const", "attr": {"value": {"tensor": {"dtype": "DT_INT32", "tensorShape": {"dim": [{"size": "2"}]}}}, "dtype": {"type": "DT_INT32"}}}, {"name": "model/tf.__operators__.getitem_7/strided_slice/stack_2", "op": "Const", "attr": {"dtype": {"type": "DT_INT32"}, "value": {"tensor": {"dtype": "DT_INT32", "tensorShape": {"dim": [{"size": "2"}]}}}}}, {"name": "model/tf.__operators__.getitem_3/strided_slice/stack", "op": "Const", "attr": {"dtype": {"type": "DT_INT32"}, "value": {"tensor": {"dtype": "DT_INT32", "tensorShape": {"dim": [{"size": "2"}]}}}}}, {"name": "model/tf.__operators__.getitem_3/strided_slice/stack_1", "op": "Const", "attr": {"dtype": {"type": "DT_INT32"}, "value": {"tensor": {"dtype": "DT_INT32", "tensorShape": {"dim": [{"size": "2"}]}}}}}, {"name": "model/tf.__operators__.getitem_3/strided_slice/stack_2", "op": "Const", "attr": {"value": {"tensor": {"dtype": "DT_INT32", "tensorShape": {"dim": [{"size": "2"}]}}}, "dtype": {"type": "DT_INT32"}}}, {"name": "model/tf.math.multiply/Mul", "op": "Const", "attr": {"value": {"tensor": {"dtype": "DT_FLOAT", "tensorShape": {"dim": [{"size": "1"}, {"size": "3880"}, {"size": "2"}]}}}, "dtype": {"type": "DT_FLOAT"}}}, {"name": "model/tf.__operators__.add/AddV2/y", "op": "Const", "attr": {"dtype": {"type": "DT_FLOAT"}, "value": {"tensor": {"dtype": "DT_FLOAT", "tensorShape": {"dim": [{"size": "1"}, {"size": "3880"}, {"size": "2"}]}}}}}, {"name": "model/tf.__operators__.getitem_1/strided_slice/stack", "op": "Const", "attr": {"value": {"tensor": {"dtype": "DT_INT32", "tensorShape": {"dim": [{"size": "2"}]}}}, "dtype": {"type": "DT_INT32"}}}, {"name": "model/tf.__operators__.getitem_1/strided_slice/stack_1", "op": "Const", "attr": {"value": {"tensor": {"dtype": "DT_INT32", "tensorShape": {"dim": [{"size": "2"}]}}}, "dtype": {"type": "DT_INT32"}}}, {"name": "model/tf.__operators__.getitem_1/strided_slice/stack_2", "op": "Const", "attr": {"value": {"tensor": {"dtype": "DT_INT32", "tensorShape": {"dim": [{"size": "2"}]}}}, "dtype": {"type": "DT_INT32"}}}, {"name": "model/tf.__operators__.getitem_4/strided_slice/stack", "op": "Const", "attr": {"value": {"tensor": {"dtype": "DT_INT32", "tensorShape": {"dim": [{"size": "2"}]}}}, "dtype": {"type": "DT_INT32"}}}, {"name": "model/tf.__operators__.getitem_4/strided_slice/stack_1", "op": "Const", "attr": {"value": {"tensor": {"dtype": "DT_INT32", "tensorShape": {"dim": [{"size": "2"}]}}}, "dtype": {"type": "DT_INT32"}}}, {"name": "model/tf.__operators__.getitem_4/strided_slice/stack_2", "op": "Const", "attr": {"value": {"tensor": {"dtype": "DT_INT32", "tensorShape": {"dim": [{"size": "2"}]}}}, "dtype": {"type": "DT_INT32"}}}, {"name": "model/tf.math.multiply_2/Mul/y", "op": "Const", "attr": {"value": {"tensor": {"dtype": "DT_FLOAT", "tensorShape": {}}}, "dtype": {"type": "DT_FLOAT"}}}, {"name": "model/tf.math.multiply_3/Mul/y", "op": "Const", "attr": {"dtype": {"type": "DT_FLOAT"}, "value": {"tensor": {"dtype": "DT_FLOAT", "tensorShape": {"dim": [{"size": "1"}, {"size": "3880"}, {"size": "2"}]}}}}}, {"name": "model/tf.math.subtract/Sub", "op": "Const", "attr": {"dtype": {"type": "DT_INT32"}, "value": {"tensor": {"dtype": "DT_INT32", "tensorShape": {}}}}}, {"name": "model/tf.__operators__.getitem_8/strided_slice/stack", "op": "Const", "attr": {"dtype": {"type": "DT_INT32"}, "value": {"tensor": {"dtype": "DT_INT32", "tensorShape": {"dim": [{"size": "2"}]}}}}}, {"name": "model/tf.__operators__.getitem_8/strided_slice/stack_1", "op": "Const", "attr": {"dtype": {"type": "DT_INT32"}, "value": {"tensor": {"dtype": "DT_INT32", "tensorShape": {"dim": [{"size": "2"}]}}}}}, {"name": "model/tf.__operators__.getitem_8/strided_slice/stack_2", "op": "Const", "attr": {"dtype": {"type": "DT_INT32"}, "value": {"tensor": {"dtype": "DT_INT32", "tensorShape": {"dim": [{"size": "2"}]}}}}}, {"name": "ConstantFolding/model/tf.math.truediv_1/truediv_recip", "op": "Const", "attr": {"value": {"tensor": {"dtype": "DT_FLOAT", "tensorShape": {}}}, "dtype": {"type": "DT_FLOAT"}}}, {"name": "model/tf.math.subtract_2/Sub", "op": "Const", "attr": {"dtype": {"type": "DT_INT32"}, "value": {"tensor": {"dtype": "DT_INT32", "tensorShape": {}}}}}, {"name": "model/tf.reshape/Reshape/shape", "op": "Const", "attr": {"dtype": {"type": "DT_INT32"}, "value": {"tensor": {"dtype": "DT_INT32", "tensorShape": {"dim": [{"size": "3"}]}}}}}, {"name": "model/tf.broadcast_to/BroadcastTo/shape", "op": "Const", "attr": {"value": {"tensor": {"dtype": "DT_INT32", "tensorShape": {"dim": [{"size": "3"}]}}}, "dtype": {"type": "DT_INT32"}}}, {"name": "model/tf.__operators__.getitem_11/strided_slice/stack", "op": "Const", "attr": {"value": {"tensor": {"dtype": "DT_INT32", "tensorShape": {"dim": [{"size": "2"}]}}}, "dtype": {"type": "DT_INT32"}}}, {"name": "model/tf.__operators__.getitem_11/strided_slice/stack_1", "op": "Const", "attr": {"dtype": {"type": "DT_INT32"}, "value": {"tensor": {"dtype": "DT_INT32", "tensorShape": {"dim": [{"size": "2"}]}}}}}, {"name": "model/tf.__operators__.getitem_11/strided_slice/stack_2", "op": "Const", "attr": {"value": {"tensor": {"dtype": "DT_INT32", "tensorShape": {"dim": [{"size": "2"}]}}}, "dtype": {"type": "DT_INT32"}}}, {"name": "model/tf.reshape_2/Reshape/shape", "op": "Const", "attr": {"value": {"tensor": {"dtype": "DT_INT32", "tensorShape": {"dim": [{"size": "2"}]}}}, "dtype": {"type": "DT_INT32"}}}, {"name": "model/tf.compat.v1.boolean_mask/boolean_mask/GatherV2/axis", "op": "Const", "attr": {"value": {"tensor": {"dtype": "DT_INT32", "tensorShape": {}}}, "dtype": {"type": "DT_INT32"}}}, {"name": "model/tf.math.reduce_max/Const", "op": "Const", "attr": {"value": {"tensor": {"dtype": "DT_INT32", "tensorShape": {"dim": [{"size": "2"}]}}}, "dtype": {"type": "DT_INT32"}}}, {"name": "model/tf.__operators__.add_2/y", "op": "Const", "attr": {"value": {"tensor": {"dtype": "DT_FLOAT", "tensorShape": {}}}, "dtype": {"type": "DT_FLOAT"}}}, {"name": "model/tf.__operators__.getitem_14/strided_slice/stack", "op": "Const", "attr": {"value": {"tensor": {"dtype": "DT_INT32", "tensorShape": {"dim": [{"size": "2"}]}}}, "dtype": {"type": "DT_INT32"}}}, {"name": "model/tf.__operators__.getitem_14/strided_slice/stack_1", "op": "Const", "attr": {"dtype": {"type": "DT_INT32"}, "value": {"tensor": {"dtype": "DT_INT32", "tensorShape": {"dim": [{"size": "2"}]}}}}}, {"name": "model/tf.__operators__.getitem_14/strided_slice/stack_2", "op": "Const", "attr": {"dtype": {"type": "DT_INT32"}, "value": {"tensor": {"dtype": "DT_INT32", "tensorShape": {"dim": [{"size": "2"}]}}}}}, {"name": "model/block3b_add/add_mbox_loc_1/separable_conv2d/ReadVariableOp", "op": "Const", "attr": {"value": {"tensor": {"dtype": "DT_FLOAT", "tensorShape": {"dim": [{"size": "3"}, {"size": "3"}, {"size": "40"}, {"size": "1"}]}}}, "dtype": {"type": "DT_FLOAT"}}}, {"name": "model/block3b_add/add_mbox_loc_1/separable_conv2d/ReadVariableOp_1", "op": "Const", "attr": {"value": {"tensor": {"dtype": "DT_FLOAT", "tensorShape": {"dim": [{"size": "1"}, {"size": "1"}, {"size": "40"}, {"size": "8"}]}}}, "dtype": {"type": "DT_FLOAT"}}}, {"name": "model/block3b_add/add_mbox_loc_1/BiasAdd/ReadVariableOp", "op": "Const", "attr": {"dtype": {"type": "DT_FLOAT"}, "value": {"tensor": {"dtype": "DT_FLOAT", "tensorShape": {"dim": [{"size": "8"}]}}}}}, {"name": "model/block3b_add/add_mbox_loc_flat/Const", "op": "Const", "attr": {"dtype": {"type": "DT_INT32"}, "value": {"tensor": {"dtype": "DT_INT32", "tensorShape": {"dim": [{"size": "2"}]}}}}}, {"name": "model/block5c_add/add_mbox_loc_1/separable_conv2d/ReadVariableOp", "op": "Const", "attr": {"value": {"tensor": {"dtype": "DT_FLOAT", "tensorShape": {"dim": [{"size": "3"}, {"size": "3"}, {"size": "112"}, {"size": "1"}]}}}, "dtype": {"type": "DT_FLOAT"}}}, {"name": "model/block5c_add/add_mbox_loc_1/separable_conv2d/ReadVariableOp_1", "op": "Const", "attr": {"value": {"tensor": {"dtype": "DT_FLOAT", "tensorShape": {"dim": [{"size": "1"}, {"size": "1"}, {"size": "112"}, {"size": "8"}]}}}, "dtype": {"type": "DT_FLOAT"}}}, {"name": "model/block5c_add/add_mbox_loc_1/BiasAdd/ReadVariableOp", "op": "Const", "attr": {"dtype": {"type": "DT_FLOAT"}, "value": {"tensor": {"dtype": "DT_FLOAT", "tensorShape": {"dim": [{"size": "8"}]}}}}}, {"name": "model/block5c_add/add_mbox_loc_flat/Const", "op": "Const", "attr": {"dtype": {"type": "DT_INT32"}, "value": {"tensor": {"dtype": "DT_INT32", "tensorShape": {"dim": [{"size": "2"}]}}}}}, {"name": "model/block7a_project_bn/FusedBatchNormV3_mbox_loc_1/separable_conv2d/ReadVariableOp", "op": "Const", "attr": {"dtype": {"type": "DT_FLOAT"}, "value": {"tensor": {"dtype": "DT_FLOAT", "tensorShape": {"dim": [{"size": "3"}, {"size": "3"}, {"size": "320"}, {"size": "1"}]}}}}}, {"name": "model/block7a_project_bn/FusedBatchNormV3_mbox_loc_1/separable_conv2d/ReadVariableOp_1", "op": "Const", "attr": {"dtype": {"type": "DT_FLOAT"}, "value": {"tensor": {"dtype": "DT_FLOAT", "tensorShape": {"dim": [{"size": "1"}, {"size": "1"}, {"size": "320"}, {"size": "8"}]}}}}}, {"name": "model/block7a_project_bn/FusedBatchNormV3_mbox_loc_1/BiasAdd/ReadVariableOp", "op": "Const", "attr": {"value": {"tensor": {"dtype": "DT_FLOAT", "tensorShape": {"dim": [{"size": "8"}]}}}, "dtype": {"type": "DT_FLOAT"}}}, {"name": "model/block7a_project_bn/FusedBatchNormV3_mbox_loc_flat/Const", "op": "Const", "attr": {"value": {"tensor": {"dtype": "DT_INT32", "tensorShape": {"dim": [{"size": "2"}]}}}, "dtype": {"type": "DT_INT32"}}}, {"name": "model/re_lu_1/Relu6_mbox_loc_1/separable_conv2d/ReadVariableOp", "op": "Const", "attr": {"value": {"tensor": {"dtype": "DT_FLOAT", "tensorShape": {"dim": [{"size": "3"}, {"size": "3"}, {"size": "128"}, {"size": "1"}]}}}, "dtype": {"type": "DT_FLOAT"}}}, {"name": "model/re_lu_1/Relu6_mbox_loc_1/separable_conv2d/ReadVariableOp_1", "op": "Const", "attr": {"value": {"tensor": {"dtype": "DT_FLOAT", "tensorShape": {"dim": [{"size": "1"}, {"size": "1"}, {"size": "128"}, {"size": "8"}]}}}, "dtype": {"type": "DT_FLOAT"}}}, {"name": "model/re_lu_1/Relu6_mbox_loc_1/BiasAdd/ReadVariableOp", "op": "Const", "attr": {"dtype": {"type": "DT_FLOAT"}, "value": {"tensor": {"dtype": "DT_FLOAT", "tensorShape": {"dim": [{"size": "8"}]}}}}}, {"name": "model/re_lu_1/Relu6_mbox_loc_flat/Const", "op": "Const", "attr": {"value": {"tensor": {"dtype": "DT_INT32", "tensorShape": {"dim": [{"size": "2"}]}}}, "dtype": {"type": "DT_INT32"}}}, {"name": "model/re_lu_3/Relu6_mbox_loc_1/separable_conv2d/ReadVariableOp", "op": "Const", "attr": {"dtype": {"type": "DT_FLOAT"}, "value": {"tensor": {"dtype": "DT_FLOAT", "tensorShape": {"dim": [{"size": "3"}, {"size": "3"}, {"size": "128"}, {"size": "1"}]}}}}}, {"name": "model/re_lu_3/Relu6_mbox_loc_1/separable_conv2d/ReadVariableOp_1", "op": "Const", "attr": {"value": {"tensor": {"dtype": "DT_FLOAT", "tensorShape": {"dim": [{"size": "1"}, {"size": "1"}, {"size": "128"}, {"size": "8"}]}}}, "dtype": {"type": "DT_FLOAT"}}}, {"name": "model/re_lu_3/Relu6_mbox_loc_1/BiasAdd/ReadVariableOp", "op": "Const", "attr": {"value": {"tensor": {"dtype": "DT_FLOAT", "tensorShape": {"dim": [{"size": "8"}]}}}, "dtype": {"type": "DT_FLOAT"}}}, {"name": "model/re_lu_3/Relu6_mbox_loc_flat/Const", "op": "Const", "attr": {"value": {"tensor": {"dtype": "DT_INT32", "tensorShape": {"dim": [{"size": "2"}]}}}, "dtype": {"type": "DT_INT32"}}}, {"name": "model/re_lu_5/Relu6_mbox_loc_1/separable_conv2d/ReadVariableOp", "op": "Const", "attr": {"value": {"tensor": {"dtype": "DT_FLOAT", "tensorShape": {"dim": [{"size": "3"}, {"size": "3"}, {"size": "128"}, {"size": "1"}]}}}, "dtype": {"type": "DT_FLOAT"}}}, {"name": "model/re_lu_5/Relu6_mbox_loc_1/separable_conv2d/ReadVariableOp_1", "op": "Const", "attr": {"dtype": {"type": "DT_FLOAT"}, "value": {"tensor": {"dtype": "DT_FLOAT", "tensorShape": {"dim": [{"size": "1"}, {"size": "1"}, {"size": "128"}, {"size": "8"}]}}}}}, {"name": "model/re_lu_5/Relu6_mbox_loc_1/BiasAdd/ReadVariableOp", "op": "Const", "attr": {"dtype": {"type": "DT_FLOAT"}, "value": {"tensor": {"dtype": "DT_FLOAT", "tensorShape": {"dim": [{"size": "8"}]}}}}}, {"name": "model/re_lu_5/Relu6_mbox_loc_flat/Const", "op": "Const", "attr": {"dtype": {"type": "DT_INT32"}, "value": {"tensor": {"dtype": "DT_INT32", "tensorShape": {"dim": [{"size": "2"}]}}}}}, {"name": "model/mbox_loc/concat/axis", "op": "Const", "attr": {"dtype": {"type": "DT_INT32"}, "value": {"tensor": {"dtype": "DT_INT32", "tensorShape": {}}}}}, {"name": "model/mbox_loc_final/strided_slice/stack", "op": "Const", "attr": {"dtype": {"type": "DT_INT32"}, "value": {"tensor": {"dtype": "DT_INT32", "tensorShape": {"dim": [{"size": "1"}]}}}}}, {"name": "model/mbox_loc_final/strided_slice/stack_1", "op": "Const", "attr": {"dtype": {"type": "DT_INT32"}, "value": {"tensor": {"dtype": "DT_INT32", "tensorShape": {"dim": [{"size": "1"}]}}}}}, {"name": "model/mbox_loc_final/strided_slice/stack_2", "op": "Const", "attr": {"value": {"tensor": {"dtype": "DT_INT32", "tensorShape": {"dim": [{"size": "1"}]}}}, "dtype": {"type": "DT_INT32"}}}, {"name": "model/mbox_loc_final/Reshape/shape/1", "op": "Const", "attr": {"dtype": {"type": "DT_INT32"}, "value": {"tensor": {"dtype": "DT_INT32", "tensorShape": {}}}}}, {"name": "model/mbox_loc_final/Reshape/shape/2", "op": "Const", "attr": {"dtype": {"type": "DT_INT32"}, "value": {"tensor": {"dtype": "DT_INT32", "tensorShape": {}}}}}, {"name": "model/block3b_add/add_mbox_conf_1/separable_conv2d/ReadVariableOp", "op": "Const", "attr": {"value": {"tensor": {"dtype": "DT_FLOAT", "tensorShape": {"dim": [{"size": "3"}, {"size": "3"}, {"size": "40"}, {"size": "1"}]}}}, "dtype": {"type": "DT_FLOAT"}}}, {"name": "model/block3b_add/add_mbox_conf_1/separable_conv2d/ReadVariableOp_1", "op": "Const", "attr": {"dtype": {"type": "DT_FLOAT"}, "value": {"tensor": {"dtype": "DT_FLOAT", "tensorShape": {"dim": [{"size": "1"}, {"size": "1"}, {"size": "40"}, {"size": "8"}]}}}}}, {"name": "model/block3b_add/add_mbox_conf_1/BiasAdd/ReadVariableOp", "op": "Const", "attr": {"value": {"tensor": {"dtype": "DT_FLOAT", "tensorShape": {"dim": [{"size": "8"}]}}}, "dtype": {"type": "DT_FLOAT"}}}, {"name": "model/block3b_add/add_mbox_conf_flat/Const", "op": "Const", "attr": {"dtype": {"type": "DT_INT32"}, "value": {"tensor": {"dtype": "DT_INT32", "tensorShape": {"dim": [{"size": "2"}]}}}}}, {"name": "model/block5c_add/add_mbox_conf_1/separable_conv2d/ReadVariableOp", "op": "Const", "attr": {"dtype": {"type": "DT_FLOAT"}, "value": {"tensor": {"dtype": "DT_FLOAT", "tensorShape": {"dim": [{"size": "3"}, {"size": "3"}, {"size": "112"}, {"size": "1"}]}}}}}, {"name": "model/block5c_add/add_mbox_conf_1/separable_conv2d/ReadVariableOp_1", "op": "Const", "attr": {"value": {"tensor": {"dtype": "DT_FLOAT", "tensorShape": {"dim": [{"size": "1"}, {"size": "1"}, {"size": "112"}, {"size": "8"}]}}}, "dtype": {"type": "DT_FLOAT"}}}, {"name": "model/block5c_add/add_mbox_conf_1/BiasAdd/ReadVariableOp", "op": "Const", "attr": {"dtype": {"type": "DT_FLOAT"}, "value": {"tensor": {"dtype": "DT_FLOAT", "tensorShape": {"dim": [{"size": "8"}]}}}}}, {"name": "model/block5c_add/add_mbox_conf_flat/Const", "op": "Const", "attr": {"dtype": {"type": "DT_INT32"}, "value": {"tensor": {"dtype": "DT_INT32", "tensorShape": {"dim": [{"size": "2"}]}}}}}, {"name": "model/block7a_project_bn/FusedBatchNormV3_mbox_conf_1/separable_conv2d/ReadVariableOp", "op": "Const", "attr": {"dtype": {"type": "DT_FLOAT"}, "value": {"tensor": {"dtype": "DT_FLOAT", "tensorShape": {"dim": [{"size": "3"}, {"size": "3"}, {"size": "320"}, {"size": "1"}]}}}}}, {"name": "model/block7a_project_bn/FusedBatchNormV3_mbox_conf_1/separable_conv2d/ReadVariableOp_1", "op": "Const", "attr": {"dtype": {"type": "DT_FLOAT"}, "value": {"tensor": {"dtype": "DT_FLOAT", "tensorShape": {"dim": [{"size": "1"}, {"size": "1"}, {"size": "320"}, {"size": "8"}]}}}}}, {"name": "model/block7a_project_bn/FusedBatchNormV3_mbox_conf_1/BiasAdd/ReadVariableOp", "op": "Const", "attr": {"dtype": {"type": "DT_FLOAT"}, "value": {"tensor": {"dtype": "DT_FLOAT", "tensorShape": {"dim": [{"size": "8"}]}}}}}, {"name": "model/block7a_project_bn/FusedBatchNormV3_mbox_conf_flat/Const", "op": "Const", "attr": {"dtype": {"type": "DT_INT32"}, "value": {"tensor": {"dtype": "DT_INT32", "tensorShape": {"dim": [{"size": "2"}]}}}}}, {"name": "model/re_lu_1/Relu6_mbox_conf_1/separable_conv2d/ReadVariableOp", "op": "Const", "attr": {"value": {"tensor": {"dtype": "DT_FLOAT", "tensorShape": {"dim": [{"size": "3"}, {"size": "3"}, {"size": "128"}, {"size": "1"}]}}}, "dtype": {"type": "DT_FLOAT"}}}, {"name": "model/re_lu_1/Relu6_mbox_conf_1/separable_conv2d/ReadVariableOp_1", "op": "Const", "attr": {"value": {"tensor": {"dtype": "DT_FLOAT", "tensorShape": {"dim": [{"size": "1"}, {"size": "1"}, {"size": "128"}, {"size": "8"}]}}}, "dtype": {"type": "DT_FLOAT"}}}, {"name": "model/re_lu_1/Relu6_mbox_conf_1/BiasAdd/ReadVariableOp", "op": "Const", "attr": {"dtype": {"type": "DT_FLOAT"}, "value": {"tensor": {"dtype": "DT_FLOAT", "tensorShape": {"dim": [{"size": "8"}]}}}}}, {"name": "model/re_lu_1/Relu6_mbox_conf_flat/Const", "op": "Const", "attr": {"dtype": {"type": "DT_INT32"}, "value": {"tensor": {"dtype": "DT_INT32", "tensorShape": {"dim": [{"size": "2"}]}}}}}, {"name": "model/re_lu_3/Relu6_mbox_conf_1/separable_conv2d/ReadVariableOp", "op": "Const", "attr": {"value": {"tensor": {"dtype": "DT_FLOAT", "tensorShape": {"dim": [{"size": "3"}, {"size": "3"}, {"size": "128"}, {"size": "1"}]}}}, "dtype": {"type": "DT_FLOAT"}}}, {"name": "model/re_lu_3/Relu6_mbox_conf_1/separable_conv2d/ReadVariableOp_1", "op": "Const", "attr": {"dtype": {"type": "DT_FLOAT"}, "value": {"tensor": {"dtype": "DT_FLOAT", "tensorShape": {"dim": [{"size": "1"}, {"size": "1"}, {"size": "128"}, {"size": "8"}]}}}}}, {"name": "model/re_lu_3/Relu6_mbox_conf_1/BiasAdd/ReadVariableOp", "op": "Const", "attr": {"value": {"tensor": {"dtype": "DT_FLOAT", "tensorShape": {"dim": [{"size": "8"}]}}}, "dtype": {"type": "DT_FLOAT"}}}, {"name": "model/re_lu_3/Relu6_mbox_conf_flat/Const", "op": "Const", "attr": {"value": {"tensor": {"dtype": "DT_INT32", "tensorShape": {"dim": [{"size": "2"}]}}}, "dtype": {"type": "DT_INT32"}}}, {"name": "model/stem_conv_pad/Pad/paddings", "op": "Const", "attr": {"dtype": {"type": "DT_INT32"}, "value": {"tensor": {"dtype": "DT_INT32", "tensorShape": {"dim": [{"size": "4"}, {"size": "2"}]}}}}}, {"name": "model/block2a_dwconv_pad/Pad/paddings", "op": "Const", "attr": {"value": {"tensor": {"dtype": "DT_INT32", "tensorShape": {"dim": [{"size": "4"}, {"size": "2"}]}}}, "dtype": {"type": "DT_INT32"}}}, {"name": "model/block3a_dwconv_pad/Pad/paddings", "op": "Const", "attr": {"value": {"tensor": {"dtype": "DT_INT32", "tensorShape": {"dim": [{"size": "4"}, {"size": "2"}]}}}, "dtype": {"type": "DT_INT32"}}}, {"name": "model/block4a_dwconv_pad/Pad/paddings", "op": "Const", "attr": {"dtype": {"type": "DT_INT32"}, "value": {"tensor": {"dtype": "DT_INT32", "tensorShape": {"dim": [{"size": "4"}, {"size": "2"}]}}}}}, {"name": "model/block6a_dwconv_pad/Pad/paddings", "op": "Const", "attr": {"value": {"tensor": {"dtype": "DT_INT32", "tensorShape": {"dim": [{"size": "4"}, {"size": "2"}]}}}, "dtype": {"type": "DT_INT32"}}}, {"name": "model/x5_padding/Pad/paddings", "op": "Const", "attr": {"dtype": {"type": "DT_INT32"}, "value": {"tensor": {"dtype": "DT_INT32", "tensorShape": {"dim": [{"size": "4"}, {"size": "2"}]}}}}}, {"name": "model/separable_conv2d/separable_conv2d/ReadVariableOp", "op": "Const", "attr": {"dtype": {"type": "DT_FLOAT"}, "value": {"tensor": {"dtype": "DT_FLOAT", "tensorShape": {"dim": [{"size": "3"}, {"size": "3"}, {"size": "64"}, {"size": "1"}]}}}}}, {"name": "model/separable_conv2d_1/separable_conv2d/ReadVariableOp", "op": "Const", "attr": {"value": {"tensor": {"dtype": "DT_FLOAT", "tensorShape": {"dim": [{"size": "3"}, {"size": "3"}, {"size": "64"}, {"size": "1"}]}}}, "dtype": {"type": "DT_FLOAT"}}}, {"name": "model/separable_conv2d_2/separable_conv2d/ReadVariableOp", "op": "Const", "attr": {"dtype": {"type": "DT_FLOAT"}, "value": {"tensor": {"dtype": "DT_FLOAT", "tensorShape": {"dim": [{"size": "3"}, {"size": "3"}, {"size": "64"}, {"size": "1"}]}}}}}, {"name": "model/re_lu_5/Relu6_mbox_conf_1/separable_conv2d/ReadVariableOp", "op": "Const", "attr": {"value": {"tensor": {"dtype": "DT_FLOAT", "tensorShape": {"dim": [{"size": "3"}, {"size": "3"}, {"size": "128"}, {"size": "1"}]}}}, "dtype": {"type": "DT_FLOAT"}}}, {"name": "model/re_lu_5/Relu6_mbox_conf_1/separable_conv2d/ReadVariableOp_1", "op": "Const", "attr": {"dtype": {"type": "DT_FLOAT"}, "value": {"tensor": {"dtype": "DT_FLOAT", "tensorShape": {"dim": [{"size": "1"}, {"size": "1"}, {"size": "128"}, {"size": "8"}]}}}}}, {"name": "model/re_lu_5/Relu6_mbox_conf_1/BiasAdd/ReadVariableOp", "op": "Const", "attr": {"value": {"tensor": {"dtype": "DT_FLOAT", "tensorShape": {"dim": [{"size": "8"}]}}}, "dtype": {"type": "DT_FLOAT"}}}, {"name": "model/re_lu_5/Relu6_mbox_conf_flat/Const", "op": "Const", "attr": {"dtype": {"type": "DT_INT32"}, "value": {"tensor": {"dtype": "DT_INT32", "tensorShape": {"dim": [{"size": "2"}]}}}}}, {"name": "model/mbox_conf/concat/axis", "op": "Const", "attr": {"value": {"tensor": {"dtype": "DT_INT32", "tensorShape": {}}}, "dtype": {"type": "DT_INT32"}}}, {"name": "model/mbox_conf_logits/strided_slice/stack", "op": "Const", "attr": {"value": {"tensor": {"dtype": "DT_INT32", "tensorShape": {"dim": [{"size": "1"}]}}}, "dtype": {"type": "DT_INT32"}}}, {"name": "model/mbox_conf_logits/strided_slice/stack_1", "op": "Const", "attr": {"value": {"tensor": {"dtype": "DT_INT32", "tensorShape": {"dim": [{"size": "1"}]}}}, "dtype": {"type": "DT_INT32"}}}, {"name": "model/mbox_conf_logits/strided_slice/stack_2", "op": "Const", "attr": {"value": {"tensor": {"dtype": "DT_INT32", "tensorShape": {"dim": [{"size": "1"}]}}}, "dtype": {"type": "DT_INT32"}}}, {"name": "model/mbox_conf_logits/Reshape/shape/1", "op": "Const", "attr": {"dtype": {"type": "DT_INT32"}, "value": {"tensor": {"dtype": "DT_INT32", "tensorShape": {}}}}}, {"name": "model/mbox_conf_logits/Reshape/shape/2", "op": "Const", "attr": {"value": {"tensor": {"dtype": "DT_INT32", "tensorShape": {}}}, "dtype": {"type": "DT_INT32"}}}, {"name": "model/predictions/concat/axis", "op": "Const", "attr": {"value": {"tensor": {"dtype": "DT_INT32", "tensorShape": {}}}, "dtype": {"type": "DT_INT32"}}}, {"name": "model/tf.__operators__.getitem/strided_slice/stack", "op": "Const", "attr": {"value": {"tensor": {"dtype": "DT_INT32", "tensorShape": {"dim": [{"size": "1"}]}}}, "dtype": {"type": "DT_INT32"}}}, {"name": "model/tf.__operators__.getitem/strided_slice/stack_1", "op": "Const", "attr": {"value": {"tensor": {"dtype": "DT_INT32", "tensorShape": {"dim": [{"size": "1"}]}}}, "dtype": {"type": "DT_INT32"}}}, {"name": "model/tf.__operators__.getitem/strided_slice/stack_2", "op": "Const", "attr": {"dtype": {"type": "DT_INT32"}, "value": {"tensor": {"dtype": "DT_INT32", "tensorShape": {"dim": [{"size": "1"}]}}}}}, {"name": "model/tf.__operators__.getitem_2/strided_slice/stack", "op": "Const", "attr": {"value": {"tensor": {"dtype": "DT_INT32", "tensorShape": {"dim": [{"size": "2"}]}}}, "dtype": {"type": "DT_INT32"}}}, {"name": "model/tf.__operators__.getitem_2/strided_slice/stack_1", "op": "Const", "attr": {"value": {"tensor": {"dtype": "DT_INT32", "tensorShape": {"dim": [{"size": "2"}]}}}, "dtype": {"type": "DT_INT32"}}}, {"name": "model/tf.__operators__.getitem_2/strided_slice/stack_2", "op": "Const", "attr": {"dtype": {"type": "DT_INT32"}, "value": {"tensor": {"dtype": "DT_INT32", "tensorShape": {"dim": [{"size": "2"}]}}}}}, {"name": "model/tf.__operators__.getitem_12/strided_slice/stack", "op": "Const", "attr": {"value": {"tensor": {"dtype": "DT_INT32", "tensorShape": {"dim": [{"size": "2"}]}}}, "dtype": {"type": "DT_INT32"}}}, {"name": "model/tf.__operators__.getitem_12/strided_slice/stack_1", "op": "Const", "attr": {"dtype": {"type": "DT_INT32"}, "value": {"tensor": {"dtype": "DT_INT32", "tensorShape": {"dim": [{"size": "2"}]}}}}}, {"name": "model/tf.__operators__.getitem_12/strided_slice/stack_2", "op": "Const", "attr": {"dtype": {"type": "DT_INT32"}, "value": {"tensor": {"dtype": "DT_INT32", "tensorShape": {"dim": [{"size": "2"}]}}}}}, {"name": "model/tf.reshape_3/Reshape/shape", "op": "Const", "attr": {"dtype": {"type": "DT_INT32"}, "value": {"tensor": {"dtype": "DT_INT32", "tensorShape": {"dim": [{"size": "1"}]}}}}}, {"name": "model/tf.math.greater/Greater/y", "op": "Const", "attr": {"value": {"tensor": {"dtype": "DT_FLOAT", "tensorShape": {}}}, "dtype": {"type": "DT_FLOAT"}}}, {"name": "model/tf.compat.v1.boolean_mask_1/boolean_mask/GatherV2/axis", "op": "Const", "attr": {"dtype": {"type": "DT_INT32"}, "value": {"tensor": {"dtype": "DT_INT32", "tensorShape": {}}}}}, {"name": "model/tf.image.non_max_suppression/non_max_suppression/NonMaxSuppressionV3/max_output_size", "op": "Const", "attr": {"dtype": {"type": "DT_INT32"}, "value": {"tensor": {"dtype": "DT_INT32", "tensorShape": {}}}}}, {"name": "model/tf.image.non_max_suppression/non_max_suppression/iou_threshold", "op": "Const", "attr": {"value": {"tensor": {"dtype": "DT_FLOAT", "tensorShape": {}}}, "dtype": {"type": "DT_FLOAT"}}}, {"name": "model/tf.image.non_max_suppression/non_max_suppression/score_threshold", "op": "Const", "attr": {"dtype": {"type": "DT_FLOAT"}, "value": {"tensor": {"dtype": "DT_FLOAT", "tensorShape": {}}}}}, {"name": "model/tf.compat.v1.gather_2/GatherV2/axis", "op": "Const", "attr": {"value": {"tensor": {"dtype": "DT_INT32", "tensorShape": {}}}, "dtype": {"type": "DT_INT32"}}}, {"name": "model/tf.expand_dims_1/ExpandDims/dim", "op": "Const", "attr": {"value": {"tensor": {"dtype": "DT_INT32", "tensorShape": {}}}, "dtype": {"type": "DT_INT32"}}}, {"name": "model/concatenate/concat/axis", "op": "Const", "attr": {"dtype": {"type": "DT_INT32"}, "value": {"tensor": {"dtype": "DT_INT32", "tensorShape": {}}}}}, {"name": "x", "op": "Placeholder", "attr": {"dtype": {"type": "DT_FLOAT"}, "shape": {"shape": {"dim": [{"size": "-1"}, {"size": "300"}, {"size": "300"}, {"size": "3"}]}}}}, {"name": "model/stem_conv/Conv2D_weights", "op": "Const", "attr": {"value": {"tensor": {"dtype": "DT_FLOAT", "tensorShape": {"dim": [{"size": "3"}, {"size": "3"}, {"size": "3"}, {"size": "32"}]}}}, "dtype": {"type": "DT_FLOAT"}}}, {"name": "model/separable_conv2d_2/separable_conv2d_bn_offset", "op": "Const", "attr": {"value": {"tensor": {"dtype": "DT_FLOAT", "tensorShape": {"dim": [{"size": "128"}]}}}, "dtype": {"type": "DT_FLOAT"}}}, {"name": "model/stem_conv/Conv2D_bn_offset", "op": "Const", "attr": {"value": {"tensor": {"dtype": "DT_FLOAT", "tensorShape": {"dim": [{"size": "32"}]}}}, "dtype": {"type": "DT_FLOAT"}}}, {"name": "model/block1a_dwconv/depthwise_weights", "op": "Const", "attr": {"dtype": {"type": "DT_FLOAT"}, "value": {"tensor": {"dtype": "DT_FLOAT", "tensorShape": {"dim": [{"size": "3"}, {"size": "3"}, {"size": "32"}, {"size": "1"}]}}}}}, {"name": "model/block1a_dwconv/depthwise_bn_offset", "op": "Const", "attr": {"value": {"tensor": {"dtype": "DT_FLOAT", "tensorShape": {"dim": [{"size": "32"}]}}}, "dtype": {"type": "DT_FLOAT"}}}, {"name": "model/block1a_project_conv/Conv2D_weights", "op": "Const", "attr": {"value": {"tensor": {"dtype": "DT_FLOAT", "tensorShape": {"dim": [{"size": "1"}, {"size": "1"}, {"size": "32"}, {"size": "16"}]}}}, "dtype": {"type": "DT_FLOAT"}}}, {"name": "model/block1a_project_conv/Conv2D_bn_offset", "op": "Const", "attr": {"value": {"tensor": {"dtype": "DT_FLOAT", "tensorShape": {"dim": [{"size": "16"}]}}}, "dtype": {"type": "DT_FLOAT"}}}, {"name": "model/block2a_expand_conv/Conv2D_weights", "op": "Const", "attr": {"value": {"tensor": {"dtype": "DT_FLOAT", "tensorShape": {"dim": [{"size": "1"}, {"size": "1"}, {"size": "16"}, {"size": "96"}]}}}, "dtype": {"type": "DT_FLOAT"}}}, {"name": "model/block2a_expand_conv/Conv2D_bn_offset", "op": "Const", "attr": {"dtype": {"type": "DT_FLOAT"}, "value": {"tensor": {"dtype": "DT_FLOAT", "tensorShape": {"dim": [{"size": "96"}]}}}}}, {"name": "model/block2a_dwconv/depthwise_weights", "op": "Const", "attr": {"dtype": {"type": "DT_FLOAT"}, "value": {"tensor": {"dtype": "DT_FLOAT", "tensorShape": {"dim": [{"size": "3"}, {"size": "3"}, {"size": "96"}, {"size": "1"}]}}}}}, {"name": "model/block2a_dwconv/depthwise_bn_offset", "op": "Const", "attr": {"value": {"tensor": {"dtype": "DT_FLOAT", "tensorShape": {"dim": [{"size": "96"}]}}}, "dtype": {"type": "DT_FLOAT"}}}, {"name": "model/block2a_project_conv/Conv2D_weights", "op": "Const", "attr": {"value": {"tensor": {"dtype": "DT_FLOAT", "tensorShape": {"dim": [{"size": "1"}, {"size": "1"}, {"size": "96"}, {"size": "24"}]}}}, "dtype": {"type": "DT_FLOAT"}}}, {"name": "model/block2a_project_conv/Conv2D_bn_offset", "op": "Const", "attr": {"value": {"tensor": {"dtype": "DT_FLOAT", "tensorShape": {"dim": [{"size": "24"}]}}}, "dtype": {"type": "DT_FLOAT"}}}, {"name": "model/block2b_expand_conv/Conv2D_weights", "op": "Const", "attr": {"value": {"tensor": {"dtype": "DT_FLOAT", "tensorShape": {"dim": [{"size": "1"}, {"size": "1"}, {"size": "24"}, {"size": "144"}]}}}, "dtype": {"type": "DT_FLOAT"}}}, {"name": "model/block2b_expand_conv/Conv2D_bn_offset", "op": "Const", "attr": {"value": {"tensor": {"dtype": "DT_FLOAT", "tensorShape": {"dim": [{"size": "144"}]}}}, "dtype": {"type": "DT_FLOAT"}}}, {"name": "model/block2b_dwconv/depthwise_weights", "op": "Const", "attr": {"dtype": {"type": "DT_FLOAT"}, "value": {"tensor": {"dtype": "DT_FLOAT", "tensorShape": {"dim": [{"size": "3"}, {"size": "3"}, {"size": "144"}, {"size": "1"}]}}}}}, {"name": "model/block2b_dwconv/depthwise_bn_offset", "op": "Const", "attr": {"dtype": {"type": "DT_FLOAT"}, "value": {"tensor": {"dtype": "DT_FLOAT", "tensorShape": {"dim": [{"size": "144"}]}}}}}, {"name": "model/block2b_project_conv/Conv2D_weights", "op": "Const", "attr": {"value": {"tensor": {"dtype": "DT_FLOAT", "tensorShape": {"dim": [{"size": "1"}, {"size": "1"}, {"size": "144"}, {"size": "24"}]}}}, "dtype": {"type": "DT_FLOAT"}}}, {"name": "model/block2b_project_conv/Conv2D_bn_offset", "op": "Const", "attr": {"dtype": {"type": "DT_FLOAT"}, "value": {"tensor": {"dtype": "DT_FLOAT", "tensorShape": {"dim": [{"size": "24"}]}}}}}, {"name": "model/block3a_expand_conv/Conv2D_weights", "op": "Const", "attr": {"dtype": {"type": "DT_FLOAT"}, "value": {"tensor": {"dtype": "DT_FLOAT", "tensorShape": {"dim": [{"size": "1"}, {"size": "1"}, {"size": "24"}, {"size": "144"}]}}}}}, {"name": "model/block3a_expand_conv/Conv2D_bn_offset", "op": "Const", "attr": {"value": {"tensor": {"dtype": "DT_FLOAT", "tensorShape": {"dim": [{"size": "144"}]}}}, "dtype": {"type": "DT_FLOAT"}}}, {"name": "model/block3a_dwconv/depthwise_weights", "op": "Const", "attr": {"dtype": {"type": "DT_FLOAT"}, "value": {"tensor": {"dtype": "DT_FLOAT", "tensorShape": {"dim": [{"size": "5"}, {"size": "5"}, {"size": "144"}, {"size": "1"}]}}}}}, {"name": "model/block3a_dwconv/depthwise_bn_offset", "op": "Const", "attr": {"dtype": {"type": "DT_FLOAT"}, "value": {"tensor": {"dtype": "DT_FLOAT", "tensorShape": {"dim": [{"size": "144"}]}}}}}, {"name": "model/block3a_project_conv/Conv2D_weights", "op": "Const", "attr": {"value": {"tensor": {"dtype": "DT_FLOAT", "tensorShape": {"dim": [{"size": "1"}, {"size": "1"}, {"size": "144"}, {"size": "40"}]}}}, "dtype": {"type": "DT_FLOAT"}}}, {"name": "model/block3a_project_conv/Conv2D_bn_offset", "op": "Const", "attr": {"value": {"tensor": {"dtype": "DT_FLOAT", "tensorShape": {"dim": [{"size": "40"}]}}}, "dtype": {"type": "DT_FLOAT"}}}, {"name": "model/block3b_expand_conv/Conv2D_weights", "op": "Const", "attr": {"dtype": {"type": "DT_FLOAT"}, "value": {"tensor": {"dtype": "DT_FLOAT", "tensorShape": {"dim": [{"size": "1"}, {"size": "1"}, {"size": "40"}, {"size": "240"}]}}}}}, {"name": "model/block3b_expand_conv/Conv2D_bn_offset", "op": "Const", "attr": {"dtype": {"type": "DT_FLOAT"}, "value": {"tensor": {"dtype": "DT_FLOAT", "tensorShape": {"dim": [{"size": "240"}]}}}}}, {"name": "model/block3b_dwconv/depthwise_weights", "op": "Const", "attr": {"value": {"tensor": {"dtype": "DT_FLOAT", "tensorShape": {"dim": [{"size": "5"}, {"size": "5"}, {"size": "240"}, {"size": "1"}]}}}, "dtype": {"type": "DT_FLOAT"}}}, {"name": "model/block3b_dwconv/depthwise_bn_offset", "op": "Const", "attr": {"value": {"tensor": {"dtype": "DT_FLOAT", "tensorShape": {"dim": [{"size": "240"}]}}}, "dtype": {"type": "DT_FLOAT"}}}, {"name": "model/block3b_project_conv/Conv2D_weights", "op": "Const", "attr": {"value": {"tensor": {"dtype": "DT_FLOAT", "tensorShape": {"dim": [{"size": "1"}, {"size": "1"}, {"size": "240"}, {"size": "40"}]}}}, "dtype": {"type": "DT_FLOAT"}}}, {"name": "model/block3b_project_conv/Conv2D_bn_offset", "op": "Const", "attr": {"dtype": {"type": "DT_FLOAT"}, "value": {"tensor": {"dtype": "DT_FLOAT", "tensorShape": {"dim": [{"size": "40"}]}}}}}, {"name": "model/block4a_expand_conv/Conv2D_weights", "op": "Const", "attr": {"value": {"tensor": {"dtype": "DT_FLOAT", "tensorShape": {"dim": [{"size": "1"}, {"size": "1"}, {"size": "40"}, {"size": "240"}]}}}, "dtype": {"type": "DT_FLOAT"}}}, {"name": "model/block4a_expand_conv/Conv2D_bn_offset", "op": "Const", "attr": {"value": {"tensor": {"dtype": "DT_FLOAT", "tensorShape": {"dim": [{"size": "240"}]}}}, "dtype": {"type": "DT_FLOAT"}}}, {"name": "model/block4a_dwconv/depthwise_weights", "op": "Const", "attr": {"dtype": {"type": "DT_FLOAT"}, "value": {"tensor": {"dtype": "DT_FLOAT", "tensorShape": {"dim": [{"size": "3"}, {"size": "3"}, {"size": "240"}, {"size": "1"}]}}}}}, {"name": "model/block4a_dwconv/depthwise_bn_offset", "op": "Const", "attr": {"dtype": {"type": "DT_FLOAT"}, "value": {"tensor": {"dtype": "DT_FLOAT", "tensorShape": {"dim": [{"size": "240"}]}}}}}, {"name": "model/block4a_project_conv/Conv2D_weights", "op": "Const", "attr": {"value": {"tensor": {"dtype": "DT_FLOAT", "tensorShape": {"dim": [{"size": "1"}, {"size": "1"}, {"size": "240"}, {"size": "80"}]}}}, "dtype": {"type": "DT_FLOAT"}}}, {"name": "model/block4a_project_conv/Conv2D_bn_offset", "op": "Const", "attr": {"value": {"tensor": {"dtype": "DT_FLOAT", "tensorShape": {"dim": [{"size": "80"}]}}}, "dtype": {"type": "DT_FLOAT"}}}, {"name": "model/block4b_expand_conv/Conv2D_weights", "op": "Const", "attr": {"value": {"tensor": {"dtype": "DT_FLOAT", "tensorShape": {"dim": [{"size": "1"}, {"size": "1"}, {"size": "80"}, {"size": "480"}]}}}, "dtype": {"type": "DT_FLOAT"}}}, {"name": "model/block4b_expand_conv/Conv2D_bn_offset", "op": "Const", "attr": {"value": {"tensor": {"dtype": "DT_FLOAT", "tensorShape": {"dim": [{"size": "480"}]}}}, "dtype": {"type": "DT_FLOAT"}}}, {"name": "model/block4b_dwconv/depthwise_weights", "op": "Const", "attr": {"value": {"tensor": {"dtype": "DT_FLOAT", "tensorShape": {"dim": [{"size": "3"}, {"size": "3"}, {"size": "480"}, {"size": "1"}]}}}, "dtype": {"type": "DT_FLOAT"}}}, {"name": "model/block4b_dwconv/depthwise_bn_offset", "op": "Const", "attr": {"dtype": {"type": "DT_FLOAT"}, "value": {"tensor": {"dtype": "DT_FLOAT", "tensorShape": {"dim": [{"size": "480"}]}}}}}, {"name": "model/block4b_project_conv/Conv2D_weights", "op": "Const", "attr": {"dtype": {"type": "DT_FLOAT"}, "value": {"tensor": {"dtype": "DT_FLOAT", "tensorShape": {"dim": [{"size": "1"}, {"size": "1"}, {"size": "480"}, {"size": "80"}]}}}}}, {"name": "model/block4b_project_conv/Conv2D_bn_offset", "op": "Const", "attr": {"value": {"tensor": {"dtype": "DT_FLOAT", "tensorShape": {"dim": [{"size": "80"}]}}}, "dtype": {"type": "DT_FLOAT"}}}, {"name": "model/block4c_expand_conv/Conv2D_weights", "op": "Const", "attr": {"value": {"tensor": {"dtype": "DT_FLOAT", "tensorShape": {"dim": [{"size": "1"}, {"size": "1"}, {"size": "80"}, {"size": "480"}]}}}, "dtype": {"type": "DT_FLOAT"}}}, {"name": "model/block4c_expand_conv/Conv2D_bn_offset", "op": "Const", "attr": {"dtype": {"type": "DT_FLOAT"}, "value": {"tensor": {"dtype": "DT_FLOAT", "tensorShape": {"dim": [{"size": "480"}]}}}}}, {"name": "model/block4c_dwconv/depthwise_weights", "op": "Const", "attr": {"value": {"tensor": {"dtype": "DT_FLOAT", "tensorShape": {"dim": [{"size": "3"}, {"size": "3"}, {"size": "480"}, {"size": "1"}]}}}, "dtype": {"type": "DT_FLOAT"}}}, {"name": "model/block4c_dwconv/depthwise_bn_offset", "op": "Const", "attr": {"dtype": {"type": "DT_FLOAT"}, "value": {"tensor": {"dtype": "DT_FLOAT", "tensorShape": {"dim": [{"size": "480"}]}}}}}, {"name": "model/block4c_project_conv/Conv2D_weights", "op": "Const", "attr": {"dtype": {"type": "DT_FLOAT"}, "value": {"tensor": {"dtype": "DT_FLOAT", "tensorShape": {"dim": [{"size": "1"}, {"size": "1"}, {"size": "480"}, {"size": "80"}]}}}}}, {"name": "model/block4c_project_conv/Conv2D_bn_offset", "op": "Const", "attr": {"dtype": {"type": "DT_FLOAT"}, "value": {"tensor": {"dtype": "DT_FLOAT", "tensorShape": {"dim": [{"size": "80"}]}}}}}, {"name": "model/block5a_expand_conv/Conv2D_weights", "op": "Const", "attr": {"value": {"tensor": {"dtype": "DT_FLOAT", "tensorShape": {"dim": [{"size": "1"}, {"size": "1"}, {"size": "80"}, {"size": "480"}]}}}, "dtype": {"type": "DT_FLOAT"}}}, {"name": "model/block5a_expand_conv/Conv2D_bn_offset", "op": "Const", "attr": {"dtype": {"type": "DT_FLOAT"}, "value": {"tensor": {"dtype": "DT_FLOAT", "tensorShape": {"dim": [{"size": "480"}]}}}}}, {"name": "model/block5a_dwconv/depthwise_weights", "op": "Const", "attr": {"value": {"tensor": {"dtype": "DT_FLOAT", "tensorShape": {"dim": [{"size": "5"}, {"size": "5"}, {"size": "480"}, {"size": "1"}]}}}, "dtype": {"type": "DT_FLOAT"}}}, {"name": "model/block5a_dwconv/depthwise_bn_offset", "op": "Const", "attr": {"value": {"tensor": {"dtype": "DT_FLOAT", "tensorShape": {"dim": [{"size": "480"}]}}}, "dtype": {"type": "DT_FLOAT"}}}, {"name": "model/block5a_project_conv/Conv2D_weights", "op": "Const", "attr": {"value": {"tensor": {"dtype": "DT_FLOAT", "tensorShape": {"dim": [{"size": "1"}, {"size": "1"}, {"size": "480"}, {"size": "112"}]}}}, "dtype": {"type": "DT_FLOAT"}}}, {"name": "model/block5a_project_conv/Conv2D_bn_offset", "op": "Const", "attr": {"dtype": {"type": "DT_FLOAT"}, "value": {"tensor": {"dtype": "DT_FLOAT", "tensorShape": {"dim": [{"size": "112"}]}}}}}, {"name": "model/block5b_expand_conv/Conv2D_weights", "op": "Const", "attr": {"dtype": {"type": "DT_FLOAT"}, "value": {"tensor": {"dtype": "DT_FLOAT", "tensorShape": {"dim": [{"size": "1"}, {"size": "1"}, {"size": "112"}, {"size": "672"}]}}}}}, {"name": "model/block5b_expand_conv/Conv2D_bn_offset", "op": "Const", "attr": {"dtype": {"type": "DT_FLOAT"}, "value": {"tensor": {"dtype": "DT_FLOAT", "tensorShape": {"dim": [{"size": "672"}]}}}}}, {"name": "model/block5b_dwconv/depthwise_weights", "op": "Const", "attr": {"dtype": {"type": "DT_FLOAT"}, "value": {"tensor": {"dtype": "DT_FLOAT", "tensorShape": {"dim": [{"size": "5"}, {"size": "5"}, {"size": "672"}, {"size": "1"}]}}}}}, {"name": "model/block5b_dwconv/depthwise_bn_offset", "op": "Const", "attr": {"value": {"tensor": {"dtype": "DT_FLOAT", "tensorShape": {"dim": [{"size": "672"}]}}}, "dtype": {"type": "DT_FLOAT"}}}, {"name": "model/block5b_project_conv/Conv2D_weights", "op": "Const", "attr": {"value": {"tensor": {"dtype": "DT_FLOAT", "tensorShape": {"dim": [{"size": "1"}, {"size": "1"}, {"size": "672"}, {"size": "112"}]}}}, "dtype": {"type": "DT_FLOAT"}}}, {"name": "model/block5b_project_conv/Conv2D_bn_offset", "op": "Const", "attr": {"dtype": {"type": "DT_FLOAT"}, "value": {"tensor": {"dtype": "DT_FLOAT", "tensorShape": {"dim": [{"size": "112"}]}}}}}, {"name": "model/block5c_expand_conv/Conv2D_weights", "op": "Const", "attr": {"dtype": {"type": "DT_FLOAT"}, "value": {"tensor": {"dtype": "DT_FLOAT", "tensorShape": {"dim": [{"size": "1"}, {"size": "1"}, {"size": "112"}, {"size": "672"}]}}}}}, {"name": "model/block5c_expand_conv/Conv2D_bn_offset", "op": "Const", "attr": {"dtype": {"type": "DT_FLOAT"}, "value": {"tensor": {"dtype": "DT_FLOAT", "tensorShape": {"dim": [{"size": "672"}]}}}}}, {"name": "model/block5c_dwconv/depthwise_weights", "op": "Const", "attr": {"dtype": {"type": "DT_FLOAT"}, "value": {"tensor": {"dtype": "DT_FLOAT", "tensorShape": {"dim": [{"size": "5"}, {"size": "5"}, {"size": "672"}, {"size": "1"}]}}}}}, {"name": "model/block5c_dwconv/depthwise_bn_offset", "op": "Const", "attr": {"value": {"tensor": {"dtype": "DT_FLOAT", "tensorShape": {"dim": [{"size": "672"}]}}}, "dtype": {"type": "DT_FLOAT"}}}, {"name": "model/block5c_project_conv/Conv2D_weights", "op": "Const", "attr": {"dtype": {"type": "DT_FLOAT"}, "value": {"tensor": {"dtype": "DT_FLOAT", "tensorShape": {"dim": [{"size": "1"}, {"size": "1"}, {"size": "672"}, {"size": "112"}]}}}}}, {"name": "model/block5c_project_conv/Conv2D_bn_offset", "op": "Const", "attr": {"dtype": {"type": "DT_FLOAT"}, "value": {"tensor": {"dtype": "DT_FLOAT", "tensorShape": {"dim": [{"size": "112"}]}}}}}, {"name": "model/block6a_expand_conv/Conv2D_weights", "op": "Const", "attr": {"value": {"tensor": {"dtype": "DT_FLOAT", "tensorShape": {"dim": [{"size": "1"}, {"size": "1"}, {"size": "112"}, {"size": "672"}]}}}, "dtype": {"type": "DT_FLOAT"}}}, {"name": "model/block6a_expand_conv/Conv2D_bn_offset", "op": "Const", "attr": {"value": {"tensor": {"dtype": "DT_FLOAT", "tensorShape": {"dim": [{"size": "672"}]}}}, "dtype": {"type": "DT_FLOAT"}}}, {"name": "model/block6a_dwconv/depthwise_weights", "op": "Const", "attr": {"value": {"tensor": {"dtype": "DT_FLOAT", "tensorShape": {"dim": [{"size": "5"}, {"size": "5"}, {"size": "672"}, {"size": "1"}]}}}, "dtype": {"type": "DT_FLOAT"}}}, {"name": "model/block6a_dwconv/depthwise_bn_offset", "op": "Const", "attr": {"dtype": {"type": "DT_FLOAT"}, "value": {"tensor": {"dtype": "DT_FLOAT", "tensorShape": {"dim": [{"size": "672"}]}}}}}, {"name": "model/block6a_project_conv/Conv2D_weights", "op": "Const", "attr": {"value": {"tensor": {"dtype": "DT_FLOAT", "tensorShape": {"dim": [{"size": "1"}, {"size": "1"}, {"size": "672"}, {"size": "192"}]}}}, "dtype": {"type": "DT_FLOAT"}}}, {"name": "model/block6a_project_conv/Conv2D_bn_offset", "op": "Const", "attr": {"value": {"tensor": {"dtype": "DT_FLOAT", "tensorShape": {"dim": [{"size": "192"}]}}}, "dtype": {"type": "DT_FLOAT"}}}, {"name": "model/block6b_expand_conv/Conv2D_weights", "op": "Const", "attr": {"value": {"tensor": {"dtype": "DT_FLOAT", "tensorShape": {"dim": [{"size": "1"}, {"size": "1"}, {"size": "192"}, {"size": "1152"}]}}}, "dtype": {"type": "DT_FLOAT"}}}, {"name": "model/block6b_expand_conv/Conv2D_bn_offset", "op": "Const", "attr": {"value": {"tensor": {"dtype": "DT_FLOAT", "tensorShape": {"dim": [{"size": "1152"}]}}}, "dtype": {"type": "DT_FLOAT"}}}, {"name": "model/block6b_dwconv/depthwise_weights", "op": "Const", "attr": {"value": {"tensor": {"dtype": "DT_FLOAT", "tensorShape": {"dim": [{"size": "5"}, {"size": "5"}, {"size": "1152"}, {"size": "1"}]}}}, "dtype": {"type": "DT_FLOAT"}}}, {"name": "model/block6b_dwconv/depthwise_bn_offset", "op": "Const", "attr": {"dtype": {"type": "DT_FLOAT"}, "value": {"tensor": {"dtype": "DT_FLOAT", "tensorShape": {"dim": [{"size": "1152"}]}}}}}, {"name": "model/block6b_project_conv/Conv2D_weights", "op": "Const", "attr": {"dtype": {"type": "DT_FLOAT"}, "value": {"tensor": {"dtype": "DT_FLOAT", "tensorShape": {"dim": [{"size": "1"}, {"size": "1"}, {"size": "1152"}, {"size": "192"}]}}}}}, {"name": "model/block6b_project_conv/Conv2D_bn_offset", "op": "Const", "attr": {"dtype": {"type": "DT_FLOAT"}, "value": {"tensor": {"dtype": "DT_FLOAT", "tensorShape": {"dim": [{"size": "192"}]}}}}}, {"name": "model/block6c_expand_conv/Conv2D_weights", "op": "Const", "attr": {"value": {"tensor": {"dtype": "DT_FLOAT", "tensorShape": {"dim": [{"size": "1"}, {"size": "1"}, {"size": "192"}, {"size": "1152"}]}}}, "dtype": {"type": "DT_FLOAT"}}}, {"name": "model/block6c_expand_conv/Conv2D_bn_offset", "op": "Const", "attr": {"value": {"tensor": {"dtype": "DT_FLOAT", "tensorShape": {"dim": [{"size": "1152"}]}}}, "dtype": {"type": "DT_FLOAT"}}}, {"name": "model/block6c_dwconv/depthwise_weights", "op": "Const", "attr": {"value": {"tensor": {"dtype": "DT_FLOAT", "tensorShape": {"dim": [{"size": "5"}, {"size": "5"}, {"size": "1152"}, {"size": "1"}]}}}, "dtype": {"type": "DT_FLOAT"}}}, {"name": "model/block6c_dwconv/depthwise_bn_offset", "op": "Const", "attr": {"value": {"tensor": {"dtype": "DT_FLOAT", "tensorShape": {"dim": [{"size": "1152"}]}}}, "dtype": {"type": "DT_FLOAT"}}}, {"name": "model/block6c_project_conv/Conv2D_weights", "op": "Const", "attr": {"dtype": {"type": "DT_FLOAT"}, "value": {"tensor": {"dtype": "DT_FLOAT", "tensorShape": {"dim": [{"size": "1"}, {"size": "1"}, {"size": "1152"}, {"size": "192"}]}}}}}, {"name": "model/block6c_project_conv/Conv2D_bn_offset", "op": "Const", "attr": {"dtype": {"type": "DT_FLOAT"}, "value": {"tensor": {"dtype": "DT_FLOAT", "tensorShape": {"dim": [{"size": "192"}]}}}}}, {"name": "model/block6d_expand_conv/Conv2D_weights", "op": "Const", "attr": {"dtype": {"type": "DT_FLOAT"}, "value": {"tensor": {"dtype": "DT_FLOAT", "tensorShape": {"dim": [{"size": "1"}, {"size": "1"}, {"size": "192"}, {"size": "1152"}]}}}}}, {"name": "model/block6d_expand_conv/Conv2D_bn_offset", "op": "Const", "attr": {"value": {"tensor": {"dtype": "DT_FLOAT", "tensorShape": {"dim": [{"size": "1152"}]}}}, "dtype": {"type": "DT_FLOAT"}}}, {"name": "model/block6d_dwconv/depthwise_weights", "op": "Const", "attr": {"dtype": {"type": "DT_FLOAT"}, "value": {"tensor": {"dtype": "DT_FLOAT", "tensorShape": {"dim": [{"size": "5"}, {"size": "5"}, {"size": "1152"}, {"size": "1"}]}}}}}, {"name": "model/block6d_dwconv/depthwise_bn_offset", "op": "Const", "attr": {"value": {"tensor": {"dtype": "DT_FLOAT", "tensorShape": {"dim": [{"size": "1152"}]}}}, "dtype": {"type": "DT_FLOAT"}}}, {"name": "model/block6d_project_conv/Conv2D_weights", "op": "Const", "attr": {"dtype": {"type": "DT_FLOAT"}, "value": {"tensor": {"dtype": "DT_FLOAT", "tensorShape": {"dim": [{"size": "1"}, {"size": "1"}, {"size": "1152"}, {"size": "192"}]}}}}}, {"name": "model/block6d_project_conv/Conv2D_bn_offset", "op": "Const", "attr": {"value": {"tensor": {"dtype": "DT_FLOAT", "tensorShape": {"dim": [{"size": "192"}]}}}, "dtype": {"type": "DT_FLOAT"}}}, {"name": "model/block7a_expand_conv/Conv2D_weights", "op": "Const", "attr": {"dtype": {"type": "DT_FLOAT"}, "value": {"tensor": {"dtype": "DT_FLOAT", "tensorShape": {"dim": [{"size": "1"}, {"size": "1"}, {"size": "192"}, {"size": "1152"}]}}}}}, {"name": "model/block7a_expand_conv/Conv2D_bn_offset", "op": "Const", "attr": {"value": {"tensor": {"dtype": "DT_FLOAT", "tensorShape": {"dim": [{"size": "1152"}]}}}, "dtype": {"type": "DT_FLOAT"}}}, {"name": "model/block7a_dwconv/depthwise_weights", "op": "Const", "attr": {"value": {"tensor": {"dtype": "DT_FLOAT", "tensorShape": {"dim": [{"size": "3"}, {"size": "3"}, {"size": "1152"}, {"size": "1"}]}}}, "dtype": {"type": "DT_FLOAT"}}}, {"name": "model/block7a_dwconv/depthwise_bn_offset", "op": "Const", "attr": {"value": {"tensor": {"dtype": "DT_FLOAT", "tensorShape": {"dim": [{"size": "1152"}]}}}, "dtype": {"type": "DT_FLOAT"}}}, {"name": "model/block7a_project_conv/Conv2D_weights", "op": "Const", "attr": {"value": {"tensor": {"dtype": "DT_FLOAT", "tensorShape": {"dim": [{"size": "1"}, {"size": "1"}, {"size": "1152"}, {"size": "320"}]}}}, "dtype": {"type": "DT_FLOAT"}}}, {"name": "model/block7a_project_conv/Conv2D_bn_offset", "op": "Const", "attr": {"dtype": {"type": "DT_FLOAT"}, "value": {"tensor": {"dtype": "DT_FLOAT", "tensorShape": {"dim": [{"size": "320"}]}}}}}, {"name": "model/conv2d/Conv2D_weights", "op": "Const", "attr": {"dtype": {"type": "DT_FLOAT"}, "value": {"tensor": {"dtype": "DT_FLOAT", "tensorShape": {"dim": [{"size": "1"}, {"size": "1"}, {"size": "320"}, {"size": "64"}]}}}}}, {"name": "model/conv2d/Conv2D_bn_offset", "op": "Const", "attr": {"value": {"tensor": {"dtype": "DT_FLOAT", "tensorShape": {"dim": [{"size": "64"}]}}}, "dtype": {"type": "DT_FLOAT"}}}, {"name": "model/separable_conv2d/separable_conv2d_weights", "op": "Const", "attr": {"value": {"tensor": {"dtype": "DT_FLOAT", "tensorShape": {"dim": [{"size": "1"}, {"size": "1"}, {"size": "64"}, {"size": "128"}]}}}, "dtype": {"type": "DT_FLOAT"}}}, {"name": "model/separable_conv2d/separable_conv2d_bn_offset", "op": "Const", "attr": {"dtype": {"type": "DT_FLOAT"}, "value": {"tensor": {"dtype": "DT_FLOAT", "tensorShape": {"dim": [{"size": "128"}]}}}}}, {"name": "model/conv2d_1/Conv2D_weights", "op": "Const", "attr": {"dtype": {"type": "DT_FLOAT"}, "value": {"tensor": {"dtype": "DT_FLOAT", "tensorShape": {"dim": [{"size": "1"}, {"size": "1"}, {"size": "128"}, {"size": "64"}]}}}}}, {"name": "model/conv2d_1/Conv2D_bn_offset", "op": "Const", "attr": {"value": {"tensor": {"dtype": "DT_FLOAT", "tensorShape": {"dim": [{"size": "64"}]}}}, "dtype": {"type": "DT_FLOAT"}}}, {"name": "model/separable_conv2d_1/separable_conv2d_weights", "op": "Const", "attr": {"value": {"tensor": {"dtype": "DT_FLOAT", "tensorShape": {"dim": [{"size": "1"}, {"size": "1"}, {"size": "64"}, {"size": "128"}]}}}, "dtype": {"type": "DT_FLOAT"}}}, {"name": "model/separable_conv2d_1/separable_conv2d_bn_offset", "op": "Const", "attr": {"value": {"tensor": {"dtype": "DT_FLOAT", "tensorShape": {"dim": [{"size": "128"}]}}}, "dtype": {"type": "DT_FLOAT"}}}, {"name": "model/conv2d_2/Conv2D_weights", "op": "Const", "attr": {"value": {"tensor": {"dtype": "DT_FLOAT", "tensorShape": {"dim": [{"size": "1"}, {"size": "1"}, {"size": "128"}, {"size": "64"}]}}}, "dtype": {"type": "DT_FLOAT"}}}, {"name": "model/conv2d_2/Conv2D_bn_offset", "op": "Const", "attr": {"dtype": {"type": "DT_FLOAT"}, "value": {"tensor": {"dtype": "DT_FLOAT", "tensorShape": {"dim": [{"size": "64"}]}}}}}, {"name": "model/separable_conv2d_2/separable_conv2d_weights", "op": "Const", "attr": {"dtype": {"type": "DT_FLOAT"}, "value": {"tensor": {"dtype": "DT_FLOAT", "tensorShape": {"dim": [{"size": "1"}, {"size": "1"}, {"size": "64"}, {"size": "128"}]}}}}}, {"name": "model/stem_conv_pad/Pad", "op": "Pad", "input": ["x", "model/stem_conv_pad/Pad/paddings"], "attr": {"T": {"type": "DT_FLOAT"}, "Tpaddings": {"type": "DT_INT32"}}}, {"name": "model/stem_activation/Relu6", "op": "_FusedConv2D", "input": ["model/stem_conv_pad/Pad", "model/stem_conv/Conv2D_weights", "model/stem_conv/Conv2D_bn_offset"], "device": "/device:CPU:0", "attr": {"T": {"type": "DT_FLOAT"}, "strides": {"list": {"i": ["1", "2", "2", "1"]}}, "num_args": {"i": "1"}, "dilations": {"list": {"i": ["1", "1", "1", "1"]}}, "data_format": {"s": "TkhXQw=="}, "explicit_paddings": {"list": {}}, "fused_ops": {"list": {"s": ["Qmlhc0FkZA==", "UmVsdTY="]}}, "use_cudnn_on_gpu": {"b": true}, "epsilon": {"f": 0.0}, "padding": {"s": "VkFMSUQ="}}}, {"name": "model/block1a_dwconv/depthwise", "op": "FusedDepthwiseConv2dNative", "input": ["model/stem_activation/Relu6", "model/block1a_dwconv/depthwise_weights", "model/block1a_dwconv/depthwise_bn_offset"], "attr": {"num_args": {"i": "1"}, "data_format": {"s": "TkhXQw=="}, "dilations": {"list": {"i": ["1", "1", "1", "1"]}}, "explicit_paddings": {"list": {}}, "fused_ops": {"list": {"s": ["Qmlhc0FkZA==", "UmVsdTY="]}}, "T": {"type": "DT_FLOAT"}, "padding": {"s": "U0FNRQ=="}, "strides": {"list": {"i": ["1", "1", "1", "1"]}}}}, {"name": "model/block1a_project_bn/FusedBatchNormV3", "op": "_FusedConv2D", "input": ["model/block1a_dwconv/depthwise", "model/block1a_project_conv/Conv2D_weights", "model/block1a_project_conv/Conv2D_bn_offset"], "device": "/device:CPU:0", "attr": {"strides": {"list": {"i": ["1", "1", "1", "1"]}}, "data_format": {"s": "TkhXQw=="}, "padding": {"s": "U0FNRQ=="}, "epsilon": {"f": 0.0}, "T": {"type": "DT_FLOAT"}, "fused_ops": {"list": {"s": ["Qmlhc0FkZA=="]}}, "num_args": {"i": "1"}, "dilations": {"list": {"i": ["1", "1", "1", "1"]}}, "use_cudnn_on_gpu": {"b": true}, "explicit_paddings": {"list": {}}}}, {"name": "model/block2a_expand_activation/Relu6", "op": "_FusedConv2D", "input": ["model/block1a_project_bn/FusedBatchNormV3", "model/block2a_expand_conv/Conv2D_weights", "model/block2a_expand_conv/Conv2D_bn_offset"], "device": "/device:CPU:0", "attr": {"data_format": {"s": "TkhXQw=="}, "num_args": {"i": "1"}, "use_cudnn_on_gpu": {"b": true}, "fused_ops": {"list": {"s": ["Qmlhc0FkZA==", "UmVsdTY="]}}, "epsilon": {"f": 0.0}, "strides": {"list": {"i": ["1", "1", "1", "1"]}}, "dilations": {"list": {"i": ["1", "1", "1", "1"]}}, "padding": {"s": "U0FNRQ=="}, "T": {"type": "DT_FLOAT"}, "explicit_paddings": {"list": {}}}}, {"name": "model/block2a_dwconv_pad/Pad", "op": "Pad", "input": ["model/block2a_expand_activation/Relu6", "model/block2a_dwconv_pad/Pad/paddings"], "attr": {"Tpaddings": {"type": "DT_INT32"}, "T": {"type": "DT_FLOAT"}}}, {"name": "model/block2a_dwconv/depthwise", "op": "FusedDepthwiseConv2dNative", "input": ["model/block2a_dwconv_pad/Pad", "model/block2a_dwconv/depthwise_weights", "model/block2a_dwconv/depthwise_bn_offset"], "attr": {"explicit_paddings": {"list": {}}, "T": {"type": "DT_FLOAT"}, "dilations": {"list": {"i": ["1", "1", "1", "1"]}}, "fused_ops": {"list": {"s": ["Qmlhc0FkZA==", "UmVsdTY="]}}, "data_format": {"s": "TkhXQw=="}, "strides": {"list": {"i": ["1", "2", "2", "1"]}}, "padding": {"s": "VkFMSUQ="}, "num_args": {"i": "1"}}}, {"name": "model/block2a_project_bn/FusedBatchNormV3", "op": "_FusedConv2D", "input": ["model/block2a_dwconv/depthwise", "model/block2a_project_conv/Conv2D_weights", "model/block2a_project_conv/Conv2D_bn_offset"], "device": "/device:CPU:0", "attr": {"data_format": {"s": "TkhXQw=="}, "T": {"type": "DT_FLOAT"}, "strides": {"list": {"i": ["1", "1", "1", "1"]}}, "explicit_paddings": {"list": {}}, "padding": {"s": "U0FNRQ=="}, "dilations": {"list": {"i": ["1", "1", "1", "1"]}}, "num_args": {"i": "1"}, "fused_ops": {"list": {"s": ["Qmlhc0FkZA=="]}}, "epsilon": {"f": 0.0}, "use_cudnn_on_gpu": {"b": true}}}, {"name": "model/block2b_expand_activation/Relu6", "op": "_FusedConv2D", "input": ["model/block2a_project_bn/FusedBatchNormV3", "model/block2b_expand_conv/Conv2D_weights", "model/block2b_expand_conv/Conv2D_bn_offset"], "device": "/device:CPU:0", "attr": {"epsilon": {"f": 0.0}, "dilations": {"list": {"i": ["1", "1", "1", "1"]}}, "T": {"type": "DT_FLOAT"}, "padding": {"s": "U0FNRQ=="}, "explicit_paddings": {"list": {}}, "strides": {"list": {"i": ["1", "1", "1", "1"]}}, "data_format": {"s": "TkhXQw=="}, "num_args": {"i": "1"}, "fused_ops": {"list": {"s": ["Qmlhc0FkZA==", "UmVsdTY="]}}, "use_cudnn_on_gpu": {"b": true}}}, {"name": "model/block2b_dwconv/depthwise", "op": "FusedDepthwiseConv2dNative", "input": ["model/block2b_expand_activation/Relu6", "model/block2b_dwconv/depthwise_weights", "model/block2b_dwconv/depthwise_bn_offset"], "attr": {"dilations": {"list": {"i": ["1", "1", "1", "1"]}}, "explicit_paddings": {"list": {}}, "data_format": {"s": "TkhXQw=="}, "T": {"type": "DT_FLOAT"}, "num_args": {"i": "1"}, "padding": {"s": "U0FNRQ=="}, "fused_ops": {"list": {"s": ["Qmlhc0FkZA==", "UmVsdTY="]}}, "strides": {"list": {"i": ["1", "1", "1", "1"]}}}}, {"name": "model/block2b_project_bn/FusedBatchNormV3", "op": "_FusedConv2D", "input": ["model/block2b_dwconv/depthwise", "model/block2b_project_conv/Conv2D_weights", "model/block2b_project_conv/Conv2D_bn_offset"], "device": "/device:CPU:0", "attr": {"dilations": {"list": {"i": ["1", "1", "1", "1"]}}, "fused_ops": {"list": {"s": ["Qmlhc0FkZA=="]}}, "data_format": {"s": "TkhXQw=="}, "strides": {"list": {"i": ["1", "1", "1", "1"]}}, "epsilon": {"f": 0.0}, "use_cudnn_on_gpu": {"b": true}, "explicit_paddings": {"list": {}}, "num_args": {"i": "1"}, "padding": {"s": "U0FNRQ=="}, "T": {"type": "DT_FLOAT"}}}, {"name": "model/block2b_add/add", "op": "AddV2", "input": ["model/block2b_project_bn/FusedBatchNormV3", "model/block2a_project_bn/FusedBatchNormV3"], "attr": {"T": {"type": "DT_FLOAT"}}}, {"name": "model/block3a_expand_activation/Relu6", "op": "_FusedConv2D", "input": ["model/block2b_add/add", "model/block3a_expand_conv/Conv2D_weights", "model/block3a_expand_conv/Conv2D_bn_offset"], "device": "/device:CPU:0", "attr": {"num_args": {"i": "1"}, "epsilon": {"f": 0.0}, "data_format": {"s": "TkhXQw=="}, "explicit_paddings": {"list": {}}, "dilations": {"list": {"i": ["1", "1", "1", "1"]}}, "padding": {"s": "U0FNRQ=="}, "strides": {"list": {"i": ["1", "1", "1", "1"]}}, "T": {"type": "DT_FLOAT"}, "use_cudnn_on_gpu": {"b": true}, "fused_ops": {"list": {"s": ["Qmlhc0FkZA==", "UmVsdTY="]}}}}, {"name": "model/block3a_dwconv_pad/Pad", "op": "Pad", "input": ["model/block3a_expand_activation/Relu6", "model/block3a_dwconv_pad/Pad/paddings"], "attr": {"Tpaddings": {"type": "DT_INT32"}, "T": {"type": "DT_FLOAT"}}}, {"name": "model/block3a_dwconv/depthwise", "op": "FusedDepthwiseConv2dNative", "input": ["model/block3a_dwconv_pad/Pad", "model/block3a_dwconv/depthwise_weights", "model/block3a_dwconv/depthwise_bn_offset"], "attr": {"explicit_paddings": {"list": {}}, "data_format": {"s": "TkhXQw=="}, "T": {"type": "DT_FLOAT"}, "num_args": {"i": "1"}, "dilations": {"list": {"i": ["1", "1", "1", "1"]}}, "fused_ops": {"list": {"s": ["Qmlhc0FkZA==", "UmVsdTY="]}}, "strides": {"list": {"i": ["1", "2", "2", "1"]}}, "padding": {"s": "VkFMSUQ="}}}, {"name": "model/block3a_project_bn/FusedBatchNormV3", "op": "_FusedConv2D", "input": ["model/block3a_dwconv/depthwise", "model/block3a_project_conv/Conv2D_weights", "model/block3a_project_conv/Conv2D_bn_offset"], "device": "/device:CPU:0", "attr": {"explicit_paddings": {"list": {}}, "num_args": {"i": "1"}, "data_format": {"s": "TkhXQw=="}, "use_cudnn_on_gpu": {"b": true}, "fused_ops": {"list": {"s": ["Qmlhc0FkZA=="]}}, "strides": {"list": {"i": ["1", "1", "1", "1"]}}, "epsilon": {"f": 0.0}, "dilations": {"list": {"i": ["1", "1", "1", "1"]}}, "padding": {"s": "U0FNRQ=="}, "T": {"type": "DT_FLOAT"}}}, {"name": "model/block3b_expand_activation/Relu6", "op": "_FusedConv2D", "input": ["model/block3a_project_bn/FusedBatchNormV3", "model/block3b_expand_conv/Conv2D_weights", "model/block3b_expand_conv/Conv2D_bn_offset"], "device": "/device:CPU:0", "attr": {"num_args": {"i": "1"}, "explicit_paddings": {"list": {}}, "T": {"type": "DT_FLOAT"}, "data_format": {"s": "TkhXQw=="}, "epsilon": {"f": 0.0}, "fused_ops": {"list": {"s": ["Qmlhc0FkZA==", "UmVsdTY="]}}, "padding": {"s": "U0FNRQ=="}, "use_cudnn_on_gpu": {"b": true}, "dilations": {"list": {"i": ["1", "1", "1", "1"]}}, "strides": {"list": {"i": ["1", "1", "1", "1"]}}}}, {"name": "model/block3b_dwconv/depthwise", "op": "FusedDepthwiseConv2dNative", "input": ["model/block3b_expand_activation/Relu6", "model/block3b_dwconv/depthwise_weights", "model/block3b_dwconv/depthwise_bn_offset"], "attr": {"explicit_paddings": {"list": {}}, "num_args": {"i": "1"}, "data_format": {"s": "TkhXQw=="}, "padding": {"s": "U0FNRQ=="}, "T": {"type": "DT_FLOAT"}, "strides": {"list": {"i": ["1", "1", "1", "1"]}}, "dilations": {"list": {"i": ["1", "1", "1", "1"]}}, "fused_ops": {"list": {"s": ["Qmlhc0FkZA==", "UmVsdTY="]}}}}, {"name": "model/block3b_project_bn/FusedBatchNormV3", "op": "_FusedConv2D", "input": ["model/block3b_dwconv/depthwise", "model/block3b_project_conv/Conv2D_weights", "model/block3b_project_conv/Conv2D_bn_offset"], "device": "/device:CPU:0", "attr": {"strides": {"list": {"i": ["1", "1", "1", "1"]}}, "dilations": {"list": {"i": ["1", "1", "1", "1"]}}, "explicit_paddings": {"list": {}}, "num_args": {"i": "1"}, "use_cudnn_on_gpu": {"b": true}, "data_format": {"s": "TkhXQw=="}, "fused_ops": {"list": {"s": ["Qmlhc0FkZA=="]}}, "padding": {"s": "U0FNRQ=="}, "T": {"type": "DT_FLOAT"}, "epsilon": {"f": 0.0}}}, {"name": "model/block3b_add/add", "op": "AddV2", "input": ["model/block3b_project_bn/FusedBatchNormV3", "model/block3a_project_bn/FusedBatchNormV3"], "attr": {"T": {"type": "DT_FLOAT"}}}, {"name": "model/block3b_add/add_mbox_loc_1/separable_conv2d/depthwise", "op": "DepthwiseConv2dNative", "input": ["model/block3b_add/add", "model/block3b_add/add_mbox_loc_1/separable_conv2d/ReadVariableOp"], "attr": {"padding": {"s": "U0FNRQ=="}, "explicit_paddings": {"list": {}}, "T": {"type": "DT_FLOAT"}, "dilations": {"list": {"i": ["1", "1", "1", "1"]}}, "strides": {"list": {"i": ["1", "1", "1", "1"]}}, "data_format": {"s": "TkhXQw=="}}}, {"name": "model/block3b_add/add_mbox_conf_1/separable_conv2d/depthwise", "op": "DepthwiseConv2dNative", "input": ["model/block3b_add/add", "model/block3b_add/add_mbox_conf_1/separable_conv2d/ReadVariableOp"], "attr": {"T": {"type": "DT_FLOAT"}, "explicit_paddings": {"list": {}}, "data_format": {"s": "TkhXQw=="}, "strides": {"list": {"i": ["1", "1", "1", "1"]}}, "dilations": {"list": {"i": ["1", "1", "1", "1"]}}, "padding": {"s": "U0FNRQ=="}}}, {"name": "model/block4a_expand_activation/Relu6", "op": "_FusedConv2D", "input": ["model/block3b_add/add", "model/block4a_expand_conv/Conv2D_weights", "model/block4a_expand_conv/Conv2D_bn_offset"], "device": "/device:CPU:0", "attr": {"fused_ops": {"list": {"s": ["Qmlhc0FkZA==", "UmVsdTY="]}}, "data_format": {"s": "TkhXQw=="}, "explicit_paddings": {"list": {}}, "num_args": {"i": "1"}, "use_cudnn_on_gpu": {"b": true}, "epsilon": {"f": 0.0}, "padding": {"s": "U0FNRQ=="}, "strides": {"list": {"i": ["1", "1", "1", "1"]}}, "T": {"type": "DT_FLOAT"}, "dilations": {"list": {"i": ["1", "1", "1", "1"]}}}}, {"name": "model/block3b_add/add_mbox_loc_1/BiasAdd", "op": "_FusedConv2D", "input": ["model/block3b_add/add_mbox_loc_1/separable_conv2d/depthwise", "model/block3b_add/add_mbox_loc_1/separable_conv2d/ReadVariableOp_1", "model/block3b_add/add_mbox_loc_1/BiasAdd/ReadVariableOp"], "device": "/device:CPU:0", "attr": {"fused_ops": {"list": {"s": ["Qmlhc0FkZA=="]}}, "T": {"type": "DT_FLOAT"}, "data_format": {"s": "TkhXQw=="}, "strides": {"list": {"i": ["1", "1", "1", "1"]}}, "dilations": {"list": {"i": ["1", "1", "1", "1"]}}, "padding": {"s": "VkFMSUQ="}, "explicit_paddings": {"list": {}}, "epsilon": {"f": 0.0}, "use_cudnn_on_gpu": {"b": true}, "num_args": {"i": "1"}}}, {"name": "model/block3b_add/add_mbox_conf_1/BiasAdd", "op": "_FusedConv2D", "input": ["model/block3b_add/add_mbox_conf_1/separable_conv2d/depthwise", "model/block3b_add/add_mbox_conf_1/separable_conv2d/ReadVariableOp_1", "model/block3b_add/add_mbox_conf_1/BiasAdd/ReadVariableOp"], "device": "/device:CPU:0", "attr": {"dilations": {"list": {"i": ["1", "1", "1", "1"]}}, "T": {"type": "DT_FLOAT"}, "data_format": {"s": "TkhXQw=="}, "strides": {"list": {"i": ["1", "1", "1", "1"]}}, "explicit_paddings": {"list": {}}, "fused_ops": {"list": {"s": ["Qmlhc0FkZA=="]}}, "padding": {"s": "VkFMSUQ="}, "epsilon": {"f": 0.0}, "num_args": {"i": "1"}, "use_cudnn_on_gpu": {"b": true}}}, {"name": "model/block4a_dwconv_pad/Pad", "op": "Pad", "input": ["model/block4a_expand_activation/Relu6", "model/block4a_dwconv_pad/Pad/paddings"], "attr": {"Tpaddings": {"type": "DT_INT32"}, "T": {"type": "DT_FLOAT"}}}, {"name": "model/block3b_add/add_mbox_loc_flat/Reshape", "op": "Reshape", "input": ["model/block3b_add/add_mbox_loc_1/BiasAdd", "model/block3b_add/add_mbox_loc_flat/Const"], "attr": {"Tshape": {"type": "DT_INT32"}, "T": {"type": "DT_FLOAT"}}}, {"name": "model/block3b_add/add_mbox_conf_flat/Reshape", "op": "Reshape", "input": ["model/block3b_add/add_mbox_conf_1/BiasAdd", "model/block3b_add/add_mbox_conf_flat/Const"], "attr": {"Tshape": {"type": "DT_INT32"}, "T": {"type": "DT_FLOAT"}}}, {"name": "model/block4a_dwconv/depthwise", "op": "FusedDepthwiseConv2dNative", "input": ["model/block4a_dwconv_pad/Pad", "model/block4a_dwconv/depthwise_weights", "model/block4a_dwconv/depthwise_bn_offset"], "attr": {"num_args": {"i": "1"}, "padding": {"s": "VkFMSUQ="}, "fused_ops": {"list": {"s": ["Qmlhc0FkZA==", "UmVsdTY="]}}, "strides": {"list": {"i": ["1", "2", "2", "1"]}}, "explicit_paddings": {"list": {}}, "T": {"type": "DT_FLOAT"}, "data_format": {"s": "TkhXQw=="}, "dilations": {"list": {"i": ["1", "1", "1", "1"]}}}}, {"name": "model/block4a_project_bn/FusedBatchNormV3", "op": "_FusedConv2D", "input": ["model/block4a_dwconv/depthwise", "model/block4a_project_conv/Conv2D_weights", "model/block4a_project_conv/Conv2D_bn_offset"], "device": "/device:CPU:0", "attr": {"use_cudnn_on_gpu": {"b": true}, "fused_ops": {"list": {"s": ["Qmlhc0FkZA=="]}}, "num_args": {"i": "1"}, "strides": {"list": {"i": ["1", "1", "1", "1"]}}, "explicit_paddings": {"list": {}}, "data_format": {"s": "TkhXQw=="}, "dilations": {"list": {"i": ["1", "1", "1", "1"]}}, "T": {"type": "DT_FLOAT"}, "padding": {"s": "U0FNRQ=="}, "epsilon": {"f": 0.0}}}, {"name": "model/block4b_expand_activation/Relu6", "op": "_FusedConv2D", "input": ["model/block4a_project_bn/FusedBatchNormV3", "model/block4b_expand_conv/Conv2D_weights", "model/block4b_expand_conv/Conv2D_bn_offset"], "device": "/device:CPU:0", "attr": {"strides": {"list": {"i": ["1", "1", "1", "1"]}}, "fused_ops": {"list": {"s": ["Qmlhc0FkZA==", "UmVsdTY="]}}, "padding": {"s": "U0FNRQ=="}, "use_cudnn_on_gpu": {"b": true}, "T": {"type": "DT_FLOAT"}, "dilations": {"list": {"i": ["1", "1", "1", "1"]}}, "num_args": {"i": "1"}, "epsilon": {"f": 0.0}, "explicit_paddings": {"list": {}}, "data_format": {"s": "TkhXQw=="}}}, {"name": "model/block4b_dwconv/depthwise", "op": "FusedDepthwiseConv2dNative", "input": ["model/block4b_expand_activation/Relu6", "model/block4b_dwconv/depthwise_weights", "model/block4b_dwconv/depthwise_bn_offset"], "attr": {"dilations": {"list": {"i": ["1", "1", "1", "1"]}}, "T": {"type": "DT_FLOAT"}, "num_args": {"i": "1"}, "padding": {"s": "U0FNRQ=="}, "strides": {"list": {"i": ["1", "1", "1", "1"]}}, "explicit_paddings": {"list": {}}, "data_format": {"s": "TkhXQw=="}, "fused_ops": {"list": {"s": ["Qmlhc0FkZA==", "UmVsdTY="]}}}}, {"name": "model/block4b_project_bn/FusedBatchNormV3", "op": "_FusedConv2D", "input": ["model/block4b_dwconv/depthwise", "model/block4b_project_conv/Conv2D_weights", "model/block4b_project_conv/Conv2D_bn_offset"], "device": "/device:CPU:0", "attr": {"strides": {"list": {"i": ["1", "1", "1", "1"]}}, "dilations": {"list": {"i": ["1", "1", "1", "1"]}}, "data_format": {"s": "TkhXQw=="}, "use_cudnn_on_gpu": {"b": true}, "epsilon": {"f": 0.0}, "explicit_paddings": {"list": {}}, "num_args": {"i": "1"}, "fused_ops": {"list": {"s": ["Qmlhc0FkZA=="]}}, "padding": {"s": "U0FNRQ=="}, "T": {"type": "DT_FLOAT"}}}, {"name": "model/block4b_add/add", "op": "AddV2", "input": ["model/block4b_project_bn/FusedBatchNormV3", "model/block4a_project_bn/FusedBatchNormV3"], "attr": {"T": {"type": "DT_FLOAT"}}}, {"name": "model/block4c_expand_activation/Relu6", "op": "_FusedConv2D", "input": ["model/block4b_add/add", "model/block4c_expand_conv/Conv2D_weights", "model/block4c_expand_conv/Conv2D_bn_offset"], "device": "/device:CPU:0", "attr": {"num_args": {"i": "1"}, "strides": {"list": {"i": ["1", "1", "1", "1"]}}, "epsilon": {"f": 0.0}, "fused_ops": {"list": {"s": ["Qmlhc0FkZA==", "UmVsdTY="]}}, "T": {"type": "DT_FLOAT"}, "explicit_paddings": {"list": {}}, "use_cudnn_on_gpu": {"b": true}, "dilations": {"list": {"i": ["1", "1", "1", "1"]}}, "data_format": {"s": "TkhXQw=="}, "padding": {"s": "U0FNRQ=="}}}, {"name": "model/block4c_dwconv/depthwise", "op": "FusedDepthwiseConv2dNative", "input": ["model/block4c_expand_activation/Relu6", "model/block4c_dwconv/depthwise_weights", "model/block4c_dwconv/depthwise_bn_offset"], "attr": {"num_args": {"i": "1"}, "strides": {"list": {"i": ["1", "1", "1", "1"]}}, "T": {"type": "DT_FLOAT"}, "fused_ops": {"list": {"s": ["Qmlhc0FkZA==", "UmVsdTY="]}}, "padding": {"s": "U0FNRQ=="}, "explicit_paddings": {"list": {}}, "dilations": {"list": {"i": ["1", "1", "1", "1"]}}, "data_format": {"s": "TkhXQw=="}}}, {"name": "model/block4c_project_bn/FusedBatchNormV3", "op": "_FusedConv2D", "input": ["model/block4c_dwconv/depthwise", "model/block4c_project_conv/Conv2D_weights", "model/block4c_project_conv/Conv2D_bn_offset"], "device": "/device:CPU:0", "attr": {"fused_ops": {"list": {"s": ["Qmlhc0FkZA=="]}}, "epsilon": {"f": 0.0}, "padding": {"s": "U0FNRQ=="}, "data_format": {"s": "TkhXQw=="}, "explicit_paddings": {"list": {}}, "strides": {"list": {"i": ["1", "1", "1", "1"]}}, "T": {"type": "DT_FLOAT"}, "num_args": {"i": "1"}, "dilations": {"list": {"i": ["1", "1", "1", "1"]}}, "use_cudnn_on_gpu": {"b": true}}}, {"name": "model/block4c_add/add", "op": "AddV2", "input": ["model/block4c_project_bn/FusedBatchNormV3", "model/block4b_add/add"], "attr": {"T": {"type": "DT_FLOAT"}}}, {"name": "model/block5a_expand_activation/Relu6", "op": "_FusedConv2D", "input": ["model/block4c_add/add", "model/block5a_expand_conv/Conv2D_weights", "model/block5a_expand_conv/Conv2D_bn_offset"], "device": "/device:CPU:0", "attr": {"padding": {"s": "U0FNRQ=="}, "T": {"type": "DT_FLOAT"}, "fused_ops": {"list": {"s": ["Qmlhc0FkZA==", "UmVsdTY="]}}, "epsilon": {"f": 0.0}, "explicit_paddings": {"list": {}}, "num_args": {"i": "1"}, "use_cudnn_on_gpu": {"b": true}, "strides": {"list": {"i": ["1", "1", "1", "1"]}}, "data_format": {"s": "TkhXQw=="}, "dilations": {"list": {"i": ["1", "1", "1", "1"]}}}}, {"name": "model/block5a_dwconv/depthwise", "op": "FusedDepthwiseConv2dNative", "input": ["model/block5a_expand_activation/Relu6", "model/block5a_dwconv/depthwise_weights", "model/block5a_dwconv/depthwise_bn_offset"], "attr": {"num_args": {"i": "1"}, "T": {"type": "DT_FLOAT"}, "dilations": {"list": {"i": ["1", "1", "1", "1"]}}, "strides": {"list": {"i": ["1", "1", "1", "1"]}}, "padding": {"s": "U0FNRQ=="}, "data_format": {"s": "TkhXQw=="}, "fused_ops": {"list": {"s": ["Qmlhc0FkZA==", "UmVsdTY="]}}, "explicit_paddings": {"list": {}}}}, {"name": "model/block5a_project_bn/FusedBatchNormV3", "op": "_FusedConv2D", "input": ["model/block5a_dwconv/depthwise", "model/block5a_project_conv/Conv2D_weights", "model/block5a_project_conv/Conv2D_bn_offset"], "device": "/device:CPU:0", "attr": {"num_args": {"i": "1"}, "fused_ops": {"list": {"s": ["Qmlhc0FkZA=="]}}, "padding": {"s": "U0FNRQ=="}, "dilations": {"list": {"i": ["1", "1", "1", "1"]}}, "data_format": {"s": "TkhXQw=="}, "epsilon": {"f": 0.0}, "strides": {"list": {"i": ["1", "1", "1", "1"]}}, "explicit_paddings": {"list": {}}, "use_cudnn_on_gpu": {"b": true}, "T": {"type": "DT_FLOAT"}}}, {"name": "model/block5b_expand_activation/Relu6", "op": "_FusedConv2D", "input": ["model/block5a_project_bn/FusedBatchNormV3", "model/block5b_expand_conv/Conv2D_weights", "model/block5b_expand_conv/Conv2D_bn_offset"], "device": "/device:CPU:0", "attr": {"padding": {"s": "U0FNRQ=="}, "dilations": {"list": {"i": ["1", "1", "1", "1"]}}, "strides": {"list": {"i": ["1", "1", "1", "1"]}}, "num_args": {"i": "1"}, "use_cudnn_on_gpu": {"b": true}, "data_format": {"s": "TkhXQw=="}, "T": {"type": "DT_FLOAT"}, "explicit_paddings": {"list": {}}, "fused_ops": {"list": {"s": ["Qmlhc0FkZA==", "UmVsdTY="]}}, "epsilon": {"f": 0.0}}}, {"name": "model/block5b_dwconv/depthwise", "op": "FusedDepthwiseConv2dNative", "input": ["model/block5b_expand_activation/Relu6", "model/block5b_dwconv/depthwise_weights", "model/block5b_dwconv/depthwise_bn_offset"], "attr": {"dilations": {"list": {"i": ["1", "1", "1", "1"]}}, "explicit_paddings": {"list": {}}, "num_args": {"i": "1"}, "strides": {"list": {"i": ["1", "1", "1", "1"]}}, "fused_ops": {"list": {"s": ["Qmlhc0FkZA==", "UmVsdTY="]}}, "T": {"type": "DT_FLOAT"}, "data_format": {"s": "TkhXQw=="}, "padding": {"s": "U0FNRQ=="}}}, {"name": "model/block5b_project_bn/FusedBatchNormV3", "op": "_FusedConv2D", "input": ["model/block5b_dwconv/depthwise", "model/block5b_project_conv/Conv2D_weights", "model/block5b_project_conv/Conv2D_bn_offset"], "device": "/device:CPU:0", "attr": {"T": {"type": "DT_FLOAT"}, "fused_ops": {"list": {"s": ["Qmlhc0FkZA=="]}}, "explicit_paddings": {"list": {}}, "data_format": {"s": "TkhXQw=="}, "use_cudnn_on_gpu": {"b": true}, "dilations": {"list": {"i": ["1", "1", "1", "1"]}}, "strides": {"list": {"i": ["1", "1", "1", "1"]}}, "padding": {"s": "U0FNRQ=="}, "epsilon": {"f": 0.0}, "num_args": {"i": "1"}}}, {"name": "model/block5b_add/add", "op": "AddV2", "input": ["model/block5b_project_bn/FusedBatchNormV3", "model/block5a_project_bn/FusedBatchNormV3"], "attr": {"T": {"type": "DT_FLOAT"}}}, {"name": "model/block5c_expand_activation/Relu6", "op": "_FusedConv2D", "input": ["model/block5b_add/add", "model/block5c_expand_conv/Conv2D_weights", "model/block5c_expand_conv/Conv2D_bn_offset"], "device": "/device:CPU:0", "attr": {"padding": {"s": "U0FNRQ=="}, "explicit_paddings": {"list": {}}, "epsilon": {"f": 0.0}, "num_args": {"i": "1"}, "strides": {"list": {"i": ["1", "1", "1", "1"]}}, "data_format": {"s": "TkhXQw=="}, "T": {"type": "DT_FLOAT"}, "use_cudnn_on_gpu": {"b": true}, "fused_ops": {"list": {"s": ["Qmlhc0FkZA==", "UmVsdTY="]}}, "dilations": {"list": {"i": ["1", "1", "1", "1"]}}}}, {"name": "model/block5c_dwconv/depthwise", "op": "FusedDepthwiseConv2dNative", "input": ["model/block5c_expand_activation/Relu6", "model/block5c_dwconv/depthwise_weights", "model/block5c_dwconv/depthwise_bn_offset"], "attr": {"strides": {"list": {"i": ["1", "1", "1", "1"]}}, "explicit_paddings": {"list": {}}, "data_format": {"s": "TkhXQw=="}, "fused_ops": {"list": {"s": ["Qmlhc0FkZA==", "UmVsdTY="]}}, "num_args": {"i": "1"}, "dilations": {"list": {"i": ["1", "1", "1", "1"]}}, "padding": {"s": "U0FNRQ=="}, "T": {"type": "DT_FLOAT"}}}, {"name": "model/block5c_project_bn/FusedBatchNormV3", "op": "_FusedConv2D", "input": ["model/block5c_dwconv/depthwise", "model/block5c_project_conv/Conv2D_weights", "model/block5c_project_conv/Conv2D_bn_offset"], "device": "/device:CPU:0", "attr": {"data_format": {"s": "TkhXQw=="}, "strides": {"list": {"i": ["1", "1", "1", "1"]}}, "num_args": {"i": "1"}, "padding": {"s": "U0FNRQ=="}, "fused_ops": {"list": {"s": ["Qmlhc0FkZA=="]}}, "use_cudnn_on_gpu": {"b": true}, "T": {"type": "DT_FLOAT"}, "dilations": {"list": {"i": ["1", "1", "1", "1"]}}, "epsilon": {"f": 0.0}, "explicit_paddings": {"list": {}}}}, {"name": "model/block5c_add/add", "op": "AddV2", "input": ["model/block5c_project_bn/FusedBatchNormV3", "model/block5b_add/add"], "attr": {"T": {"type": "DT_FLOAT"}}}, {"name": "model/block5c_add/add_mbox_loc_1/separable_conv2d/depthwise", "op": "DepthwiseConv2dNative", "input": ["model/block5c_add/add", "model/block5c_add/add_mbox_loc_1/separable_conv2d/ReadVariableOp"], "attr": {"T": {"type": "DT_FLOAT"}, "explicit_paddings": {"list": {}}, "strides": {"list": {"i": ["1", "1", "1", "1"]}}, "data_format": {"s": "TkhXQw=="}, "padding": {"s": "U0FNRQ=="}, "dilations": {"list": {"i": ["1", "1", "1", "1"]}}}}, {"name": "model/block5c_add/add_mbox_conf_1/separable_conv2d/depthwise", "op": "DepthwiseConv2dNative", "input": ["model/block5c_add/add", "model/block5c_add/add_mbox_conf_1/separable_conv2d/ReadVariableOp"], "attr": {"explicit_paddings": {"list": {}}, "data_format": {"s": "TkhXQw=="}, "strides": {"list": {"i": ["1", "1", "1", "1"]}}, "dilations": {"list": {"i": ["1", "1", "1", "1"]}}, "padding": {"s": "U0FNRQ=="}, "T": {"type": "DT_FLOAT"}}}, {"name": "model/block6a_expand_activation/Relu6", "op": "_FusedConv2D", "input": ["model/block5c_add/add", "model/block6a_expand_conv/Conv2D_weights", "model/block6a_expand_conv/Conv2D_bn_offset"], "device": "/device:CPU:0", "attr": {"T": {"type": "DT_FLOAT"}, "padding": {"s": "U0FNRQ=="}, "num_args": {"i": "1"}, "epsilon": {"f": 0.0}, "fused_ops": {"list": {"s": ["Qmlhc0FkZA==", "UmVsdTY="]}}, "dilations": {"list": {"i": ["1", "1", "1", "1"]}}, "data_format": {"s": "TkhXQw=="}, "explicit_paddings": {"list": {}}, "use_cudnn_on_gpu": {"b": true}, "strides": {"list": {"i": ["1", "1", "1", "1"]}}}}, {"name": "model/block5c_add/add_mbox_loc_1/BiasAdd", "op": "_FusedConv2D", "input": ["model/block5c_add/add_mbox_loc_1/separable_conv2d/depthwise", "model/block5c_add/add_mbox_loc_1/separable_conv2d/ReadVariableOp_1", "model/block5c_add/add_mbox_loc_1/BiasAdd/ReadVariableOp"], "device": "/device:CPU:0", "attr": {"use_cudnn_on_gpu": {"b": true}, "data_format": {"s": "TkhXQw=="}, "padding": {"s": "VkFMSUQ="}, "epsilon": {"f": 0.0}, "T": {"type": "DT_FLOAT"}, "strides": {"list": {"i": ["1", "1", "1", "1"]}}, "num_args": {"i": "1"}, "fused_ops": {"list": {"s": ["Qmlhc0FkZA=="]}}, "dilations": {"list": {"i": ["1", "1", "1", "1"]}}, "explicit_paddings": {"list": {}}}}, {"name": "model/block5c_add/add_mbox_conf_1/BiasAdd", "op": "_FusedConv2D", "input": ["model/block5c_add/add_mbox_conf_1/separable_conv2d/depthwise", "model/block5c_add/add_mbox_conf_1/separable_conv2d/ReadVariableOp_1", "model/block5c_add/add_mbox_conf_1/BiasAdd/ReadVariableOp"], "device": "/device:CPU:0", "attr": {"strides": {"list": {"i": ["1", "1", "1", "1"]}}, "data_format": {"s": "TkhXQw=="}, "use_cudnn_on_gpu": {"b": true}, "T": {"type": "DT_FLOAT"}, "fused_ops": {"list": {"s": ["Qmlhc0FkZA=="]}}, "epsilon": {"f": 0.0}, "explicit_paddings": {"list": {}}, "padding": {"s": "VkFMSUQ="}, "num_args": {"i": "1"}, "dilations": {"list": {"i": ["1", "1", "1", "1"]}}}}, {"name": "model/block6a_dwconv_pad/Pad", "op": "Pad", "input": ["model/block6a_expand_activation/Relu6", "model/block6a_dwconv_pad/Pad/paddings"], "attr": {"Tpaddings": {"type": "DT_INT32"}, "T": {"type": "DT_FLOAT"}}}, {"name": "model/block5c_add/add_mbox_loc_flat/Reshape", "op": "Reshape", "input": ["model/block5c_add/add_mbox_loc_1/BiasAdd", "model/block5c_add/add_mbox_loc_flat/Const"], "attr": {"T": {"type": "DT_FLOAT"}, "Tshape": {"type": "DT_INT32"}}}, {"name": "model/block5c_add/add_mbox_conf_flat/Reshape", "op": "Reshape", "input": ["model/block5c_add/add_mbox_conf_1/BiasAdd", "model/block5c_add/add_mbox_conf_flat/Const"], "attr": {"Tshape": {"type": "DT_INT32"}, "T": {"type": "DT_FLOAT"}}}, {"name": "model/block6a_dwconv/depthwise", "op": "FusedDepthwiseConv2dNative", "input": ["model/block6a_dwconv_pad/Pad", "model/block6a_dwconv/depthwise_weights", "model/block6a_dwconv/depthwise_bn_offset"], "attr": {"num_args": {"i": "1"}, "data_format": {"s": "TkhXQw=="}, "explicit_paddings": {"list": {}}, "padding": {"s": "VkFMSUQ="}, "strides": {"list": {"i": ["1", "2", "2", "1"]}}, "fused_ops": {"list": {"s": ["Qmlhc0FkZA==", "UmVsdTY="]}}, "T": {"type": "DT_FLOAT"}, "dilations": {"list": {"i": ["1", "1", "1", "1"]}}}}, {"name": "model/block6a_project_bn/FusedBatchNormV3", "op": "_FusedConv2D", "input": ["model/block6a_dwconv/depthwise", "model/block6a_project_conv/Conv2D_weights", "model/block6a_project_conv/Conv2D_bn_offset"], "device": "/device:CPU:0", "attr": {"T": {"type": "DT_FLOAT"}, "data_format": {"s": "TkhXQw=="}, "use_cudnn_on_gpu": {"b": true}, "epsilon": {"f": 0.0}, "strides": {"list": {"i": ["1", "1", "1", "1"]}}, "num_args": {"i": "1"}, "dilations": {"list": {"i": ["1", "1", "1", "1"]}}, "explicit_paddings": {"list": {}}, "fused_ops": {"list": {"s": ["Qmlhc0FkZA=="]}}, "padding": {"s": "U0FNRQ=="}}}, {"name": "model/block6b_expand_activation/Relu6", "op": "_FusedConv2D", "input": ["model/block6a_project_bn/FusedBatchNormV3", "model/block6b_expand_conv/Conv2D_weights", "model/block6b_expand_conv/Conv2D_bn_offset"], "device": "/device:CPU:0", "attr": {"explicit_paddings": {"list": {}}, "padding": {"s": "U0FNRQ=="}, "fused_ops": {"list": {"s": ["Qmlhc0FkZA==", "UmVsdTY="]}}, "use_cudnn_on_gpu": {"b": true}, "strides": {"list": {"i": ["1", "1", "1", "1"]}}, "T": {"type": "DT_FLOAT"}, "data_format": {"s": "TkhXQw=="}, "dilations": {"list": {"i": ["1", "1", "1", "1"]}}, "num_args": {"i": "1"}, "epsilon": {"f": 0.0}}}, {"name": "model/block6b_dwconv/depthwise", "op": "FusedDepthwiseConv2dNative", "input": ["model/block6b_expand_activation/Relu6", "model/block6b_dwconv/depthwise_weights", "model/block6b_dwconv/depthwise_bn_offset"], "attr": {"num_args": {"i": "1"}, "data_format": {"s": "TkhXQw=="}, "fused_ops": {"list": {"s": ["Qmlhc0FkZA==", "UmVsdTY="]}}, "explicit_paddings": {"list": {}}, "strides": {"list": {"i": ["1", "1", "1", "1"]}}, "T": {"type": "DT_FLOAT"}, "padding": {"s": "U0FNRQ=="}, "dilations": {"list": {"i": ["1", "1", "1", "1"]}}}}, {"name": "model/block6b_project_bn/FusedBatchNormV3", "op": "_FusedConv2D", "input": ["model/block6b_dwconv/depthwise", "model/block6b_project_conv/Conv2D_weights", "model/block6b_project_conv/Conv2D_bn_offset"], "device": "/device:CPU:0", "attr": {"epsilon": {"f": 0.0}, "T": {"type": "DT_FLOAT"}, "explicit_paddings": {"list": {}}, "strides": {"list": {"i": ["1", "1", "1", "1"]}}, "dilations": {"list": {"i": ["1", "1", "1", "1"]}}, "padding": {"s": "U0FNRQ=="}, "num_args": {"i": "1"}, "use_cudnn_on_gpu": {"b": true}, "fused_ops": {"list": {"s": ["Qmlhc0FkZA=="]}}, "data_format": {"s": "TkhXQw=="}}}, {"name": "model/block6b_add/add", "op": "AddV2", "input": ["model/block6b_project_bn/FusedBatchNormV3", "model/block6a_project_bn/FusedBatchNormV3"], "attr": {"T": {"type": "DT_FLOAT"}}}, {"name": "model/block6c_expand_activation/Relu6", "op": "_FusedConv2D", "input": ["model/block6b_add/add", "model/block6c_expand_conv/Conv2D_weights", "model/block6c_expand_conv/Conv2D_bn_offset"], "device": "/device:CPU:0", "attr": {"use_cudnn_on_gpu": {"b": true}, "padding": {"s": "U0FNRQ=="}, "data_format": {"s": "TkhXQw=="}, "fused_ops": {"list": {"s": ["Qmlhc0FkZA==", "UmVsdTY="]}}, "dilations": {"list": {"i": ["1", "1", "1", "1"]}}, "T": {"type": "DT_FLOAT"}, "explicit_paddings": {"list": {}}, "epsilon": {"f": 0.0}, "strides": {"list": {"i": ["1", "1", "1", "1"]}}, "num_args": {"i": "1"}}}, {"name": "model/block6c_dwconv/depthwise", "op": "FusedDepthwiseConv2dNative", "input": ["model/block6c_expand_activation/Relu6", "model/block6c_dwconv/depthwise_weights", "model/block6c_dwconv/depthwise_bn_offset"], "attr": {"data_format": {"s": "TkhXQw=="}, "dilations": {"list": {"i": ["1", "1", "1", "1"]}}, "num_args": {"i": "1"}, "T": {"type": "DT_FLOAT"}, "strides": {"list": {"i": ["1", "1", "1", "1"]}}, "fused_ops": {"list": {"s": ["Qmlhc0FkZA==", "UmVsdTY="]}}, "explicit_paddings": {"list": {}}, "padding": {"s": "U0FNRQ=="}}}, {"name": "model/block6c_project_bn/FusedBatchNormV3", "op": "_FusedConv2D", "input": ["model/block6c_dwconv/depthwise", "model/block6c_project_conv/Conv2D_weights", "model/block6c_project_conv/Conv2D_bn_offset"], "device": "/device:CPU:0", "attr": {"data_format": {"s": "TkhXQw=="}, "explicit_paddings": {"list": {}}, "fused_ops": {"list": {"s": ["Qmlhc0FkZA=="]}}, "num_args": {"i": "1"}, "strides": {"list": {"i": ["1", "1", "1", "1"]}}, "use_cudnn_on_gpu": {"b": true}, "dilations": {"list": {"i": ["1", "1", "1", "1"]}}, "epsilon": {"f": 0.0}, "T": {"type": "DT_FLOAT"}, "padding": {"s": "U0FNRQ=="}}}, {"name": "model/block6c_add/add", "op": "AddV2", "input": ["model/block6c_project_bn/FusedBatchNormV3", "model/block6b_add/add"], "attr": {"T": {"type": "DT_FLOAT"}}}, {"name": "model/block6d_expand_activation/Relu6", "op": "_FusedConv2D", "input": ["model/block6c_add/add", "model/block6d_expand_conv/Conv2D_weights", "model/block6d_expand_conv/Conv2D_bn_offset"], "device": "/device:CPU:0", "attr": {"padding": {"s": "U0FNRQ=="}, "T": {"type": "DT_FLOAT"}, "epsilon": {"f": 0.0}, "dilations": {"list": {"i": ["1", "1", "1", "1"]}}, "data_format": {"s": "TkhXQw=="}, "fused_ops": {"list": {"s": ["Qmlhc0FkZA==", "UmVsdTY="]}}, "strides": {"list": {"i": ["1", "1", "1", "1"]}}, "use_cudnn_on_gpu": {"b": true}, "explicit_paddings": {"list": {}}, "num_args": {"i": "1"}}}, {"name": "model/block6d_dwconv/depthwise", "op": "FusedDepthwiseConv2dNative", "input": ["model/block6d_expand_activation/Relu6", "model/block6d_dwconv/depthwise_weights", "model/block6d_dwconv/depthwise_bn_offset"], "attr": {"data_format": {"s": "TkhXQw=="}, "strides": {"list": {"i": ["1", "1", "1", "1"]}}, "T": {"type": "DT_FLOAT"}, "padding": {"s": "U0FNRQ=="}, "num_args": {"i": "1"}, "fused_ops": {"list": {"s": ["Qmlhc0FkZA==", "UmVsdTY="]}}, "explicit_paddings": {"list": {}}, "dilations": {"list": {"i": ["1", "1", "1", "1"]}}}}, {"name": "model/block6d_project_bn/FusedBatchNormV3", "op": "_FusedConv2D", "input": ["model/block6d_dwconv/depthwise", "model/block6d_project_conv/Conv2D_weights", "model/block6d_project_conv/Conv2D_bn_offset"], "device": "/device:CPU:0", "attr": {"num_args": {"i": "1"}, "strides": {"list": {"i": ["1", "1", "1", "1"]}}, "T": {"type": "DT_FLOAT"}, "epsilon": {"f": 0.0}, "fused_ops": {"list": {"s": ["Qmlhc0FkZA=="]}}, "use_cudnn_on_gpu": {"b": true}, "padding": {"s": "U0FNRQ=="}, "data_format": {"s": "TkhXQw=="}, "dilations": {"list": {"i": ["1", "1", "1", "1"]}}, "explicit_paddings": {"list": {}}}}, {"name": "model/block6d_add/add", "op": "AddV2", "input": ["model/block6d_project_bn/FusedBatchNormV3", "model/block6c_add/add"], "attr": {"T": {"type": "DT_FLOAT"}}}, {"name": "model/block7a_expand_activation/Relu6", "op": "_FusedConv2D", "input": ["model/block6d_add/add", "model/block7a_expand_conv/Conv2D_weights", "model/block7a_expand_conv/Conv2D_bn_offset"], "device": "/device:CPU:0", "attr": {"fused_ops": {"list": {"s": ["Qmlhc0FkZA==", "UmVsdTY="]}}, "data_format": {"s": "TkhXQw=="}, "T": {"type": "DT_FLOAT"}, "padding": {"s": "U0FNRQ=="}, "dilations": {"list": {"i": ["1", "1", "1", "1"]}}, "explicit_paddings": {"list": {}}, "use_cudnn_on_gpu": {"b": true}, "num_args": {"i": "1"}, "strides": {"list": {"i": ["1", "1", "1", "1"]}}, "epsilon": {"f": 0.0}}}, {"name": "model/block7a_dwconv/depthwise", "op": "FusedDepthwiseConv2dNative", "input": ["model/block7a_expand_activation/Relu6", "model/block7a_dwconv/depthwise_weights", "model/block7a_dwconv/depthwise_bn_offset"], "attr": {"padding": {"s": "U0FNRQ=="}, "fused_ops": {"list": {"s": ["Qmlhc0FkZA==", "UmVsdTY="]}}, "explicit_paddings": {"list": {}}, "dilations": {"list": {"i": ["1", "1", "1", "1"]}}, "strides": {"list": {"i": ["1", "1", "1", "1"]}}, "num_args": {"i": "1"}, "data_format": {"s": "TkhXQw=="}, "T": {"type": "DT_FLOAT"}}}, {"name": "model/block7a_project_bn/FusedBatchNormV3", "op": "_FusedConv2D", "input": ["model/block7a_dwconv/depthwise", "model/block7a_project_conv/Conv2D_weights", "model/block7a_project_conv/Conv2D_bn_offset"], "device": "/device:CPU:0", "attr": {"T": {"type": "DT_FLOAT"}, "num_args": {"i": "1"}, "fused_ops": {"list": {"s": ["Qmlhc0FkZA=="]}}, "use_cudnn_on_gpu": {"b": true}, "dilations": {"list": {"i": ["1", "1", "1", "1"]}}, "strides": {"list": {"i": ["1", "1", "1", "1"]}}, "explicit_paddings": {"list": {}}, "data_format": {"s": "TkhXQw=="}, "epsilon": {"f": 0.0}, "padding": {"s": "U0FNRQ=="}}}, {"name": "model/block7a_project_bn/FusedBatchNormV3_mbox_loc_1/separable_conv2d/depthwise", "op": "DepthwiseConv2dNative", "input": ["model/block7a_project_bn/FusedBatchNormV3", "model/block7a_project_bn/FusedBatchNormV3_mbox_loc_1/separable_conv2d/ReadVariableOp"], "attr": {"data_format": {"s": "TkhXQw=="}, "explicit_paddings": {"list": {}}, "dilations": {"list": {"i": ["1", "1", "1", "1"]}}, "padding": {"s": "U0FNRQ=="}, "strides": {"list": {"i": ["1", "1", "1", "1"]}}, "T": {"type": "DT_FLOAT"}}}, {"name": "model/block7a_project_bn/FusedBatchNormV3_mbox_conf_1/separable_conv2d/depthwise", "op": "DepthwiseConv2dNative", "input": ["model/block7a_project_bn/FusedBatchNormV3", "model/block7a_project_bn/FusedBatchNormV3_mbox_conf_1/separable_conv2d/ReadVariableOp"], "attr": {"padding": {"s": "U0FNRQ=="}, "strides": {"list": {"i": ["1", "1", "1", "1"]}}, "dilations": {"list": {"i": ["1", "1", "1", "1"]}}, "T": {"type": "DT_FLOAT"}, "data_format": {"s": "TkhXQw=="}, "explicit_paddings": {"list": {}}}}, {"name": "model/re_lu/Relu6", "op": "_FusedConv2D", "input": ["model/block7a_project_bn/FusedBatchNormV3", "model/conv2d/Conv2D_weights", "model/conv2d/Conv2D_bn_offset"], "device": "/device:CPU:0", "attr": {"epsilon": {"f": 0.0}, "T": {"type": "DT_FLOAT"}, "fused_ops": {"list": {"s": ["Qmlhc0FkZA==", "UmVsdTY="]}}, "explicit_paddings": {"list": {}}, "padding": {"s": "U0FNRQ=="}, "strides": {"list": {"i": ["1", "1", "1", "1"]}}, "num_args": {"i": "1"}, "dilations": {"list": {"i": ["1", "1", "1", "1"]}}, "data_format": {"s": "TkhXQw=="}, "use_cudnn_on_gpu": {"b": true}}}, {"name": "model/block7a_project_bn/FusedBatchNormV3_mbox_loc_1/BiasAdd", "op": "_FusedConv2D", "input": ["model/block7a_project_bn/FusedBatchNormV3_mbox_loc_1/separable_conv2d/depthwise", "model/block7a_project_bn/FusedBatchNormV3_mbox_loc_1/separable_conv2d/ReadVariableOp_1", "model/block7a_project_bn/FusedBatchNormV3_mbox_loc_1/BiasAdd/ReadVariableOp"], "device": "/device:CPU:0", "attr": {"dilations": {"list": {"i": ["1", "1", "1", "1"]}}, "padding": {"s": "VkFMSUQ="}, "fused_ops": {"list": {"s": ["Qmlhc0FkZA=="]}}, "strides": {"list": {"i": ["1", "1", "1", "1"]}}, "data_format": {"s": "TkhXQw=="}, "num_args": {"i": "1"}, "use_cudnn_on_gpu": {"b": true}, "T": {"type": "DT_FLOAT"}, "explicit_paddings": {"list": {}}, "epsilon": {"f": 0.0}}}, {"name": "model/block7a_project_bn/FusedBatchNormV3_mbox_conf_1/BiasAdd", "op": "_FusedConv2D", "input": ["model/block7a_project_bn/FusedBatchNormV3_mbox_conf_1/separable_conv2d/depthwise", "model/block7a_project_bn/FusedBatchNormV3_mbox_conf_1/separable_conv2d/ReadVariableOp_1", "model/block7a_project_bn/FusedBatchNormV3_mbox_conf_1/BiasAdd/ReadVariableOp"], "device": "/device:CPU:0", "attr": {"padding": {"s": "VkFMSUQ="}, "dilations": {"list": {"i": ["1", "1", "1", "1"]}}, "epsilon": {"f": 0.0}, "explicit_paddings": {"list": {}}, "use_cudnn_on_gpu": {"b": true}, "fused_ops": {"list": {"s": ["Qmlhc0FkZA=="]}}, "num_args": {"i": "1"}, "strides": {"list": {"i": ["1", "1", "1", "1"]}}, "data_format": {"s": "TkhXQw=="}, "T": {"type": "DT_FLOAT"}}}, {"name": "model/x5_padding/Pad", "op": "Pad", "input": ["model/re_lu/Relu6", "model/x5_padding/Pad/paddings"], "attr": {"Tpaddings": {"type": "DT_INT32"}, "T": {"type": "DT_FLOAT"}}}, {"name": "model/block7a_project_bn/FusedBatchNormV3_mbox_loc_flat/Reshape", "op": "Reshape", "input": ["model/block7a_project_bn/FusedBatchNormV3_mbox_loc_1/BiasAdd", "model/block7a_project_bn/FusedBatchNormV3_mbox_loc_flat/Const"], "attr": {"T": {"type": "DT_FLOAT"}, "Tshape": {"type": "DT_INT32"}}}, {"name": "model/block7a_project_bn/FusedBatchNormV3_mbox_conf_flat/Reshape", "op": "Reshape", "input": ["model/block7a_project_bn/FusedBatchNormV3_mbox_conf_1/BiasAdd", "model/block7a_project_bn/FusedBatchNormV3_mbox_conf_flat/Const"], "attr": {"T": {"type": "DT_FLOAT"}, "Tshape": {"type": "DT_INT32"}}}, {"name": "model/separable_conv2d/separable_conv2d/depthwise", "op": "DepthwiseConv2dNative", "input": ["model/x5_padding/Pad", "model/separable_conv2d/separable_conv2d/ReadVariableOp"], "attr": {"dilations": {"list": {"i": ["1", "1", "1", "1"]}}, "T": {"type": "DT_FLOAT"}, "strides": {"list": {"i": ["1", "2", "2", "1"]}}, "padding": {"s": "VkFMSUQ="}, "data_format": {"s": "TkhXQw=="}, "explicit_paddings": {"list": {}}}}, {"name": "model/re_lu_1/Relu6", "op": "_FusedConv2D", "input": ["model/separable_conv2d/separable_conv2d/depthwise", "model/separable_conv2d/separable_conv2d_weights", "model/separable_conv2d/separable_conv2d_bn_offset"], "device": "/device:CPU:0", "attr": {"fused_ops": {"list": {"s": ["Qmlhc0FkZA==", "UmVsdTY="]}}, "padding": {"s": "VkFMSUQ="}, "dilations": {"list": {"i": ["1", "1", "1", "1"]}}, "use_cudnn_on_gpu": {"b": true}, "explicit_paddings": {"list": {}}, "T": {"type": "DT_FLOAT"}, "strides": {"list": {"i": ["1", "1", "1", "1"]}}, "data_format": {"s": "TkhXQw=="}, "num_args": {"i": "1"}, "epsilon": {"f": 0.0}}}, {"name": "model/re_lu_1/Relu6_mbox_loc_1/separable_conv2d/depthwise", "op": "DepthwiseConv2dNative", "input": ["model/re_lu_1/Relu6", "model/re_lu_1/Relu6_mbox_loc_1/separable_conv2d/ReadVariableOp"], "attr": {"padding": {"s": "U0FNRQ=="}, "explicit_paddings": {"list": {}}, "T": {"type": "DT_FLOAT"}, "strides": {"list": {"i": ["1", "1", "1", "1"]}}, "dilations": {"list": {"i": ["1", "1", "1", "1"]}}, "data_format": {"s": "TkhXQw=="}}}, {"name": "model/re_lu_1/Relu6_mbox_conf_1/separable_conv2d/depthwise", "op": "DepthwiseConv2dNative", "input": ["model/re_lu_1/Relu6", "model/re_lu_1/Relu6_mbox_conf_1/separable_conv2d/ReadVariableOp"], "attr": {"dilations": {"list": {"i": ["1", "1", "1", "1"]}}, "data_format": {"s": "TkhXQw=="}, "padding": {"s": "U0FNRQ=="}, "T": {"type": "DT_FLOAT"}, "strides": {"list": {"i": ["1", "1", "1", "1"]}}, "explicit_paddings": {"list": {}}}}, {"name": "model/re_lu_2/Relu6", "op": "_FusedConv2D", "input": ["model/re_lu_1/Relu6", "model/conv2d_1/Conv2D_weights", "model/conv2d_1/Conv2D_bn_offset"], "device": "/device:CPU:0", "attr": {"data_format": {"s": "TkhXQw=="}, "num_args": {"i": "1"}, "dilations": {"list": {"i": ["1", "1", "1", "1"]}}, "padding": {"s": "U0FNRQ=="}, "epsilon": {"f": 0.0}, "explicit_paddings": {"list": {}}, "strides": {"list": {"i": ["1", "1", "1", "1"]}}, "fused_ops": {"list": {"s": ["Qmlhc0FkZA==", "UmVsdTY="]}}, "use_cudnn_on_gpu": {"b": true}, "T": {"type": "DT_FLOAT"}}}, {"name": "model/re_lu_1/Relu6_mbox_loc_1/BiasAdd", "op": "_FusedConv2D", "input": ["model/re_lu_1/Relu6_mbox_loc_1/separable_conv2d/depthwise", "model/re_lu_1/Relu6_mbox_loc_1/separable_conv2d/ReadVariableOp_1", "model/re_lu_1/Relu6_mbox_loc_1/BiasAdd/ReadVariableOp"], "device": "/device:CPU:0", "attr": {"dilations": {"list": {"i": ["1", "1", "1", "1"]}}, "explicit_paddings": {"list": {}}, "use_cudnn_on_gpu": {"b": true}, "num_args": {"i": "1"}, "padding": {"s": "VkFMSUQ="}, "T": {"type": "DT_FLOAT"}, "fused_ops": {"list": {"s": ["Qmlhc0FkZA=="]}}, "epsilon": {"f": 0.0}, "strides": {"list": {"i": ["1", "1", "1", "1"]}}, "data_format": {"s": "TkhXQw=="}}}, {"name": "model/re_lu_1/Relu6_mbox_conf_1/BiasAdd", "op": "_FusedConv2D", "input": ["model/re_lu_1/Relu6_mbox_conf_1/separable_conv2d/depthwise", "model/re_lu_1/Relu6_mbox_conf_1/separable_conv2d/ReadVariableOp_1", "model/re_lu_1/Relu6_mbox_conf_1/BiasAdd/ReadVariableOp"], "device": "/device:CPU:0", "attr": {"use_cudnn_on_gpu": {"b": true}, "strides": {"list": {"i": ["1", "1", "1", "1"]}}, "num_args": {"i": "1"}, "dilations": {"list": {"i": ["1", "1", "1", "1"]}}, "data_format": {"s": "TkhXQw=="}, "epsilon": {"f": 0.0}, "explicit_paddings": {"list": {}}, "T": {"type": "DT_FLOAT"}, "padding": {"s": "VkFMSUQ="}, "fused_ops": {"list": {"s": ["Qmlhc0FkZA=="]}}}}, {"name": "model/separable_conv2d_1/separable_conv2d/depthwise", "op": "DepthwiseConv2dNative", "input": ["model/re_lu_2/Relu6", "model/separable_conv2d_1/separable_conv2d/ReadVariableOp"], "attr": {"strides": {"list": {"i": ["1", "1", "1", "1"]}}, "data_format": {"s": "TkhXQw=="}, "explicit_paddings": {"list": {}}, "dilations": {"list": {"i": ["1", "1", "1", "1"]}}, "padding": {"s": "VkFMSUQ="}, "T": {"type": "DT_FLOAT"}}}, {"name": "model/re_lu_1/Relu6_mbox_loc_flat/Reshape", "op": "Reshape", "input": ["model/re_lu_1/Relu6_mbox_loc_1/BiasAdd", "model/re_lu_1/Relu6_mbox_loc_flat/Const"], "attr": {"T": {"type": "DT_FLOAT"}, "Tshape": {"type": "DT_INT32"}}}, {"name": "model/re_lu_1/Relu6_mbox_conf_flat/Reshape", "op": "Reshape", "input": ["model/re_lu_1/Relu6_mbox_conf_1/BiasAdd", "model/re_lu_1/Relu6_mbox_conf_flat/Const"], "attr": {"T": {"type": "DT_FLOAT"}, "Tshape": {"type": "DT_INT32"}}}, {"name": "model/re_lu_3/Relu6", "op": "_FusedConv2D", "input": ["model/separable_conv2d_1/separable_conv2d/depthwise", "model/separable_conv2d_1/separable_conv2d_weights", "model/separable_conv2d_1/separable_conv2d_bn_offset"], "device": "/device:CPU:0", "attr": {"use_cudnn_on_gpu": {"b": true}, "strides": {"list": {"i": ["1", "1", "1", "1"]}}, "fused_ops": {"list": {"s": ["Qmlhc0FkZA==", "UmVsdTY="]}}, "epsilon": {"f": 0.0}, "dilations": {"list": {"i": ["1", "1", "1", "1"]}}, "padding": {"s": "VkFMSUQ="}, "data_format": {"s": "TkhXQw=="}, "T": {"type": "DT_FLOAT"}, "num_args": {"i": "1"}, "explicit_paddings": {"list": {}}}}, {"name": "model/re_lu_3/Relu6_mbox_loc_1/separable_conv2d/depthwise", "op": "DepthwiseConv2dNative", "input": ["model/re_lu_3/Relu6", "model/re_lu_3/Relu6_mbox_loc_1/separable_conv2d/ReadVariableOp"], "attr": {"strides": {"list": {"i": ["1", "1", "1", "1"]}}, "dilations": {"list": {"i": ["1", "1", "1", "1"]}}, "padding": {"s": "U0FNRQ=="}, "T": {"type": "DT_FLOAT"}, "data_format": {"s": "TkhXQw=="}, "explicit_paddings": {"list": {}}}}, {"name": "model/re_lu_3/Relu6_mbox_conf_1/separable_conv2d/depthwise", "op": "DepthwiseConv2dNative", "input": ["model/re_lu_3/Relu6", "model/re_lu_3/Relu6_mbox_conf_1/separable_conv2d/ReadVariableOp"], "attr": {"explicit_paddings": {"list": {}}, "strides": {"list": {"i": ["1", "1", "1", "1"]}}, "data_format": {"s": "TkhXQw=="}, "dilations": {"list": {"i": ["1", "1", "1", "1"]}}, "T": {"type": "DT_FLOAT"}, "padding": {"s": "U0FNRQ=="}}}, {"name": "model/re_lu_4/Relu6", "op": "_FusedConv2D", "input": ["model/re_lu_3/Relu6", "model/conv2d_2/Conv2D_weights", "model/conv2d_2/Conv2D_bn_offset"], "device": "/device:CPU:0", "attr": {"T": {"type": "DT_FLOAT"}, "data_format": {"s": "TkhXQw=="}, "use_cudnn_on_gpu": {"b": true}, "num_args": {"i": "1"}, "dilations": {"list": {"i": ["1", "1", "1", "1"]}}, "fused_ops": {"list": {"s": ["Qmlhc0FkZA==", "UmVsdTY="]}}, "explicit_paddings": {"list": {}}, "padding": {"s": "U0FNRQ=="}, "epsilon": {"f": 0.0}, "strides": {"list": {"i": ["1", "1", "1", "1"]}}}}, {"name": "model/re_lu_3/Relu6_mbox_loc_1/BiasAdd", "op": "_FusedConv2D", "input": ["model/re_lu_3/Relu6_mbox_loc_1/separable_conv2d/depthwise", "model/re_lu_3/Relu6_mbox_loc_1/separable_conv2d/ReadVariableOp_1", "model/re_lu_3/Relu6_mbox_loc_1/BiasAdd/ReadVariableOp"], "device": "/device:CPU:0", "attr": {"epsilon": {"f": 0.0}, "padding": {"s": "VkFMSUQ="}, "data_format": {"s": "TkhXQw=="}, "T": {"type": "DT_FLOAT"}, "explicit_paddings": {"list": {}}, "dilations": {"list": {"i": ["1", "1", "1", "1"]}}, "strides": {"list": {"i": ["1", "1", "1", "1"]}}, "fused_ops": {"list": {"s": ["Qmlhc0FkZA=="]}}, "num_args": {"i": "1"}, "use_cudnn_on_gpu": {"b": true}}}, {"name": "model/re_lu_3/Relu6_mbox_conf_1/BiasAdd", "op": "_FusedConv2D", "input": ["model/re_lu_3/Relu6_mbox_conf_1/separable_conv2d/depthwise", "model/re_lu_3/Relu6_mbox_conf_1/separable_conv2d/ReadVariableOp_1", "model/re_lu_3/Relu6_mbox_conf_1/BiasAdd/ReadVariableOp"], "device": "/device:CPU:0", "attr": {"T": {"type": "DT_FLOAT"}, "strides": {"list": {"i": ["1", "1", "1", "1"]}}, "explicit_paddings": {"list": {}}, "use_cudnn_on_gpu": {"b": true}, "fused_ops": {"list": {"s": ["Qmlhc0FkZA=="]}}, "data_format": {"s": "TkhXQw=="}, "epsilon": {"f": 0.0}, "num_args": {"i": "1"}, "dilations": {"list": {"i": ["1", "1", "1", "1"]}}, "padding": {"s": "VkFMSUQ="}}}, {"name": "model/separable_conv2d_2/separable_conv2d/depthwise", "op": "DepthwiseConv2dNative", "input": ["model/re_lu_4/Relu6", "model/separable_conv2d_2/separable_conv2d/ReadVariableOp"], "attr": {"T": {"type": "DT_FLOAT"}, "padding": {"s": "VkFMSUQ="}, "data_format": {"s": "TkhXQw=="}, "explicit_paddings": {"list": {}}, "dilations": {"list": {"i": ["1", "1", "1", "1"]}}, "strides": {"list": {"i": ["1", "1", "1", "1"]}}}}, {"name": "model/re_lu_3/Relu6_mbox_loc_flat/Reshape", "op": "Reshape", "input": ["model/re_lu_3/Relu6_mbox_loc_1/BiasAdd", "model/re_lu_3/Relu6_mbox_loc_flat/Const"], "attr": {"T": {"type": "DT_FLOAT"}, "Tshape": {"type": "DT_INT32"}}}, {"name": "model/re_lu_3/Relu6_mbox_conf_flat/Reshape", "op": "Reshape", "input": ["model/re_lu_3/Relu6_mbox_conf_1/BiasAdd", "model/re_lu_3/Relu6_mbox_conf_flat/Const"], "attr": {"Tshape": {"type": "DT_INT32"}, "T": {"type": "DT_FLOAT"}}}, {"name": "model/re_lu_5/Relu6", "op": "_FusedConv2D", "input": ["model/separable_conv2d_2/separable_conv2d/depthwise", "model/separable_conv2d_2/separable_conv2d_weights", "model/separable_conv2d_2/separable_conv2d_bn_offset"], "device": "/device:CPU:0", "attr": {"explicit_paddings": {"list": {}}, "epsilon": {"f": 0.0}, "T": {"type": "DT_FLOAT"}, "fused_ops": {"list": {"s": ["Qmlhc0FkZA==", "UmVsdTY="]}}, "use_cudnn_on_gpu": {"b": true}, "data_format": {"s": "TkhXQw=="}, "strides": {"list": {"i": ["1", "1", "1", "1"]}}, "dilations": {"list": {"i": ["1", "1", "1", "1"]}}, "padding": {"s": "VkFMSUQ="}, "num_args": {"i": "1"}}}, {"name": "model/re_lu_5/Relu6_mbox_loc_1/separable_conv2d/depthwise", "op": "DepthwiseConv2dNative", "input": ["model/re_lu_5/Relu6", "model/re_lu_5/Relu6_mbox_loc_1/separable_conv2d/ReadVariableOp"], "attr": {"explicit_paddings": {"list": {}}, "strides": {"list": {"i": ["1", "1", "1", "1"]}}, "T": {"type": "DT_FLOAT"}, "dilations": {"list": {"i": ["1", "1", "1", "1"]}}, "padding": {"s": "U0FNRQ=="}, "data_format": {"s": "TkhXQw=="}}}, {"name": "model/re_lu_5/Relu6_mbox_conf_1/separable_conv2d/depthwise", "op": "DepthwiseConv2dNative", "input": ["model/re_lu_5/Relu6", "model/re_lu_5/Relu6_mbox_conf_1/separable_conv2d/ReadVariableOp"], "attr": {"data_format": {"s": "TkhXQw=="}, "T": {"type": "DT_FLOAT"}, "padding": {"s": "U0FNRQ=="}, "strides": {"list": {"i": ["1", "1", "1", "1"]}}, "explicit_paddings": {"list": {}}, "dilations": {"list": {"i": ["1", "1", "1", "1"]}}}}, {"name": "model/re_lu_5/Relu6_mbox_loc_1/BiasAdd", "op": "_FusedConv2D", "input": ["model/re_lu_5/Relu6_mbox_loc_1/separable_conv2d/depthwise", "model/re_lu_5/Relu6_mbox_loc_1/separable_conv2d/ReadVariableOp_1", "model/re_lu_5/Relu6_mbox_loc_1/BiasAdd/ReadVariableOp"], "device": "/device:CPU:0", "attr": {"strides": {"list": {"i": ["1", "1", "1", "1"]}}, "dilations": {"list": {"i": ["1", "1", "1", "1"]}}, "fused_ops": {"list": {"s": ["Qmlhc0FkZA=="]}}, "use_cudnn_on_gpu": {"b": true}, "explicit_paddings": {"list": {}}, "padding": {"s": "VkFMSUQ="}, "data_format": {"s": "TkhXQw=="}, "T": {"type": "DT_FLOAT"}, "num_args": {"i": "1"}, "epsilon": {"f": 0.0}}}, {"name": "model/re_lu_5/Relu6_mbox_conf_1/BiasAdd", "op": "_FusedConv2D", "input": ["model/re_lu_5/Relu6_mbox_conf_1/separable_conv2d/depthwise", "model/re_lu_5/Relu6_mbox_conf_1/separable_conv2d/ReadVariableOp_1", "model/re_lu_5/Relu6_mbox_conf_1/BiasAdd/ReadVariableOp"], "device": "/device:CPU:0", "attr": {"padding": {"s": "VkFMSUQ="}, "T": {"type": "DT_FLOAT"}, "explicit_paddings": {"list": {}}, "strides": {"list": {"i": ["1", "1", "1", "1"]}}, "epsilon": {"f": 0.0}, "fused_ops": {"list": {"s": ["Qmlhc0FkZA=="]}}, "num_args": {"i": "1"}, "use_cudnn_on_gpu": {"b": true}, "dilations": {"list": {"i": ["1", "1", "1", "1"]}}, "data_format": {"s": "TkhXQw=="}}}, {"name": "model/re_lu_5/Relu6_mbox_loc_flat/Reshape", "op": "Reshape", "input": ["model/re_lu_5/Relu6_mbox_loc_1/BiasAdd", "model/re_lu_5/Relu6_mbox_loc_flat/Const"], "attr": {"Tshape": {"type": "DT_INT32"}, "T": {"type": "DT_FLOAT"}}}, {"name": "model/re_lu_5/Relu6_mbox_conf_flat/Reshape", "op": "Reshape", "input": ["model/re_lu_5/Relu6_mbox_conf_1/BiasAdd", "model/re_lu_5/Relu6_mbox_conf_flat/Const"], "attr": {"T": {"type": "DT_FLOAT"}, "Tshape": {"type": "DT_INT32"}}}, {"name": "model/mbox_loc/concat", "op": "ConcatV2", "input": ["model/block3b_add/add_mbox_loc_flat/Reshape", "model/block5c_add/add_mbox_loc_flat/Reshape", "model/block7a_project_bn/FusedBatchNormV3_mbox_loc_flat/Reshape", "model/re_lu_1/Relu6_mbox_loc_flat/Reshape", "model/re_lu_3/Relu6_mbox_loc_flat/Reshape", "model/re_lu_5/Relu6_mbox_loc_flat/Reshape", "model/mbox_loc/concat/axis"], "attr": {"T": {"type": "DT_FLOAT"}, "Tidx": {"type": "DT_INT32"}, "N": {"i": "6"}}}, {"name": "model/mbox_conf/concat", "op": "ConcatV2", "input": ["model/block3b_add/add_mbox_conf_flat/Reshape", "model/block5c_add/add_mbox_conf_flat/Reshape", "model/block7a_project_bn/FusedBatchNormV3_mbox_conf_flat/Reshape", "model/re_lu_1/Relu6_mbox_conf_flat/Reshape", "model/re_lu_3/Relu6_mbox_conf_flat/Reshape", "model/re_lu_5/Relu6_mbox_conf_flat/Reshape", "model/mbox_conf/concat/axis"], "attr": {"N": {"i": "6"}, "T": {"type": "DT_FLOAT"}, "Tidx": {"type": "DT_INT32"}}}, {"name": "model/mbox_loc_final/Shape", "op": "Shape", "input": ["model/mbox_loc/concat"], "attr": {"out_type": {"type": "DT_INT32"}, "T": {"type": "DT_FLOAT"}}}, {"name": "model/mbox_conf_logits/Shape", "op": "Shape", "input": ["model/mbox_conf/concat"], "attr": {"out_type": {"type": "DT_INT32"}, "T": {"type": "DT_FLOAT"}}}, {"name": "model/mbox_loc_final/strided_slice", "op": "StridedSlice", "input": ["model/mbox_loc_final/Shape", "model/mbox_loc_final/strided_slice/stack", "model/mbox_loc_final/strided_slice/stack_1", "model/mbox_loc_final/strided_slice/stack_2"], "attr": {"Index": {"type": "DT_INT32"}, "T": {"type": "DT_INT32"}, "new_axis_mask": {"i": "0"}, "ellipsis_mask": {"i": "0"}, "begin_mask": {"i": "0"}, "end_mask": {"i": "0"}, "shrink_axis_mask": {"i": "1"}}}, {"name": "model/mbox_conf_logits/strided_slice", "op": "StridedSlice", "input": ["model/mbox_conf_logits/Shape", "model/mbox_conf_logits/strided_slice/stack", "model/mbox_conf_logits/strided_slice/stack_1", "model/mbox_conf_logits/strided_slice/stack_2"], "attr": {"Index": {"type": "DT_INT32"}, "end_mask": {"i": "0"}, "new_axis_mask": {"i": "0"}, "ellipsis_mask": {"i": "0"}, "begin_mask": {"i": "0"}, "T": {"type": "DT_INT32"}, "shrink_axis_mask": {"i": "1"}}}, {"name": "model/mbox_loc_final/Reshape/shape", "op": "Pack", "input": ["model/mbox_loc_final/strided_slice", "model/mbox_loc_final/Reshape/shape/1", "model/mbox_loc_final/Reshape/shape/2"], "attr": {"T": {"type": "DT_INT32"}, "N": {"i": "3"}, "axis": {"i": "0"}}}, {"name": "model/mbox_conf_logits/Reshape/shape", "op": "Pack", "input": ["model/mbox_conf_logits/strided_slice", "model/mbox_conf_logits/Reshape/shape/1", "model/mbox_conf_logits/Reshape/shape/2"], "attr": {"T": {"type": "DT_INT32"}, "axis": {"i": "0"}, "N": {"i": "3"}}}, {"name": "model/mbox_loc_final/Reshape", "op": "Reshape", "input": ["model/mbox_loc/concat", "model/mbox_loc_final/Reshape/shape"], "attr": {"Tshape": {"type": "DT_INT32"}, "T": {"type": "DT_FLOAT"}}}, {"name": "model/mbox_conf_logits/Reshape", "op": "Reshape", "input": ["model/mbox_conf/concat", "model/mbox_conf_logits/Reshape/shape"], "attr": {"Tshape": {"type": "DT_INT32"}, "T": {"type": "DT_FLOAT"}}}, {"name": "model/predictions/concat", "op": "ConcatV2", "input": ["model/mbox_loc_final/Reshape", "model/mbox_conf_logits/Reshape", "model/predictions/concat/axis"], "attr": {"N": {"i": "2"}, "Tidx": {"type": "DT_INT32"}, "T": {"type": "DT_FLOAT"}}}, {"name": "model/tf.__operators__.getitem/strided_slice", "op": "StridedSlice", "input": ["model/predictions/concat", "model/tf.__operators__.getitem/strided_slice/stack", "model/tf.__operators__.getitem/strided_slice/stack_1", "model/tf.__operators__.getitem/strided_slice/stack_2"], "attr": {"ellipsis_mask": {"i": "0"}, "begin_mask": {"i": "0"}, "shrink_axis_mask": {"i": "1"}, "end_mask": {"i": "0"}, "T": {"type": "DT_FLOAT"}, "new_axis_mask": {"i": "0"}, "Index": {"type": "DT_INT32"}}}, {"name": "model/tf.__operators__.getitem_1/strided_slice", "op": "StridedSlice", "input": ["model/tf.__operators__.getitem/strided_slice", "model/tf.__operators__.getitem_1/strided_slice/stack", "model/tf.__operators__.getitem_1/strided_slice/stack_1", "model/tf.__operators__.getitem_1/strided_slice/stack_2"], "attr": {"begin_mask": {"i": "1"}, "Index": {"type": "DT_INT32"}, "shrink_axis_mask": {"i": "0"}, "T": {"type": "DT_FLOAT"}, "ellipsis_mask": {"i": "0"}, "end_mask": {"i": "3"}, "new_axis_mask": {"i": "0"}}}, {"name": "model/tf.__operators__.getitem_2/strided_slice", "op": "StridedSlice", "input": ["model/tf.__operators__.getitem/strided_slice", "model/tf.__operators__.getitem_2/strided_slice/stack", "model/tf.__operators__.getitem_2/strided_slice/stack_1", "model/tf.__operators__.getitem_2/strided_slice/stack_2"], "attr": {"Index": {"type": "DT_INT32"}, "end_mask": {"i": "1"}, "T": {"type": "DT_FLOAT"}, "shrink_axis_mask": {"i": "0"}, "new_axis_mask": {"i": "0"}, "ellipsis_mask": {"i": "0"}, "begin_mask": {"i": "3"}}}, {"name": "model/tf.__operators__.getitem_3/strided_slice", "op": "StridedSlice", "input": ["model/tf.__operators__.getitem_1/strided_slice", "model/tf.__operators__.getitem_3/strided_slice/stack", "model/tf.__operators__.getitem_3/strided_slice/stack_1", "model/tf.__operators__.getitem_3/strided_slice/stack_2"], "attr": {"T": {"type": "DT_FLOAT"}, "Index": {"type": "DT_INT32"}, "shrink_axis_mask": {"i": "0"}, "end_mask": {"i": "0"}, "new_axis_mask": {"i": "0"}, "ellipsis_mask": {"i": "1"}, "begin_mask": {"i": "2"}}}, {"name": "model/tf.__operators__.getitem_4/strided_slice", "op": "StridedSlice", "input": ["model/tf.__operators__.getitem_1/strided_slice", "model/tf.__operators__.getitem_4/strided_slice/stack", "model/tf.__operators__.getitem_4/strided_slice/stack_1", "model/tf.__operators__.getitem_4/strided_slice/stack_2"], "attr": {"ellipsis_mask": {"i": "1"}, "begin_mask": {"i": "0"}, "end_mask": {"i": "2"}, "shrink_axis_mask": {"i": "0"}, "new_axis_mask": {"i": "0"}, "T": {"type": "DT_FLOAT"}, "Index": {"type": "DT_INT32"}}}, {"name": "model/tf.nn.softmax/Softmax", "op": "Softmax", "input": ["model/tf.__operators__.getitem_2/strided_slice"], "attr": {"T": {"type": "DT_FLOAT"}}}, {"name": "model/tf.math.multiply_1/Mul", "op": "Mul", "input": ["model/tf.__operators__.getitem_3/strided_slice", "model/tf.math.multiply/Mul"], "attr": {"T": {"type": "DT_FLOAT"}}}, {"name": "model/tf.math.multiply_2/Mul", "op": "Mul", "input": ["model/tf.__operators__.getitem_4/strided_slice", "model/tf.math.multiply_2/Mul/y"], "attr": {"T": {"type": "DT_FLOAT"}}}, {"name": "model/tf.__operators__.getitem_12/strided_slice", "op": "StridedSlice", "input": ["model/tf.nn.softmax/Softmax", "model/tf.__operators__.getitem_12/strided_slice/stack", "model/tf.__operators__.getitem_12/strided_slice/stack_1", "model/tf.__operators__.getitem_12/strided_slice/stack_2"], "attr": {"new_axis_mask": {"i": "0"}, "shrink_axis_mask": {"i": "0"}, "ellipsis_mask": {"i": "0"}, "Index": {"type": "DT_INT32"}, "T": {"type": "DT_FLOAT"}, "end_mask": {"i": "3"}, "begin_mask": {"i": "1"}}}, {"name": "model/tf.__operators__.add/AddV2", "op": "AddV2", "input": ["model/tf.math.multiply_1/Mul", "model/tf.__operators__.add/AddV2/y"], "attr": {"T": {"type": "DT_FLOAT"}}}, {"name": "model/tf.math.exp/Exp", "op": "Exp", "input": ["model/tf.math.multiply_2/Mul"], "attr": {"T": {"type": "DT_FLOAT"}}}, {"name": "model/tf.reshape_3/Reshape", "op": "Reshape", "input": ["model/tf.__operators__.getitem_12/strided_slice", "model/tf.reshape_3/Reshape/shape"], "attr": {"T": {"type": "DT_FLOAT"}, "Tshape": {"type": "DT_INT32"}}}, {"name": "model/tf.math.multiply_3/Mul", "op": "Mul", "input": ["model/tf.math.exp/Exp", "model/tf.math.multiply_3/Mul/y"], "attr": {"T": {"type": "DT_FLOAT"}}}, {"name": "model/tf.math.greater/Greater", "op": "Greater", "input": ["model/tf.reshape_3/Reshape", "model/tf.math.greater/Greater/y"], "attr": {"T": {"type": "DT_FLOAT"}}}, {"name": "model/tf.concat/concat", "op": "ConcatV2", "input": ["model/tf.__operators__.add/AddV2", "model/tf.math.multiply_3/Mul", "model/tf.math.subtract/Sub"], "attr": {"N": {"i": "2"}, "T": {"type": "DT_FLOAT"}, "Tidx": {"type": "DT_INT32"}}}, {"name": "model/tf.compat.v1.boolean_mask_2/boolean_mask/Where", "op": "Where", "input": ["model/tf.math.greater/Greater"], "attr": {"T": {"type": "DT_BOOL"}}}, {"name": "model/tf.compat.v1.boolean_mask/boolean_mask/Where", "op": "Where", "input": ["model/tf.math.greater/Greater"], "attr": {"T": {"type": "DT_BOOL"}}}, {"name": "model/tf.compat.v1.boolean_mask_1/boolean_mask/Where", "op": "Where", "input": ["model/tf.math.greater/Greater"], "attr": {"T": {"type": "DT_BOOL"}}}, {"name": "model/tf.__operators__.getitem_5/strided_slice", "op": "StridedSlice", "input": ["model/tf.concat/concat", "model/tf.__operators__.getitem_5/strided_slice/stack", "model/tf.__operators__.getitem_5/strided_slice/stack_1", "model/tf.__operators__.getitem_5/strided_slice/stack_2"], "attr": {"new_axis_mask": {"i": "0"}, "ellipsis_mask": {"i": "1"}, "T": {"type": "DT_FLOAT"}, "Index": {"type": "DT_INT32"}, "shrink_axis_mask": {"i": "0"}, "begin_mask": {"i": "2"}, "end_mask": {"i": "0"}}}, {"name": "model/tf.__operators__.getitem_6/strided_slice", "op": "StridedSlice", "input": ["model/tf.concat/concat", "model/tf.__operators__.getitem_6/strided_slice/stack", "model/tf.__operators__.getitem_6/strided_slice/stack_1", "model/tf.__operators__.getitem_6/strided_slice/stack_2"], "attr": {"begin_mask": {"i": "0"}, "Index": {"type": "DT_INT32"}, "end_mask": {"i": "2"}, "shrink_axis_mask": {"i": "0"}, "T": {"type": "DT_FLOAT"}, "new_axis_mask": {"i": "0"}, "ellipsis_mask": {"i": "1"}}}, {"name": "model/tf.__operators__.getitem_7/strided_slice", "op": "StridedSlice", "input": ["model/tf.concat/concat", "model/tf.__operators__.getitem_7/strided_slice/stack", "model/tf.__operators__.getitem_7/strided_slice/stack_1", "model/tf.__operators__.getitem_7/strided_slice/stack_2"], "attr": {"ellipsis_mask": {"i": "1"}, "Index": {"type": "DT_INT32"}, "begin_mask": {"i": "2"}, "new_axis_mask": {"i": "0"}, "shrink_axis_mask": {"i": "0"}, "T": {"type": "DT_FLOAT"}, "end_mask": {"i": "0"}}}, {"name": "model/tf.__operators__.getitem_8/strided_slice", "op": "StridedSlice", "input": ["model/tf.concat/concat", "model/tf.__operators__.getitem_8/strided_slice/stack", "model/tf.__operators__.getitem_8/strided_slice/stack_1", "model/tf.__operators__.getitem_8/strided_slice/stack_2"], "attr": {"ellipsis_mask": {"i": "1"}, "shrink_axis_mask": {"i": "0"}, "Index": {"type": "DT_INT32"}, "end_mask": {"i": "2"}, "new_axis_mask": {"i": "0"}, "T": {"type": "DT_FLOAT"}, "begin_mask": {"i": "0"}}}, {"name": "model/tf.compat.v1.boolean_mask_2/boolean_mask/Squeeze", "op": "Squeeze", "input": ["model/tf.compat.v1.boolean_mask_2/boolean_mask/Where"], "attr": {"squeeze_dims": {"list": {"i": ["1"]}}, "T": {"type": "DT_INT64"}}}, {"name": "model/tf.compat.v1.boolean_mask/boolean_mask/Squeeze", "op": "Squeeze", "input": ["model/tf.compat.v1.boolean_mask/boolean_mask/Where"], "attr": {"T": {"type": "DT_INT64"}, "squeeze_dims": {"list": {"i": ["1"]}}}}, {"name": "model/tf.compat.v1.boolean_mask_1/boolean_mask/Squeeze", "op": "Squeeze", "input": ["model/tf.compat.v1.boolean_mask_1/boolean_mask/Where"], "attr": {"T": {"type": "DT_INT64"}, "squeeze_dims": {"list": {"i": ["1"]}}}}, {"name": "model/tf.math.truediv/truediv", "op": "Mul", "input": ["model/tf.__operators__.getitem_6/strided_slice", "ConstantFolding/model/tf.math.truediv/truediv_recip"], "attr": {"T": {"type": "DT_FLOAT"}}}, {"name": "model/tf.math.truediv_1/truediv", "op": "Mul", "input": ["model/tf.__operators__.getitem_8/strided_slice", "ConstantFolding/model/tf.math.truediv_1/truediv_recip"], "attr": {"T": {"type": "DT_FLOAT"}}}, {"name": "model/tf.compat.v1.boolean_mask_2/boolean_mask/GatherV2", "op": "GatherV2", "input": ["model/tf.compat.v1.boolean_mask_2/boolean_mask/Reshape", "model/tf.compat.v1.boolean_mask_2/boolean_mask/Squeeze", "model/tf.compat.v1.boolean_mask_2/boolean_mask/GatherV2/axis"], "attr": {"batch_dims": {"i": "0"}, "Taxis": {"type": "DT_INT32"}, "Tindices": {"type": "DT_INT64"}, "Tparams": {"type": "DT_FLOAT"}}}, {"name": "model/tf.compat.v1.boolean_mask_1/boolean_mask/GatherV2", "op": "GatherV2", "input": ["model/tf.reshape_3/Reshape", "model/tf.compat.v1.boolean_mask_1/boolean_mask/Squeeze", "model/tf.compat.v1.boolean_mask_1/boolean_mask/GatherV2/axis"], "attr": {"Tparams": {"type": "DT_FLOAT"}, "Taxis": {"type": "DT_INT32"}, "batch_dims": {"i": "0"}, "Tindices": {"type": "DT_INT64"}}}, {"name": "model/tf.math.subtract_1/Sub", "op": "Sub", "input": ["model/tf.__operators__.getitem_5/strided_slice", "model/tf.math.truediv/truediv"], "attr": {"T": {"type": "DT_FLOAT"}}}, {"name": "model/tf.__operators__.add_1/AddV2", "op": "AddV2", "input": ["model/tf.__operators__.getitem_7/strided_slice", "model/tf.math.truediv_1/truediv"], "attr": {"T": {"type": "DT_FLOAT"}}}, {"name": "model/tf.concat_1/concat", "op": "ConcatV2", "input": ["model/tf.math.subtract_1/Sub", "model/tf.__operators__.add_1/AddV2", "model/tf.math.subtract_2/Sub"], "attr": {"N": {"i": "2"}, "Tidx": {"type": "DT_INT32"}, "T": {"type": "DT_FLOAT"}}}, {"name": "model/tf.reshape/Reshape", "op": "Reshape", "input": ["model/tf.concat_1/concat", "model/tf.reshape/Reshape/shape"], "attr": {"T": {"type": "DT_FLOAT"}, "Tshape": {"type": "DT_INT32"}}}, {"name": "model/tf.broadcast_to/BroadcastTo", "op": "BroadcastTo", "input": ["model/tf.reshape/Reshape", "model/tf.broadcast_to/BroadcastTo/shape"], "attr": {"Tidx": {"type": "DT_INT32"}, "T": {"type": "DT_FLOAT"}}}, {"name": "model/tf.__operators__.getitem_11/strided_slice", "op": "StridedSlice", "input": ["model/tf.broadcast_to/BroadcastTo", "model/tf.__operators__.getitem_11/strided_slice/stack", "model/tf.__operators__.getitem_11/strided_slice/stack_1", "model/tf.__operators__.getitem_11/strided_slice/stack_2"], "attr": {"shrink_axis_mask": {"i": "0"}, "new_axis_mask": {"i": "0"}, "ellipsis_mask": {"i": "0"}, "T": {"type": "DT_FLOAT"}, "end_mask": {"i": "3"}, "begin_mask": {"i": "1"}, "Index": {"type": "DT_INT32"}}}, {"name": "model/tf.reshape_2/Reshape", "op": "Reshape", "input": ["model/tf.__operators__.getitem_11/strided_slice", "model/tf.reshape_2/Reshape/shape"], "attr": {"Tshape": {"type": "DT_INT32"}, "T": {"type": "DT_FLOAT"}}}, {"name": "model/tf.compat.v1.boolean_mask/boolean_mask/GatherV2", "op": "GatherV2", "input": ["model/tf.reshape_2/Reshape", "model/tf.compat.v1.boolean_mask/boolean_mask/Squeeze", "model/tf.compat.v1.boolean_mask/boolean_mask/GatherV2/axis"], "attr": {"Tindices": {"type": "DT_INT64"}, "Tparams": {"type": "DT_FLOAT"}, "batch_dims": {"i": "0"}, "Taxis": {"type": "DT_INT32"}}}, {"name": "model/tf.math.reduce_max/Max", "op": "Max", "input": ["model/tf.compat.v1.boolean_mask/boolean_mask/GatherV2", "model/tf.math.reduce_max/Const"], "attr": {"keep_dims": {"b": false}, "Tidx": {"type": "DT_INT32"}, "T": {"type": "DT_FLOAT"}}}, {"name": "model/tf.__operators__.add_2/AddV2", "op": "AddV2", "input": ["model/tf.math.reduce_max/Max", "model/tf.__operators__.add_2/y"], "attr": {"T": {"type": "DT_FLOAT"}}}, {"name": "model/tf.math.multiply_4/Mul", "op": "Mul", "input": ["model/tf.compat.v1.boolean_mask_2/boolean_mask/GatherV2", "model/tf.__operators__.add_2/AddV2"], "attr": {"T": {"type": "DT_FLOAT"}}}, {"name": "model/tf.__operators__.getitem_14/strided_slice", "op": "StridedSlice", "input": ["model/tf.math.multiply_4/Mul", "model/tf.__operators__.getitem_14/strided_slice/stack", "model/tf.__operators__.getitem_14/strided_slice/stack_1", "model/tf.__operators__.getitem_14/strided_slice/stack_2"], "attr": {"Index": {"type": "DT_INT32"}, "begin_mask": {"i": "1"}, "T": {"type": "DT_FLOAT"}, "ellipsis_mask": {"i": "0"}, "new_axis_mask": {"i": "2"}, "shrink_axis_mask": {"i": "0"}, "end_mask": {"i": "1"}}}, {"name": "model/tf.__operators__.add_3/AddV2", "op": "AddV2", "input": ["model/tf.compat.v1.boolean_mask/boolean_mask/GatherV2", "model/tf.__operators__.getitem_14/strided_slice"], "attr": {"T": {"type": "DT_FLOAT"}}}, {"name": "model/tf.image.non_max_suppression/non_max_suppression/NonMaxSuppressionV3", "op": "NonMaxSuppressionV3", "input": ["model/tf.__operators__.add_3/AddV2", "model/tf.compat.v1.boolean_mask_1/boolean_mask/GatherV2", "model/tf.image.non_max_suppression/non_max_suppression/NonMaxSuppressionV3/max_output_size", "model/tf.image.non_max_suppression/non_max_suppression/iou_threshold", "model/tf.image.non_max_suppression/non_max_suppression/score_threshold"], "attr": {"T": {"type": "DT_FLOAT"}, "T_threshold": {"type": "DT_FLOAT"}}}, {"name": "model/tf.compat.v1.gather/GatherV2", "op": "GatherV2", "input": ["model/tf.compat.v1.boolean_mask/boolean_mask/GatherV2", "model/tf.image.non_max_suppression/non_max_suppression/NonMaxSuppressionV3", "model/tf.compat.v1.gather/GatherV2/axis"], "attr": {"batch_dims": {"i": "0"}, "Tparams": {"type": "DT_FLOAT"}, "Tindices": {"type": "DT_INT32"}, "Taxis": {"type": "DT_INT32"}}}, {"name": "model/tf.compat.v1.gather_2/GatherV2", "op": "GatherV2", "input": ["model/tf.compat.v1.boolean_mask_2/boolean_mask/GatherV2", "model/tf.image.non_max_suppression/non_max_suppression/NonMaxSuppressionV3", "model/tf.compat.v1.gather_2/GatherV2/axis"], "attr": {"Taxis": {"type": "DT_INT32"}, "batch_dims": {"i": "0"}, "Tindices": {"type": "DT_INT32"}, "Tparams": {"type": "DT_FLOAT"}}}, {"name": "model/tf.compat.v1.gather_1/GatherV2", "op": "GatherV2", "input": ["model/tf.compat.v1.boolean_mask_1/boolean_mask/GatherV2", "model/tf.image.non_max_suppression/non_max_suppression/NonMaxSuppressionV3", "model/tf.compat.v1.gather_1/GatherV2/axis"], "attr": {"Taxis": {"type": "DT_INT32"}, "Tparams": {"type": "DT_FLOAT"}, "Tindices": {"type": "DT_INT32"}, "batch_dims": {"i": "0"}}}, {"name": "model/tf.expand_dims_1/ExpandDims", "op": "ExpandDims", "input": ["model/tf.compat.v1.gather_2/GatherV2", "model/tf.expand_dims_1/ExpandDims/dim"], "attr": {"T": {"type": "DT_FLOAT"}, "Tdim": {"type": "DT_INT32"}}}, {"name": "model/tf.expand_dims/ExpandDims", "op": "ExpandDims", "input": ["model/tf.compat.v1.gather_1/GatherV2", "model/tf.expand_dims/ExpandDims/dim"], "attr": {"T": {"type": "DT_FLOAT"}, "Tdim": {"type": "DT_INT32"}}}, {"name": "model/concatenate/concat", "op": "ConcatV2", "input": ["model/tf.compat.v1.gather/GatherV2", "model/tf.expand_dims/ExpandDims", "model/tf.expand_dims_1/ExpandDims", "model/concatenate/concat/axis"], "attr": {"N": {"i": "3"}, "Tidx": {"type": "DT_INT32"}, "T": {"type": "DT_FLOAT"}}}, {"name": "Identity", "op": "Identity", "input": ["model/concatenate/concat"], "attr": {"T": {"type": "DT_FLOAT"}}}], "library": {}, "versions": {"producer": 808}}, "weightsManifest": [{"paths": ["group1-shard1of2.bin", "group1-shard2of2.bin"], "weights": [{"name": "model/tf.compat.v1.gather/GatherV2/axis", "shape": [], "dtype": "int32"}, {"name": "model/tf.compat.v1.gather_1/GatherV2/axis", "shape": [], "dtype": "int32"}, {"name": "model/tf.expand_dims/ExpandDims/dim", "shape": [], "dtype": "int32"}, {"name": "model/tf.compat.v1.boolean_mask_2/boolean_mask/Reshape", "shape": [11640], "dtype": "float32", "quantization": {"dtype": "float16", "original_dtype": "float32"}}, {"name": "model/tf.compat.v1.boolean_mask_2/boolean_mask/GatherV2/axis", "shape": [], "dtype": "int32"}, {"name": "model/tf.__operators__.getitem_5/strided_slice/stack", "shape": [2], "dtype": "int32"}, {"name": "model/tf.__operators__.getitem_5/strided_slice/stack_1", "shape": [2], "dtype": "int32"}, {"name": "model/tf.__operators__.getitem_5/strided_slice/stack_2", "shape": [2], "dtype": "int32"}, {"name": "model/tf.__operators__.getitem_6/strided_slice/stack", "shape": [2], "dtype": "int32"}, {"name": "model/tf.__operators__.getitem_6/strided_slice/stack_1", "shape": [2], "dtype": "int32"}, {"name": "model/tf.__operators__.getitem_6/strided_slice/stack_2", "shape": [2], "dtype": "int32"}, {"name": "ConstantFolding/model/tf.math.truediv/truediv_recip", "shape": [], "dtype": "float32", "quantization": {"dtype": "float16", "original_dtype": "float32"}}, {"name": "model/tf.__operators__.getitem_7/strided_slice/stack", "shape": [2], "dtype": "int32"}, {"name": "model/tf.__operators__.getitem_7/strided_slice/stack_1", "shape": [2], "dtype": "int32"}, {"name": "model/tf.__operators__.getitem_7/strided_slice/stack_2", "shape": [2], "dtype": "int32"}, {"name": "model/tf.__operators__.getitem_3/strided_slice/stack", "shape": [2], "dtype": "int32"}, {"name": "model/tf.__operators__.getitem_3/strided_slice/stack_1", "shape": [2], "dtype": "int32"}, {"name": "model/tf.__operators__.getitem_3/strided_slice/stack_2", "shape": [2], "dtype": "int32"}, {"name": "model/tf.math.multiply/Mul", "shape": [1, 3880, 2], "dtype": "float32", "quantization": {"dtype": "float16", "original_dtype": "float32"}}, {"name": "model/tf.__operators__.add/AddV2/y", "shape": [1, 3880, 2], "dtype": "float32", "quantization": {"dtype": "float16", "original_dtype": "float32"}}, {"name": "model/tf.__operators__.getitem_1/strided_slice/stack", "shape": [2], "dtype": "int32"}, {"name": "model/tf.__operators__.getitem_1/strided_slice/stack_1", "shape": [2], "dtype": "int32"}, {"name": "model/tf.__operators__.getitem_1/strided_slice/stack_2", "shape": [2], "dtype": "int32"}, {"name": "model/tf.__operators__.getitem_4/strided_slice/stack", "shape": [2], "dtype": "int32"}, {"name": "model/tf.__operators__.getitem_4/strided_slice/stack_1", "shape": [2], "dtype": "int32"}, {"name": "model/tf.__operators__.getitem_4/strided_slice/stack_2", "shape": [2], "dtype": "int32"}, {"name": "model/tf.math.multiply_2/Mul/y", "shape": [], "dtype": "float32", "quantization": {"dtype": "float16", "original_dtype": "float32"}}, {"name": "model/tf.math.multiply_3/Mul/y", "shape": [1, 3880, 2], "dtype": "float32", "quantization": {"dtype": "float16", "original_dtype": "float32"}}, {"name": "model/tf.math.subtract/Sub", "shape": [], "dtype": "int32"}, {"name": "model/tf.__operators__.getitem_8/strided_slice/stack", "shape": [2], "dtype": "int32"}, {"name": "model/tf.__operators__.getitem_8/strided_slice/stack_1", "shape": [2], "dtype": "int32"}, {"name": "model/tf.__operators__.getitem_8/strided_slice/stack_2", "shape": [2], "dtype": "int32"}, {"name": "ConstantFolding/model/tf.math.truediv_1/truediv_recip", "shape": [], "dtype": "float32", "quantization": {"dtype": "float16", "original_dtype": "float32"}}, {"name": "model/tf.math.subtract_2/Sub", "shape": [], "dtype": "int32"}, {"name": "model/tf.reshape/Reshape/shape", "shape": [3], "dtype": "int32"}, {"name": "model/tf.broadcast_to/BroadcastTo/shape", "shape": [3], "dtype": "int32"}, {"name": "model/tf.__operators__.getitem_11/strided_slice/stack", "shape": [2], "dtype": "int32"}, {"name": "model/tf.__operators__.getitem_11/strided_slice/stack_1", "shape": [2], "dtype": "int32"}, {"name": "model/tf.__operators__.getitem_11/strided_slice/stack_2", "shape": [2], "dtype": "int32"}, {"name": "model/tf.reshape_2/Reshape/shape", "shape": [2], "dtype": "int32"}, {"name": "model/tf.compat.v1.boolean_mask/boolean_mask/GatherV2/axis", "shape": [], "dtype": "int32"}, {"name": "model/tf.math.reduce_max/Const", "shape": [2], "dtype": "int32"}, {"name": "model/tf.__operators__.add_2/y", "shape": [], "dtype": "float32", "quantization": {"dtype": "float16", "original_dtype": "float32"}}, {"name": "model/tf.__operators__.getitem_14/strided_slice/stack", "shape": [2], "dtype": "int32"}, {"name": "model/tf.__operators__.getitem_14/strided_slice/stack_1", "shape": [2], "dtype": "int32"}, {"name": "model/tf.__operators__.getitem_14/strided_slice/stack_2", "shape": [2], "dtype": "int32"}, {"name": "model/block3b_add/add_mbox_loc_1/separable_conv2d/ReadVariableOp", "shape": [3, 3, 40, 1], "dtype": "float32", "quantization": {"dtype": "float16", "original_dtype": "float32"}}, {"name": "model/block3b_add/add_mbox_loc_1/separable_conv2d/ReadVariableOp_1", "shape": [1, 1, 40, 8], "dtype": "float32", "quantization": {"dtype": "float16", "original_dtype": "float32"}}, {"name": "model/block3b_add/add_mbox_loc_1/BiasAdd/ReadVariableOp", "shape": [8], "dtype": "float32", "quantization": {"dtype": "float16", "original_dtype": "float32"}}, {"name": "model/block3b_add/add_mbox_loc_flat/Const", "shape": [2], "dtype": "int32"}, {"name": "model/block5c_add/add_mbox_loc_1/separable_conv2d/ReadVariableOp", "shape": [3, 3, 112, 1], "dtype": "float32", "quantization": {"dtype": "float16", "original_dtype": "float32"}}, {"name": "model/block5c_add/add_mbox_loc_1/separable_conv2d/ReadVariableOp_1", "shape": [1, 1, 112, 8], "dtype": "float32", "quantization": {"dtype": "float16", "original_dtype": "float32"}}, {"name": "model/block5c_add/add_mbox_loc_1/BiasAdd/ReadVariableOp", "shape": [8], "dtype": "float32", "quantization": {"dtype": "float16", "original_dtype": "float32"}}, {"name": "model/block5c_add/add_mbox_loc_flat/Const", "shape": [2], "dtype": "int32"}, {"name": "model/block7a_project_bn/FusedBatchNormV3_mbox_loc_1/separable_conv2d/ReadVariableOp", "shape": [3, 3, 320, 1], "dtype": "float32", "quantization": {"dtype": "float16", "original_dtype": "float32"}}, {"name": "model/block7a_project_bn/FusedBatchNormV3_mbox_loc_1/separable_conv2d/ReadVariableOp_1", "shape": [1, 1, 320, 8], "dtype": "float32", "quantization": {"dtype": "float16", "original_dtype": "float32"}}, {"name": "model/block7a_project_bn/FusedBatchNormV3_mbox_loc_1/BiasAdd/ReadVariableOp", "shape": [8], "dtype": "float32", "quantization": {"dtype": "float16", "original_dtype": "float32"}}, {"name": "model/block7a_project_bn/FusedBatchNormV3_mbox_loc_flat/Const", "shape": [2], "dtype": "int32"}, {"name": "model/re_lu_1/Relu6_mbox_loc_1/separable_conv2d/ReadVariableOp", "shape": [3, 3, 128, 1], "dtype": "float32", "quantization": {"dtype": "float16", "original_dtype": "float32"}}, {"name": "model/re_lu_1/Relu6_mbox_loc_1/separable_conv2d/ReadVariableOp_1", "shape": [1, 1, 128, 8], "dtype": "float32", "quantization": {"dtype": "float16", "original_dtype": "float32"}}, {"name": "model/re_lu_1/Relu6_mbox_loc_1/BiasAdd/ReadVariableOp", "shape": [8], "dtype": "float32", "quantization": {"dtype": "float16", "original_dtype": "float32"}}, {"name": "model/re_lu_1/Relu6_mbox_loc_flat/Const", "shape": [2], "dtype": "int32"}, {"name": "model/re_lu_3/Relu6_mbox_loc_1/separable_conv2d/ReadVariableOp", "shape": [3, 3, 128, 1], "dtype": "float32", "quantization": {"dtype": "float16", "original_dtype": "float32"}}, {"name": "model/re_lu_3/Relu6_mbox_loc_1/separable_conv2d/ReadVariableOp_1", "shape": [1, 1, 128, 8], "dtype": "float32", "quantization": {"dtype": "float16", "original_dtype": "float32"}}, {"name": "model/re_lu_3/Relu6_mbox_loc_1/BiasAdd/ReadVariableOp", "shape": [8], "dtype": "float32", "quantization": {"dtype": "float16", "original_dtype": "float32"}}, {"name": "model/re_lu_3/Relu6_mbox_loc_flat/Const", "shape": [2], "dtype": "int32"}, {"name": "model/re_lu_5/Relu6_mbox_loc_1/separable_conv2d/ReadVariableOp", "shape": [3, 3, 128, 1], "dtype": "float32", "quantization": {"dtype": "float16", "original_dtype": "float32"}}, {"name": "model/re_lu_5/Relu6_mbox_loc_1/separable_conv2d/ReadVariableOp_1", "shape": [1, 1, 128, 8], "dtype": "float32", "quantization": {"dtype": "float16", "original_dtype": "float32"}}, {"name": "model/re_lu_5/Relu6_mbox_loc_1/BiasAdd/ReadVariableOp", "shape": [8], "dtype": "float32", "quantization": {"dtype": "float16", "original_dtype": "float32"}}, {"name": "model/re_lu_5/Relu6_mbox_loc_flat/Const", "shape": [2], "dtype": "int32"}, {"name": "model/mbox_loc/concat/axis", "shape": [], "dtype": "int32"}, {"name": "model/mbox_loc_final/strided_slice/stack", "shape": [1], "dtype": "int32"}, {"name": "model/mbox_loc_final/strided_slice/stack_1", "shape": [1], "dtype": "int32"}, {"name": "model/mbox_loc_final/strided_slice/stack_2", "shape": [1], "dtype": "int32"}, {"name": "model/mbox_loc_final/Reshape/shape/1", "shape": [], "dtype": "int32"}, {"name": "model/mbox_loc_final/Reshape/shape/2", "shape": [], "dtype": "int32"}, {"name": "model/block3b_add/add_mbox_conf_1/separable_conv2d/ReadVariableOp", "shape": [3, 3, 40, 1], "dtype": "float32", "quantization": {"dtype": "float16", "original_dtype": "float32"}}, {"name": "model/block3b_add/add_mbox_conf_1/separable_conv2d/ReadVariableOp_1", "shape": [1, 1, 40, 8], "dtype": "float32", "quantization": {"dtype": "float16", "original_dtype": "float32"}}, {"name": "model/block3b_add/add_mbox_conf_1/BiasAdd/ReadVariableOp", "shape": [8], "dtype": "float32", "quantization": {"dtype": "float16", "original_dtype": "float32"}}, {"name": "model/block3b_add/add_mbox_conf_flat/Const", "shape": [2], "dtype": "int32"}, {"name": "model/block5c_add/add_mbox_conf_1/separable_conv2d/ReadVariableOp", "shape": [3, 3, 112, 1], "dtype": "float32", "quantization": {"dtype": "float16", "original_dtype": "float32"}}, {"name": "model/block5c_add/add_mbox_conf_1/separable_conv2d/ReadVariableOp_1", "shape": [1, 1, 112, 8], "dtype": "float32", "quantization": {"dtype": "float16", "original_dtype": "float32"}}, {"name": "model/block5c_add/add_mbox_conf_1/BiasAdd/ReadVariableOp", "shape": [8], "dtype": "float32", "quantization": {"dtype": "float16", "original_dtype": "float32"}}, {"name": "model/block5c_add/add_mbox_conf_flat/Const", "shape": [2], "dtype": "int32"}, {"name": "model/block7a_project_bn/FusedBatchNormV3_mbox_conf_1/separable_conv2d/ReadVariableOp", "shape": [3, 3, 320, 1], "dtype": "float32", "quantization": {"dtype": "float16", "original_dtype": "float32"}}, {"name": "model/block7a_project_bn/FusedBatchNormV3_mbox_conf_1/separable_conv2d/ReadVariableOp_1", "shape": [1, 1, 320, 8], "dtype": "float32", "quantization": {"dtype": "float16", "original_dtype": "float32"}}, {"name": "model/block7a_project_bn/FusedBatchNormV3_mbox_conf_1/BiasAdd/ReadVariableOp", "shape": [8], "dtype": "float32", "quantization": {"dtype": "float16", "original_dtype": "float32"}}, {"name": "model/block7a_project_bn/FusedBatchNormV3_mbox_conf_flat/Const", "shape": [2], "dtype": "int32"}, {"name": "model/re_lu_1/Relu6_mbox_conf_1/separable_conv2d/ReadVariableOp", "shape": [3, 3, 128, 1], "dtype": "float32", "quantization": {"dtype": "float16", "original_dtype": "float32"}}, {"name": "model/re_lu_1/Relu6_mbox_conf_1/separable_conv2d/ReadVariableOp_1", "shape": [1, 1, 128, 8], "dtype": "float32", "quantization": {"dtype": "float16", "original_dtype": "float32"}}, {"name": "model/re_lu_1/Relu6_mbox_conf_1/BiasAdd/ReadVariableOp", "shape": [8], "dtype": "float32", "quantization": {"dtype": "float16", "original_dtype": "float32"}}, {"name": "model/re_lu_1/Relu6_mbox_conf_flat/Const", "shape": [2], "dtype": "int32"}, {"name": "model/re_lu_3/Relu6_mbox_conf_1/separable_conv2d/ReadVariableOp", "shape": [3, 3, 128, 1], "dtype": "float32", "quantization": {"dtype": "float16", "original_dtype": "float32"}}, {"name": "model/re_lu_3/Relu6_mbox_conf_1/separable_conv2d/ReadVariableOp_1", "shape": [1, 1, 128, 8], "dtype": "float32", "quantization": {"dtype": "float16", "original_dtype": "float32"}}, {"name": "model/re_lu_3/Relu6_mbox_conf_1/BiasAdd/ReadVariableOp", "shape": [8], "dtype": "float32", "quantization": {"dtype": "float16", "original_dtype": "float32"}}, {"name": "model/re_lu_3/Relu6_mbox_conf_flat/Const", "shape": [2], "dtype": "int32"}, {"name": "model/stem_conv_pad/Pad/paddings", "shape": [4, 2], "dtype": "int32"}, {"name": "model/block2a_dwconv_pad/Pad/paddings", "shape": [4, 2], "dtype": "int32"}, {"name": "model/block3a_dwconv_pad/Pad/paddings", "shape": [4, 2], "dtype": "int32"}, {"name": "model/block4a_dwconv_pad/Pad/paddings", "shape": [4, 2], "dtype": "int32"}, {"name": "model/block6a_dwconv_pad/Pad/paddings", "shape": [4, 2], "dtype": "int32"}, {"name": "model/x5_padding/Pad/paddings", "shape": [4, 2], "dtype": "int32"}, {"name": "model/separable_conv2d/separable_conv2d/ReadVariableOp", "shape": [3, 3, 64, 1], "dtype": "float32", "quantization": {"dtype": "float16", "original_dtype": "float32"}}, {"name": "model/separable_conv2d_1/separable_conv2d/ReadVariableOp", "shape": [3, 3, 64, 1], "dtype": "float32", "quantization": {"dtype": "float16", "original_dtype": "float32"}}, {"name": "model/separable_conv2d_2/separable_conv2d/ReadVariableOp", "shape": [3, 3, 64, 1], "dtype": "float32", "quantization": {"dtype": "float16", "original_dtype": "float32"}}, {"name": "model/re_lu_5/Relu6_mbox_conf_1/separable_conv2d/ReadVariableOp", "shape": [3, 3, 128, 1], "dtype": "float32", "quantization": {"dtype": "float16", "original_dtype": "float32"}}, {"name": "model/re_lu_5/Relu6_mbox_conf_1/separable_conv2d/ReadVariableOp_1", "shape": [1, 1, 128, 8], "dtype": "float32", "quantization": {"dtype": "float16", "original_dtype": "float32"}}, {"name": "model/re_lu_5/Relu6_mbox_conf_1/BiasAdd/ReadVariableOp", "shape": [8], "dtype": "float32", "quantization": {"dtype": "float16", "original_dtype": "float32"}}, {"name": "model/re_lu_5/Relu6_mbox_conf_flat/Const", "shape": [2], "dtype": "int32"}, {"name": "model/mbox_conf/concat/axis", "shape": [], "dtype": "int32"}, {"name": "model/mbox_conf_logits/strided_slice/stack", "shape": [1], "dtype": "int32"}, {"name": "model/mbox_conf_logits/strided_slice/stack_1", "shape": [1], "dtype": "int32"}, {"name": "model/mbox_conf_logits/strided_slice/stack_2", "shape": [1], "dtype": "int32"}, {"name": "model/mbox_conf_logits/Reshape/shape/1", "shape": [], "dtype": "int32"}, {"name": "model/mbox_conf_logits/Reshape/shape/2", "shape": [], "dtype": "int32"}, {"name": "model/predictions/concat/axis", "shape": [], "dtype": "int32"}, {"name": "model/tf.__operators__.getitem/strided_slice/stack", "shape": [1], "dtype": "int32"}, {"name": "model/tf.__operators__.getitem/strided_slice/stack_1", "shape": [1], "dtype": "int32"}, {"name": "model/tf.__operators__.getitem/strided_slice/stack_2", "shape": [1], "dtype": "int32"}, {"name": "model/tf.__operators__.getitem_2/strided_slice/stack", "shape": [2], "dtype": "int32"}, {"name": "model/tf.__operators__.getitem_2/strided_slice/stack_1", "shape": [2], "dtype": "int32"}, {"name": "model/tf.__operators__.getitem_2/strided_slice/stack_2", "shape": [2], "dtype": "int32"}, {"name": "model/tf.__operators__.getitem_12/strided_slice/stack", "shape": [2], "dtype": "int32"}, {"name": "model/tf.__operators__.getitem_12/strided_slice/stack_1", "shape": [2], "dtype": "int32"}, {"name": "model/tf.__operators__.getitem_12/strided_slice/stack_2", "shape": [2], "dtype": "int32"}, {"name": "model/tf.reshape_3/Reshape/shape", "shape": [1], "dtype": "int32"}, {"name": "model/tf.math.greater/Greater/y", "shape": [], "dtype": "float32", "quantization": {"dtype": "float16", "original_dtype": "float32"}}, {"name": "model/tf.compat.v1.boolean_mask_1/boolean_mask/GatherV2/axis", "shape": [], "dtype": "int32"}, {"name": "model/tf.image.non_max_suppression/non_max_suppression/NonMaxSuppressionV3/max_output_size", "shape": [], "dtype": "int32"}, {"name": "model/tf.image.non_max_suppression/non_max_suppression/iou_threshold", "shape": [], "dtype": "float32", "quantization": {"dtype": "float16", "original_dtype": "float32"}}, {"name": "model/tf.image.non_max_suppression/non_max_suppression/score_threshold", "shape": [], "dtype": "float32", "quantization": {"dtype": "float16", "original_dtype": "float32"}}, {"name": "model/tf.compat.v1.gather_2/GatherV2/axis", "shape": [], "dtype": "int32"}, {"name": "model/tf.expand_dims_1/ExpandDims/dim", "shape": [], "dtype": "int32"}, {"name": "model/concatenate/concat/axis", "shape": [], "dtype": "int32"}, {"name": "model/stem_conv/Conv2D_weights", "shape": [3, 3, 3, 32], "dtype": "float32", "quantization": {"dtype": "float16", "original_dtype": "float32"}}, {"name": "model/separable_conv2d_2/separable_conv2d_bn_offset", "shape": [128], "dtype": "float32", "quantization": {"dtype": "float16", "original_dtype": "float32"}}, {"name": "model/stem_conv/Conv2D_bn_offset", "shape": [32], "dtype": "float32", "quantization": {"dtype": "float16", "original_dtype": "float32"}}, {"name": "model/block1a_dwconv/depthwise_weights", "shape": [3, 3, 32, 1], "dtype": "float32", "quantization": {"dtype": "float16", "original_dtype": "float32"}}, {"name": "model/block1a_dwconv/depthwise_bn_offset", "shape": [32], "dtype": "float32", "quantization": {"dtype": "float16", "original_dtype": "float32"}}, {"name": "model/block1a_project_conv/Conv2D_weights", "shape": [1, 1, 32, 16], "dtype": "float32", "quantization": {"dtype": "float16", "original_dtype": "float32"}}, {"name": "model/block1a_project_conv/Conv2D_bn_offset", "shape": [16], "dtype": "float32", "quantization": {"dtype": "float16", "original_dtype": "float32"}}, {"name": "model/block2a_expand_conv/Conv2D_weights", "shape": [1, 1, 16, 96], "dtype": "float32", "quantization": {"dtype": "float16", "original_dtype": "float32"}}, {"name": "model/block2a_expand_conv/Conv2D_bn_offset", "shape": [96], "dtype": "float32", "quantization": {"dtype": "float16", "original_dtype": "float32"}}, {"name": "model/block2a_dwconv/depthwise_weights", "shape": [3, 3, 96, 1], "dtype": "float32", "quantization": {"dtype": "float16", "original_dtype": "float32"}}, {"name": "model/block2a_dwconv/depthwise_bn_offset", "shape": [96], "dtype": "float32", "quantization": {"dtype": "float16", "original_dtype": "float32"}}, {"name": "model/block2a_project_conv/Conv2D_weights", "shape": [1, 1, 96, 24], "dtype": "float32", "quantization": {"dtype": "float16", "original_dtype": "float32"}}, {"name": "model/block2a_project_conv/Conv2D_bn_offset", "shape": [24], "dtype": "float32", "quantization": {"dtype": "float16", "original_dtype": "float32"}}, {"name": "model/block2b_expand_conv/Conv2D_weights", "shape": [1, 1, 24, 144], "dtype": "float32", "quantization": {"dtype": "float16", "original_dtype": "float32"}}, {"name": "model/block2b_expand_conv/Conv2D_bn_offset", "shape": [144], "dtype": "float32", "quantization": {"dtype": "float16", "original_dtype": "float32"}}, {"name": "model/block2b_dwconv/depthwise_weights", "shape": [3, 3, 144, 1], "dtype": "float32", "quantization": {"dtype": "float16", "original_dtype": "float32"}}, {"name": "model/block2b_dwconv/depthwise_bn_offset", "shape": [144], "dtype": "float32", "quantization": {"dtype": "float16", "original_dtype": "float32"}}, {"name": "model/block2b_project_conv/Conv2D_weights", "shape": [1, 1, 144, 24], "dtype": "float32", "quantization": {"dtype": "float16", "original_dtype": "float32"}}, {"name": "model/block2b_project_conv/Conv2D_bn_offset", "shape": [24], "dtype": "float32", "quantization": {"dtype": "float16", "original_dtype": "float32"}}, {"name": "model/block3a_expand_conv/Conv2D_weights", "shape": [1, 1, 24, 144], "dtype": "float32", "quantization": {"dtype": "float16", "original_dtype": "float32"}}, {"name": "model/block3a_expand_conv/Conv2D_bn_offset", "shape": [144], "dtype": "float32", "quantization": {"dtype": "float16", "original_dtype": "float32"}}, {"name": "model/block3a_dwconv/depthwise_weights", "shape": [5, 5, 144, 1], "dtype": "float32", "quantization": {"dtype": "float16", "original_dtype": "float32"}}, {"name": "model/block3a_dwconv/depthwise_bn_offset", "shape": [144], "dtype": "float32", "quantization": {"dtype": "float16", "original_dtype": "float32"}}, {"name": "model/block3a_project_conv/Conv2D_weights", "shape": [1, 1, 144, 40], "dtype": "float32", "quantization": {"dtype": "float16", "original_dtype": "float32"}}, {"name": "model/block3a_project_conv/Conv2D_bn_offset", "shape": [40], "dtype": "float32", "quantization": {"dtype": "float16", "original_dtype": "float32"}}, {"name": "model/block3b_expand_conv/Conv2D_weights", "shape": [1, 1, 40, 240], "dtype": "float32", "quantization": {"dtype": "float16", "original_dtype": "float32"}}, {"name": "model/block3b_expand_conv/Conv2D_bn_offset", "shape": [240], "dtype": "float32", "quantization": {"dtype": "float16", "original_dtype": "float32"}}, {"name": "model/block3b_dwconv/depthwise_weights", "shape": [5, 5, 240, 1], "dtype": "float32", "quantization": {"dtype": "float16", "original_dtype": "float32"}}, {"name": "model/block3b_dwconv/depthwise_bn_offset", "shape": [240], "dtype": "float32", "quantization": {"dtype": "float16", "original_dtype": "float32"}}, {"name": "model/block3b_project_conv/Conv2D_weights", "shape": [1, 1, 240, 40], "dtype": "float32", "quantization": {"dtype": "float16", "original_dtype": "float32"}}, {"name": "model/block3b_project_conv/Conv2D_bn_offset", "shape": [40], "dtype": "float32", "quantization": {"dtype": "float16", "original_dtype": "float32"}}, {"name": "model/block4a_expand_conv/Conv2D_weights", "shape": [1, 1, 40, 240], "dtype": "float32", "quantization": {"dtype": "float16", "original_dtype": "float32"}}, {"name": "model/block4a_expand_conv/Conv2D_bn_offset", "shape": [240], "dtype": "float32", "quantization": {"dtype": "float16", "original_dtype": "float32"}}, {"name": "model/block4a_dwconv/depthwise_weights", "shape": [3, 3, 240, 1], "dtype": "float32", "quantization": {"dtype": "float16", "original_dtype": "float32"}}, {"name": "model/block4a_dwconv/depthwise_bn_offset", "shape": [240], "dtype": "float32", "quantization": {"dtype": "float16", "original_dtype": "float32"}}, {"name": "model/block4a_project_conv/Conv2D_weights", "shape": [1, 1, 240, 80], "dtype": "float32", "quantization": {"dtype": "float16", "original_dtype": "float32"}}, {"name": "model/block4a_project_conv/Conv2D_bn_offset", "shape": [80], "dtype": "float32", "quantization": {"dtype": "float16", "original_dtype": "float32"}}, {"name": "model/block4b_expand_conv/Conv2D_weights", "shape": [1, 1, 80, 480], "dtype": "float32", "quantization": {"dtype": "float16", "original_dtype": "float32"}}, {"name": "model/block4b_expand_conv/Conv2D_bn_offset", "shape": [480], "dtype": "float32", "quantization": {"dtype": "float16", "original_dtype": "float32"}}, {"name": "model/block4b_dwconv/depthwise_weights", "shape": [3, 3, 480, 1], "dtype": "float32", "quantization": {"dtype": "float16", "original_dtype": "float32"}}, {"name": "model/block4b_dwconv/depthwise_bn_offset", "shape": [480], "dtype": "float32", "quantization": {"dtype": "float16", "original_dtype": "float32"}}, {"name": "model/block4b_project_conv/Conv2D_weights", "shape": [1, 1, 480, 80], "dtype": "float32", "quantization": {"dtype": "float16", "original_dtype": "float32"}}, {"name": "model/block4b_project_conv/Conv2D_bn_offset", "shape": [80], "dtype": "float32", "quantization": {"dtype": "float16", "original_dtype": "float32"}}, {"name": "model/block4c_expand_conv/Conv2D_weights", "shape": [1, 1, 80, 480], "dtype": "float32", "quantization": {"dtype": "float16", "original_dtype": "float32"}}, {"name": "model/block4c_expand_conv/Conv2D_bn_offset", "shape": [480], "dtype": "float32", "quantization": {"dtype": "float16", "original_dtype": "float32"}}, {"name": "model/block4c_dwconv/depthwise_weights", "shape": [3, 3, 480, 1], "dtype": "float32", "quantization": {"dtype": "float16", "original_dtype": "float32"}}, {"name": "model/block4c_dwconv/depthwise_bn_offset", "shape": [480], "dtype": "float32", "quantization": {"dtype": "float16", "original_dtype": "float32"}}, {"name": "model/block4c_project_conv/Conv2D_weights", "shape": [1, 1, 480, 80], "dtype": "float32", "quantization": {"dtype": "float16", "original_dtype": "float32"}}, {"name": "model/block4c_project_conv/Conv2D_bn_offset", "shape": [80], "dtype": "float32", "quantization": {"dtype": "float16", "original_dtype": "float32"}}, {"name": "model/block5a_expand_conv/Conv2D_weights", "shape": [1, 1, 80, 480], "dtype": "float32", "quantization": {"dtype": "float16", "original_dtype": "float32"}}, {"name": "model/block5a_expand_conv/Conv2D_bn_offset", "shape": [480], "dtype": "float32", "quantization": {"dtype": "float16", "original_dtype": "float32"}}, {"name": "model/block5a_dwconv/depthwise_weights", "shape": [5, 5, 480, 1], "dtype": "float32", "quantization": {"dtype": "float16", "original_dtype": "float32"}}, {"name": "model/block5a_dwconv/depthwise_bn_offset", "shape": [480], "dtype": "float32", "quantization": {"dtype": "float16", "original_dtype": "float32"}}, {"name": "model/block5a_project_conv/Conv2D_weights", "shape": [1, 1, 480, 112], "dtype": "float32", "quantization": {"dtype": "float16", "original_dtype": "float32"}}, {"name": "model/block5a_project_conv/Conv2D_bn_offset", "shape": [112], "dtype": "float32", "quantization": {"dtype": "float16", "original_dtype": "float32"}}, {"name": "model/block5b_expand_conv/Conv2D_weights", "shape": [1, 1, 112, 672], "dtype": "float32", "quantization": {"dtype": "float16", "original_dtype": "float32"}}, {"name": "model/block5b_expand_conv/Conv2D_bn_offset", "shape": [672], "dtype": "float32", "quantization": {"dtype": "float16", "original_dtype": "float32"}}, {"name": "model/block5b_dwconv/depthwise_weights", "shape": [5, 5, 672, 1], "dtype": "float32", "quantization": {"dtype": "float16", "original_dtype": "float32"}}, {"name": "model/block5b_dwconv/depthwise_bn_offset", "shape": [672], "dtype": "float32", "quantization": {"dtype": "float16", "original_dtype": "float32"}}, {"name": "model/block5b_project_conv/Conv2D_weights", "shape": [1, 1, 672, 112], "dtype": "float32", "quantization": {"dtype": "float16", "original_dtype": "float32"}}, {"name": "model/block5b_project_conv/Conv2D_bn_offset", "shape": [112], "dtype": "float32", "quantization": {"dtype": "float16", "original_dtype": "float32"}}, {"name": "model/block5c_expand_conv/Conv2D_weights", "shape": [1, 1, 112, 672], "dtype": "float32", "quantization": {"dtype": "float16", "original_dtype": "float32"}}, {"name": "model/block5c_expand_conv/Conv2D_bn_offset", "shape": [672], "dtype": "float32", "quantization": {"dtype": "float16", "original_dtype": "float32"}}, {"name": "model/block5c_dwconv/depthwise_weights", "shape": [5, 5, 672, 1], "dtype": "float32", "quantization": {"dtype": "float16", "original_dtype": "float32"}}, {"name": "model/block5c_dwconv/depthwise_bn_offset", "shape": [672], "dtype": "float32", "quantization": {"dtype": "float16", "original_dtype": "float32"}}, {"name": "model/block5c_project_conv/Conv2D_weights", "shape": [1, 1, 672, 112], "dtype": "float32", "quantization": {"dtype": "float16", "original_dtype": "float32"}}, {"name": "model/block5c_project_conv/Conv2D_bn_offset", "shape": [112], "dtype": "float32", "quantization": {"dtype": "float16", "original_dtype": "float32"}}, {"name": "model/block6a_expand_conv/Conv2D_weights", "shape": [1, 1, 112, 672], "dtype": "float32", "quantization": {"dtype": "float16", "original_dtype": "float32"}}, {"name": "model/block6a_expand_conv/Conv2D_bn_offset", "shape": [672], "dtype": "float32", "quantization": {"dtype": "float16", "original_dtype": "float32"}}, {"name": "model/block6a_dwconv/depthwise_weights", "shape": [5, 5, 672, 1], "dtype": "float32", "quantization": {"dtype": "float16", "original_dtype": "float32"}}, {"name": "model/block6a_dwconv/depthwise_bn_offset", "shape": [672], "dtype": "float32", "quantization": {"dtype": "float16", "original_dtype": "float32"}}, {"name": "model/block6a_project_conv/Conv2D_weights", "shape": [1, 1, 672, 192], "dtype": "float32", "quantization": {"dtype": "float16", "original_dtype": "float32"}}, {"name": "model/block6a_project_conv/Conv2D_bn_offset", "shape": [192], "dtype": "float32", "quantization": {"dtype": "float16", "original_dtype": "float32"}}, {"name": "model/block6b_expand_conv/Conv2D_weights", "shape": [1, 1, 192, 1152], "dtype": "float32", "quantization": {"dtype": "float16", "original_dtype": "float32"}}, {"name": "model/block6b_expand_conv/Conv2D_bn_offset", "shape": [1152], "dtype": "float32", "quantization": {"dtype": "float16", "original_dtype": "float32"}}, {"name": "model/block6b_dwconv/depthwise_weights", "shape": [5, 5, 1152, 1], "dtype": "float32", "quantization": {"dtype": "float16", "original_dtype": "float32"}}, {"name": "model/block6b_dwconv/depthwise_bn_offset", "shape": [1152], "dtype": "float32", "quantization": {"dtype": "float16", "original_dtype": "float32"}}, {"name": "model/block6b_project_conv/Conv2D_weights", "shape": [1, 1, 1152, 192], "dtype": "float32", "quantization": {"dtype": "float16", "original_dtype": "float32"}}, {"name": "model/block6b_project_conv/Conv2D_bn_offset", "shape": [192], "dtype": "float32", "quantization": {"dtype": "float16", "original_dtype": "float32"}}, {"name": "model/block6c_expand_conv/Conv2D_weights", "shape": [1, 1, 192, 1152], "dtype": "float32", "quantization": {"dtype": "float16", "original_dtype": "float32"}}, {"name": "model/block6c_expand_conv/Conv2D_bn_offset", "shape": [1152], "dtype": "float32", "quantization": {"dtype": "float16", "original_dtype": "float32"}}, {"name": "model/block6c_dwconv/depthwise_weights", "shape": [5, 5, 1152, 1], "dtype": "float32", "quantization": {"dtype": "float16", "original_dtype": "float32"}}, {"name": "model/block6c_dwconv/depthwise_bn_offset", "shape": [1152], "dtype": "float32", "quantization": {"dtype": "float16", "original_dtype": "float32"}}, {"name": "model/block6c_project_conv/Conv2D_weights", "shape": [1, 1, 1152, 192], "dtype": "float32", "quantization": {"dtype": "float16", "original_dtype": "float32"}}, {"name": "model/block6c_project_conv/Conv2D_bn_offset", "shape": [192], "dtype": "float32", "quantization": {"dtype": "float16", "original_dtype": "float32"}}, {"name": "model/block6d_expand_conv/Conv2D_weights", "shape": [1, 1, 192, 1152], "dtype": "float32", "quantization": {"dtype": "float16", "original_dtype": "float32"}}, {"name": "model/block6d_expand_conv/Conv2D_bn_offset", "shape": [1152], "dtype": "float32", "quantization": {"dtype": "float16", "original_dtype": "float32"}}, {"name": "model/block6d_dwconv/depthwise_weights", "shape": [5, 5, 1152, 1], "dtype": "float32", "quantization": {"dtype": "float16", "original_dtype": "float32"}}, {"name": "model/block6d_dwconv/depthwise_bn_offset", "shape": [1152], "dtype": "float32", "quantization": {"dtype": "float16", "original_dtype": "float32"}}, {"name": "model/block6d_project_conv/Conv2D_weights", "shape": [1, 1, 1152, 192], "dtype": "float32", "quantization": {"dtype": "float16", "original_dtype": "float32"}}, {"name": "model/block6d_project_conv/Conv2D_bn_offset", "shape": [192], "dtype": "float32", "quantization": {"dtype": "float16", "original_dtype": "float32"}}, {"name": "model/block7a_expand_conv/Conv2D_weights", "shape": [1, 1, 192, 1152], "dtype": "float32", "quantization": {"dtype": "float16", "original_dtype": "float32"}}, {"name": "model/block7a_expand_conv/Conv2D_bn_offset", "shape": [1152], "dtype": "float32", "quantization": {"dtype": "float16", "original_dtype": "float32"}}, {"name": "model/block7a_dwconv/depthwise_weights", "shape": [3, 3, 1152, 1], "dtype": "float32", "quantization": {"dtype": "float16", "original_dtype": "float32"}}, {"name": "model/block7a_dwconv/depthwise_bn_offset", "shape": [1152], "dtype": "float32", "quantization": {"dtype": "float16", "original_dtype": "float32"}}, {"name": "model/block7a_project_conv/Conv2D_weights", "shape": [1, 1, 1152, 320], "dtype": "float32", "quantization": {"dtype": "float16", "original_dtype": "float32"}}, {"name": "model/block7a_project_conv/Conv2D_bn_offset", "shape": [320], "dtype": "float32", "quantization": {"dtype": "float16", "original_dtype": "float32"}}, {"name": "model/conv2d/Conv2D_weights", "shape": [1, 1, 320, 64], "dtype": "float32", "quantization": {"dtype": "float16", "original_dtype": "float32"}}, {"name": "model/conv2d/Conv2D_bn_offset", "shape": [64], "dtype": "float32", "quantization": {"dtype": "float16", "original_dtype": "float32"}}, {"name": "model/separable_conv2d/separable_conv2d_weights", "shape": [1, 1, 64, 128], "dtype": "float32", "quantization": {"dtype": "float16", "original_dtype": "float32"}}, {"name": "model/separable_conv2d/separable_conv2d_bn_offset", "shape": [128], "dtype": "float32", "quantization": {"dtype": "float16", "original_dtype": "float32"}}, {"name": "model/conv2d_1/Conv2D_weights", "shape": [1, 1, 128, 64], "dtype": "float32", "quantization": {"dtype": "float16", "original_dtype": "float32"}}, {"name": "model/conv2d_1/Conv2D_bn_offset", "shape": [64], "dtype": "float32", "quantization": {"dtype": "float16", "original_dtype": "float32"}}, {"name": "model/separable_conv2d_1/separable_conv2d_weights", "shape": [1, 1, 64, 128], "dtype": "float32", "quantization": {"dtype": "float16", "original_dtype": "float32"}}, {"name": "model/separable_conv2d_1/separable_conv2d_bn_offset", "shape": [128], "dtype": "float32", "quantization": {"dtype": "float16", "original_dtype": "float32"}}, {"name": "model/conv2d_2/Conv2D_weights", "shape": [1, 1, 128, 64], "dtype": "float32", "quantization": {"dtype": "float16", "original_dtype": "float32"}}, {"name": "model/conv2d_2/Conv2D_bn_offset", "shape": [64], "dtype": "float32", "quantization": {"dtype": "float16", "original_dtype": "float32"}}, {"name": "model/separable_conv2d_2/separable_conv2d_weights", "shape": [1, 1, 64, 128], "dtype": "float32", "quantization": {"dtype": "float16", "original_dtype": "float32"}}]}]}