{"format": "graph-model", "generatedBy": "2.2.0", "convertedBy": "TensorFlow.js Converter v3.18.0", "signature": {"outputs": {"Identity": {"name": "Identity"}}}, "modelTopology": {"node": [{"name": "ConstantFolding/efficientdet/fpn_cells/cell_2/fnode7/add/truediv_recip", "op": "Const", "attr": {"dtype": {"type": "DT_FLOAT"}, "value": {"tensor": {"dtype": "DT_FLOAT", "tensorShape": {}}}}}, {"name": "efficientdet/fpn_cells/cell_2/fnode7/add/strided_slice", "op": "Const", "attr": {"value": {"tensor": {"dtype": "DT_FLOAT", "tensorShape": {}}}, "dtype": {"type": "DT_FLOAT"}}}, {"name": "efficientdet/fpn_cells/cell_2/fnode7/add/strided_slice_1", "op": "Const", "attr": {"dtype": {"type": "DT_FLOAT"}, "value": {"tensor": {"dtype": "DT_FLOAT", "tensorShape": {}}}}}, {"name": "ConstantFolding/efficientdet/fpn_cells/cell_2/fnode6/add/truediv_recip", "op": "Const", "attr": {"value": {"tensor": {"dtype": "DT_FLOAT", "tensorShape": {}}}, "dtype": {"type": "DT_FLOAT"}}}, {"name": "efficientdet/fpn_cells/cell_2/fnode6/add/strided_slice", "op": "Const", "attr": {"dtype": {"type": "DT_FLOAT"}, "value": {"tensor": {"dtype": "DT_FLOAT", "tensorShape": {}}}}}, {"name": "efficientdet/fpn_cells/cell_2/fnode6/add/strided_slice_1", "op": "Const", "attr": {"value": {"tensor": {"dtype": "DT_FLOAT", "tensorShape": {}}}, "dtype": {"type": "DT_FLOAT"}}}, {"name": "efficientdet/fpn_cells/cell_2/fnode6/add/strided_slice_2", "op": "Const", "attr": {"dtype": {"type": "DT_FLOAT"}, "value": {"tensor": {"dtype": "DT_FLOAT", "tensorShape": {}}}}}, {"name": "ConstantFolding/efficientdet/fpn_cells/cell_2/fnode5/add/truediv_recip", "op": "Const", "attr": {"value": {"tensor": {"dtype": "DT_FLOAT", "tensorShape": {}}}, "dtype": {"type": "DT_FLOAT"}}}, {"name": "efficientdet/fpn_cells/cell_2/fnode5/add/strided_slice", "op": "Const", "attr": {"dtype": {"type": "DT_FLOAT"}, "value": {"tensor": {"dtype": "DT_FLOAT", "tensorShape": {}}}}}, {"name": "efficientdet/fpn_cells/cell_2/fnode5/add/strided_slice_1", "op": "Const", "attr": {"dtype": {"type": "DT_FLOAT"}, "value": {"tensor": {"dtype": "DT_FLOAT", "tensorShape": {}}}}}, {"name": "efficientdet/fpn_cells/cell_2/fnode5/add/strided_slice_2", "op": "Const", "attr": {"value": {"tensor": {"dtype": "DT_FLOAT", "tensorShape": {}}}, "dtype": {"type": "DT_FLOAT"}}}, {"name": "ConstantFolding/efficientdet/fpn_cells/cell_2/fnode4/add/truediv_recip", "op": "Const", "attr": {"dtype": {"type": "DT_FLOAT"}, "value": {"tensor": {"dtype": "DT_FLOAT", "tensorShape": {}}}}}, {"name": "efficientdet/fpn_cells/cell_2/fnode4/add/strided_slice", "op": "Const", "attr": {"dtype": {"type": "DT_FLOAT"}, "value": {"tensor": {"dtype": "DT_FLOAT", "tensorShape": {}}}}}, {"name": "efficientdet/fpn_cells/cell_2/fnode4/add/strided_slice_1", "op": "Const", "attr": {"value": {"tensor": {"dtype": "DT_FLOAT", "tensorShape": {}}}, "dtype": {"type": "DT_FLOAT"}}}, {"name": "efficientdet/fpn_cells/cell_2/fnode4/add/strided_slice_2", "op": "Const", "attr": {"dtype": {"type": "DT_FLOAT"}, "value": {"tensor": {"dtype": "DT_FLOAT", "tensorShape": {}}}}}, {"name": "ConstantFolding/efficientdet/fpn_cells/cell_2/fnode3/add/truediv_recip", "op": "Const", "attr": {"dtype": {"type": "DT_FLOAT"}, "value": {"tensor": {"dtype": "DT_FLOAT", "tensorShape": {}}}}}, {"name": "efficientdet/fpn_cells/cell_2/fnode3/add/strided_slice", "op": "Const", "attr": {"dtype": {"type": "DT_FLOAT"}, "value": {"tensor": {"dtype": "DT_FLOAT", "tensorShape": {}}}}}, {"name": "efficientdet/fpn_cells/cell_2/fnode3/add/strided_slice_1", "op": "Const", "attr": {"value": {"tensor": {"dtype": "DT_FLOAT", "tensorShape": {}}}, "dtype": {"type": "DT_FLOAT"}}}, {"name": "ConstantFolding/efficientdet/fpn_cells/cell_2/fnode2/add/truediv_recip", "op": "Const", "attr": {"value": {"tensor": {"dtype": "DT_FLOAT", "tensorShape": {}}}, "dtype": {"type": "DT_FLOAT"}}}, {"name": "efficientdet/fpn_cells/cell_2/fnode2/add/strided_slice", "op": "Const", "attr": {"value": {"tensor": {"dtype": "DT_FLOAT", "tensorShape": {}}}, "dtype": {"type": "DT_FLOAT"}}}, {"name": "efficientdet/fpn_cells/cell_2/fnode2/add/strided_slice_1", "op": "Const", "attr": {"value": {"tensor": {"dtype": "DT_FLOAT", "tensorShape": {}}}, "dtype": {"type": "DT_FLOAT"}}}, {"name": "ConstantFolding/efficientdet/fpn_cells/cell_2/fnode1/add/truediv_recip", "op": "Const", "attr": {"value": {"tensor": {"dtype": "DT_FLOAT", "tensorShape": {}}}, "dtype": {"type": "DT_FLOAT"}}}, {"name": "efficientdet/fpn_cells/cell_2/fnode1/add/strided_slice", "op": "Const", "attr": {"dtype": {"type": "DT_FLOAT"}, "value": {"tensor": {"dtype": "DT_FLOAT", "tensorShape": {}}}}}, {"name": "efficientdet/fpn_cells/cell_2/fnode1/add/strided_slice_1", "op": "Const", "attr": {"dtype": {"type": "DT_FLOAT"}, "value": {"tensor": {"dtype": "DT_FLOAT", "tensorShape": {}}}}}, {"name": "ConstantFolding/efficientdet/fpn_cells/cell_2/fnode0/add/truediv_recip", "op": "Const", "attr": {"value": {"tensor": {"dtype": "DT_FLOAT", "tensorShape": {}}}, "dtype": {"type": "DT_FLOAT"}}}, {"name": "efficientdet/fpn_cells/cell_2/fnode0/add/strided_slice", "op": "Const", "attr": {"value": {"tensor": {"dtype": "DT_FLOAT", "tensorShape": {}}}, "dtype": {"type": "DT_FLOAT"}}}, {"name": "efficientdet/fpn_cells/cell_2/fnode0/add/strided_slice_1", "op": "Const", "attr": {"value": {"tensor": {"dtype": "DT_FLOAT", "tensorShape": {}}}, "dtype": {"type": "DT_FLOAT"}}}, {"name": "ConstantFolding/efficientdet/fpn_cells/cell_1/fnode7/add/truediv_recip", "op": "Const", "attr": {"dtype": {"type": "DT_FLOAT"}, "value": {"tensor": {"dtype": "DT_FLOAT", "tensorShape": {}}}}}, {"name": "efficientdet/fpn_cells/cell_1/fnode7/add/strided_slice", "op": "Const", "attr": {"value": {"tensor": {"dtype": "DT_FLOAT", "tensorShape": {}}}, "dtype": {"type": "DT_FLOAT"}}}, {"name": "efficientdet/fpn_cells/cell_1/fnode7/add/strided_slice_1", "op": "Const", "attr": {"dtype": {"type": "DT_FLOAT"}, "value": {"tensor": {"dtype": "DT_FLOAT", "tensorShape": {}}}}}, {"name": "ConstantFolding/efficientdet/fpn_cells/cell_1/fnode6/add/truediv_recip", "op": "Const", "attr": {"dtype": {"type": "DT_FLOAT"}, "value": {"tensor": {"dtype": "DT_FLOAT", "tensorShape": {}}}}}, {"name": "efficientdet/fpn_cells/cell_1/fnode6/add/strided_slice_1", "op": "Const", "attr": {"value": {"tensor": {"dtype": "DT_FLOAT", "tensorShape": {}}}, "dtype": {"type": "DT_FLOAT"}}}, {"name": "efficientdet/fpn_cells/cell_1/fnode6/add/strided_slice_2", "op": "Const", "attr": {"dtype": {"type": "DT_FLOAT"}, "value": {"tensor": {"dtype": "DT_FLOAT", "tensorShape": {}}}}}, {"name": "ConstantFolding/efficientdet/fpn_cells/cell_1/fnode5/add/truediv_recip", "op": "Const", "attr": {"dtype": {"type": "DT_FLOAT"}, "value": {"tensor": {"dtype": "DT_FLOAT", "tensorShape": {}}}}}, {"name": "efficientdet/fpn_cells/cell_1/fnode5/add/strided_slice", "op": "Const", "attr": {"dtype": {"type": "DT_FLOAT"}, "value": {"tensor": {"dtype": "DT_FLOAT", "tensorShape": {}}}}}, {"name": "efficientdet/fpn_cells/cell_1/fnode5/add/strided_slice_1", "op": "Const", "attr": {"value": {"tensor": {"dtype": "DT_FLOAT", "tensorShape": {}}}, "dtype": {"type": "DT_FLOAT"}}}, {"name": "efficientdet/fpn_cells/cell_1/fnode5/add/strided_slice_2", "op": "Const", "attr": {"dtype": {"type": "DT_FLOAT"}, "value": {"tensor": {"dtype": "DT_FLOAT", "tensorShape": {}}}}}, {"name": "ConstantFolding/efficientdet/fpn_cells/cell_1/fnode4/add/truediv_recip", "op": "Const", "attr": {"value": {"tensor": {"dtype": "DT_FLOAT", "tensorShape": {}}}, "dtype": {"type": "DT_FLOAT"}}}, {"name": "efficientdet/fpn_cells/cell_1/fnode4/add/strided_slice", "op": "Const", "attr": {"value": {"tensor": {"dtype": "DT_FLOAT", "tensorShape": {}}}, "dtype": {"type": "DT_FLOAT"}}}, {"name": "efficientdet/fpn_cells/cell_1/fnode4/add/strided_slice_1", "op": "Const", "attr": {"dtype": {"type": "DT_FLOAT"}, "value": {"tensor": {"dtype": "DT_FLOAT", "tensorShape": {}}}}}, {"name": "efficientdet/fpn_cells/cell_1/fnode4/add/strided_slice_2", "op": "Const", "attr": {"value": {"tensor": {"dtype": "DT_FLOAT", "tensorShape": {}}}, "dtype": {"type": "DT_FLOAT"}}}, {"name": "ConstantFolding/efficientdet/fpn_cells/cell_1/fnode3/add/truediv_recip", "op": "Const", "attr": {"dtype": {"type": "DT_FLOAT"}, "value": {"tensor": {"dtype": "DT_FLOAT", "tensorShape": {}}}}}, {"name": "efficientdet/fpn_cells/cell_1/fnode3/add/strided_slice", "op": "Const", "attr": {"value": {"tensor": {"dtype": "DT_FLOAT", "tensorShape": {}}}, "dtype": {"type": "DT_FLOAT"}}}, {"name": "efficientdet/fpn_cells/cell_1/fnode3/add/strided_slice_1", "op": "Const", "attr": {"value": {"tensor": {"dtype": "DT_FLOAT", "tensorShape": {}}}, "dtype": {"type": "DT_FLOAT"}}}, {"name": "ConstantFolding/efficientdet/fpn_cells/cell_1/fnode2/add/truediv_recip", "op": "Const", "attr": {"dtype": {"type": "DT_FLOAT"}, "value": {"tensor": {"dtype": "DT_FLOAT", "tensorShape": {}}}}}, {"name": "efficientdet/fpn_cells/cell_1/fnode2/add/strided_slice", "op": "Const", "attr": {"value": {"tensor": {"dtype": "DT_FLOAT", "tensorShape": {}}}, "dtype": {"type": "DT_FLOAT"}}}, {"name": "efficientdet/fpn_cells/cell_1/fnode2/add/strided_slice_1", "op": "Const", "attr": {"dtype": {"type": "DT_FLOAT"}, "value": {"tensor": {"dtype": "DT_FLOAT", "tensorShape": {}}}}}, {"name": "ConstantFolding/efficientdet/fpn_cells/cell_1/fnode1/add/truediv_recip", "op": "Const", "attr": {"value": {"tensor": {"dtype": "DT_FLOAT", "tensorShape": {}}}, "dtype": {"type": "DT_FLOAT"}}}, {"name": "efficientdet/fpn_cells/cell_1/fnode1/add/strided_slice", "op": "Const", "attr": {"value": {"tensor": {"dtype": "DT_FLOAT", "tensorShape": {}}}, "dtype": {"type": "DT_FLOAT"}}}, {"name": "ConstantFolding/efficientdet/fpn_cells/cell_1/fnode0/add/truediv_recip", "op": "Const", "attr": {"dtype": {"type": "DT_FLOAT"}, "value": {"tensor": {"dtype": "DT_FLOAT", "tensorShape": {}}}}}, {"name": "efficientdet/fpn_cells/cell_1/fnode0/add/strided_slice", "op": "Const", "attr": {"dtype": {"type": "DT_FLOAT"}, "value": {"tensor": {"dtype": "DT_FLOAT", "tensorShape": {}}}}}, {"name": "efficientdet/fpn_cells/cell_1/fnode0/add/strided_slice_1", "op": "Const", "attr": {"dtype": {"type": "DT_FLOAT"}, "value": {"tensor": {"dtype": "DT_FLOAT", "tensorShape": {}}}}}, {"name": "ConstantFolding/efficientdet/fpn_cells/cell_0/fnode7/add/truediv_recip", "op": "Const", "attr": {"value": {"tensor": {"dtype": "DT_FLOAT", "tensorShape": {}}}, "dtype": {"type": "DT_FLOAT"}}}, {"name": "efficientdet/fpn_cells/cell_0/fnode7/add/strided_slice_1", "op": "Const", "attr": {"dtype": {"type": "DT_FLOAT"}, "value": {"tensor": {"dtype": "DT_FLOAT", "tensorShape": {}}}}}, {"name": "ConstantFolding/efficientdet/fpn_cells/cell_0/fnode6/add/truediv_recip", "op": "Const", "attr": {"dtype": {"type": "DT_FLOAT"}, "value": {"tensor": {"dtype": "DT_FLOAT", "tensorShape": {}}}}}, {"name": "efficientdet/fpn_cells/cell_0/fnode6/add/strided_slice_1", "op": "Const", "attr": {"value": {"tensor": {"dtype": "DT_FLOAT", "tensorShape": {}}}, "dtype": {"type": "DT_FLOAT"}}}, {"name": "efficientdet/fpn_cells/cell_0/fnode6/add/strided_slice_2", "op": "Const", "attr": {"value": {"tensor": {"dtype": "DT_FLOAT", "tensorShape": {}}}, "dtype": {"type": "DT_FLOAT"}}}, {"name": "ConstantFolding/efficientdet/fpn_cells/cell_0/fnode5/add/truediv_recip", "op": "Const", "attr": {"value": {"tensor": {"dtype": "DT_FLOAT", "tensorShape": {}}}, "dtype": {"type": "DT_FLOAT"}}}, {"name": "efficientdet/fpn_cells/cell_0/fnode5/add/strided_slice", "op": "Const", "attr": {"dtype": {"type": "DT_FLOAT"}, "value": {"tensor": {"dtype": "DT_FLOAT", "tensorShape": {}}}}}, {"name": "efficientdet/fpn_cells/cell_0/fnode5/add/strided_slice_2", "op": "Const", "attr": {"value": {"tensor": {"dtype": "DT_FLOAT", "tensorShape": {}}}, "dtype": {"type": "DT_FLOAT"}}}, {"name": "ConstantFolding/efficientdet/fpn_cells/cell_0/fnode4/add/truediv_recip", "op": "Const", "attr": {"dtype": {"type": "DT_FLOAT"}, "value": {"tensor": {"dtype": "DT_FLOAT", "tensorShape": {}}}}}, {"name": "efficientdet/fpn_cells/cell_0/fnode4/add/strided_slice", "op": "Const", "attr": {"value": {"tensor": {"dtype": "DT_FLOAT", "tensorShape": {}}}, "dtype": {"type": "DT_FLOAT"}}}, {"name": "efficientdet/fpn_cells/cell_0/fnode4/add/strided_slice_1", "op": "Const", "attr": {"value": {"tensor": {"dtype": "DT_FLOAT", "tensorShape": {}}}, "dtype": {"type": "DT_FLOAT"}}}, {"name": "efficientdet/fpn_cells/cell_0/fnode4/add/strided_slice_2", "op": "Const", "attr": {"value": {"tensor": {"dtype": "DT_FLOAT", "tensorShape": {}}}, "dtype": {"type": "DT_FLOAT"}}}, {"name": "ConstantFolding/efficientdet/fpn_cells/cell_0/fnode3/add/truediv_recip", "op": "Const", "attr": {"dtype": {"type": "DT_FLOAT"}, "value": {"tensor": {"dtype": "DT_FLOAT", "tensorShape": {}}}}}, {"name": "efficientdet/fpn_cells/cell_0/fnode3/add/strided_slice", "op": "Const", "attr": {"value": {"tensor": {"dtype": "DT_FLOAT", "tensorShape": {}}}, "dtype": {"type": "DT_FLOAT"}}}, {"name": "efficientdet/fpn_cells/cell_0/fnode3/add/strided_slice_1", "op": "Const", "attr": {"dtype": {"type": "DT_FLOAT"}, "value": {"tensor": {"dtype": "DT_FLOAT", "tensorShape": {}}}}}, {"name": "ConstantFolding/efficientdet/fpn_cells/cell_0/fnode2/add/truediv_recip", "op": "Const", "attr": {"value": {"tensor": {"dtype": "DT_FLOAT", "tensorShape": {}}}, "dtype": {"type": "DT_FLOAT"}}}, {"name": "efficientdet/fpn_cells/cell_0/fnode2/add/strided_slice", "op": "Const", "attr": {"dtype": {"type": "DT_FLOAT"}, "value": {"tensor": {"dtype": "DT_FLOAT", "tensorShape": {}}}}}, {"name": "efficientdet/fpn_cells/cell_0/fnode2/add/strided_slice_1", "op": "Const", "attr": {"value": {"tensor": {"dtype": "DT_FLOAT", "tensorShape": {}}}, "dtype": {"type": "DT_FLOAT"}}}, {"name": "ConstantFolding/efficientdet/fpn_cells/cell_0/fnode1/add/truediv_recip", "op": "Const", "attr": {"value": {"tensor": {"dtype": "DT_FLOAT", "tensorShape": {}}}, "dtype": {"type": "DT_FLOAT"}}}, {"name": "efficientdet/fpn_cells/cell_0/fnode1/add/strided_slice", "op": "Const", "attr": {"value": {"tensor": {"dtype": "DT_FLOAT", "tensorShape": {}}}, "dtype": {"type": "DT_FLOAT"}}}, {"name": "ConstantFolding/efficientdet/fpn_cells/cell_0/fnode0/add/truediv_recip", "op": "Const", "attr": {"value": {"tensor": {"dtype": "DT_FLOAT", "tensorShape": {}}}, "dtype": {"type": "DT_FLOAT"}}}, {"name": "efficientdet/fpn_cells/cell_0/fnode0/add/strided_slice", "op": "Const", "attr": {"value": {"tensor": {"dtype": "DT_FLOAT", "tensorShape": {}}}, "dtype": {"type": "DT_FLOAT"}}}, {"name": "efficientdet/fpn_cells/cell_1/fnode6/add/strided_slice", "op": "Const", "attr": {"dtype": {"type": "DT_FLOAT"}, "value": {"tensor": {"dtype": "DT_FLOAT", "tensorShape": {}}}}}, {"name": "efficientdet/up_sampling2d/Const", "op": "Const", "attr": {"dtype": {"type": "DT_INT32"}, "value": {"tensor": {"dtype": "DT_INT32", "tensorShape": {"dim": [{"size": "2"}]}}}}}, {"name": "efficientdet/block1a_se_reshape/Reshape/shape/3", "op": "Const", "attr": {"dtype": {"type": "DT_INT32"}, "value": {"tensor": {"dtype": "DT_INT32", "tensorShape": {}}}}}, {"name": "efficientdet/block1a_se_reduce/Conv2D/ReadVariableOp/resource", "op": "Const", "attr": {"value": {"tensor": {"dtype": "DT_FLOAT", "tensorShape": {"dim": [{"size": "1"}, {"size": "1"}, {"size": "32"}, {"size": "8"}]}}}, "dtype": {"type": "DT_FLOAT"}}}, {"name": "efficientdet/block1a_se_reduce/BiasAdd/ReadVariableOp/resource", "op": "Const", "attr": {"dtype": {"type": "DT_FLOAT"}, "value": {"tensor": {"dtype": "DT_FLOAT", "tensorShape": {"dim": [{"size": "8"}]}}}}}, {"name": "efficientdet/block1a_se_expand/Conv2D/ReadVariableOp/resource", "op": "Const", "attr": {"dtype": {"type": "DT_FLOAT"}, "value": {"tensor": {"dtype": "DT_FLOAT", "tensorShape": {"dim": [{"size": "1"}, {"size": "1"}, {"size": "8"}, {"size": "32"}]}}}}}, {"name": "efficientdet/block1a_se_expand/BiasAdd/ReadVariableOp/resource", "op": "Const", "attr": {"dtype": {"type": "DT_FLOAT"}, "value": {"tensor": {"dtype": "DT_FLOAT", "tensorShape": {"dim": [{"size": "32"}]}}}}}, {"name": "efficientdet/block2a_se_reshape/Reshape/shape/3", "op": "Const", "attr": {"dtype": {"type": "DT_INT32"}, "value": {"tensor": {"dtype": "DT_INT32", "tensorShape": {}}}}}, {"name": "efficientdet/block2a_se_reduce/Conv2D/ReadVariableOp/resource", "op": "Const", "attr": {"dtype": {"type": "DT_FLOAT"}, "value": {"tensor": {"dtype": "DT_FLOAT", "tensorShape": {"dim": [{"size": "1"}, {"size": "1"}, {"size": "96"}, {"size": "4"}]}}}}}, {"name": "efficientdet/block2a_se_reduce/BiasAdd/ReadVariableOp/resource", "op": "Const", "attr": {"value": {"tensor": {"dtype": "DT_FLOAT", "tensorShape": {"dim": [{"size": "4"}]}}}, "dtype": {"type": "DT_FLOAT"}}}, {"name": "efficientdet/block2a_se_expand/Conv2D/ReadVariableOp/resource", "op": "Const", "attr": {"dtype": {"type": "DT_FLOAT"}, "value": {"tensor": {"dtype": "DT_FLOAT", "tensorShape": {"dim": [{"size": "1"}, {"size": "1"}, {"size": "4"}, {"size": "96"}]}}}}}, {"name": "efficientdet/block2a_se_expand/BiasAdd/ReadVariableOp/resource", "op": "Const", "attr": {"value": {"tensor": {"dtype": "DT_FLOAT", "tensorShape": {"dim": [{"size": "96"}]}}}, "dtype": {"type": "DT_FLOAT"}}}, {"name": "efficientdet/block2b_se_reduce/Conv2D/ReadVariableOp/resource", "op": "Const", "attr": {"value": {"tensor": {"dtype": "DT_FLOAT", "tensorShape": {"dim": [{"size": "1"}, {"size": "1"}, {"size": "144"}, {"size": "6"}]}}}, "dtype": {"type": "DT_FLOAT"}}}, {"name": "efficientdet/block2b_se_reduce/BiasAdd/ReadVariableOp/resource", "op": "Const", "attr": {"dtype": {"type": "DT_FLOAT"}, "value": {"tensor": {"dtype": "DT_FLOAT", "tensorShape": {"dim": [{"size": "6"}]}}}}}, {"name": "efficientdet/block2b_se_expand/Conv2D/ReadVariableOp/resource", "op": "Const", "attr": {"dtype": {"type": "DT_FLOAT"}, "value": {"tensor": {"dtype": "DT_FLOAT", "tensorShape": {"dim": [{"size": "1"}, {"size": "1"}, {"size": "6"}, {"size": "144"}]}}}}}, {"name": "efficientdet/block2b_se_expand/BiasAdd/ReadVariableOp/resource", "op": "Const", "attr": {"dtype": {"type": "DT_FLOAT"}, "value": {"tensor": {"dtype": "DT_FLOAT", "tensorShape": {"dim": [{"size": "144"}]}}}}}, {"name": "efficientdet/block2b_se_reshape/Reshape/shape/3", "op": "Const", "attr": {"dtype": {"type": "DT_INT32"}, "value": {"tensor": {"dtype": "DT_INT32", "tensorShape": {}}}}}, {"name": "efficientdet/block3a_se_reduce/Conv2D/ReadVariableOp/resource", "op": "Const", "attr": {"value": {"tensor": {"dtype": "DT_FLOAT", "tensorShape": {"dim": [{"size": "1"}, {"size": "1"}, {"size": "144"}, {"size": "6"}]}}}, "dtype": {"type": "DT_FLOAT"}}}, {"name": "efficientdet/block3a_se_reduce/BiasAdd/ReadVariableOp/resource", "op": "Const", "attr": {"dtype": {"type": "DT_FLOAT"}, "value": {"tensor": {"dtype": "DT_FLOAT", "tensorShape": {"dim": [{"size": "6"}]}}}}}, {"name": "efficientdet/block3a_se_expand/Conv2D/ReadVariableOp/resource", "op": "Const", "attr": {"dtype": {"type": "DT_FLOAT"}, "value": {"tensor": {"dtype": "DT_FLOAT", "tensorShape": {"dim": [{"size": "1"}, {"size": "1"}, {"size": "6"}, {"size": "144"}]}}}}}, {"name": "efficientdet/block3a_se_expand/BiasAdd/ReadVariableOp/resource", "op": "Const", "attr": {"value": {"tensor": {"dtype": "DT_FLOAT", "tensorShape": {"dim": [{"size": "144"}]}}}, "dtype": {"type": "DT_FLOAT"}}}, {"name": "efficientdet/block3b_se_reduce/Conv2D/ReadVariableOp/resource", "op": "Const", "attr": {"dtype": {"type": "DT_FLOAT"}, "value": {"tensor": {"dtype": "DT_FLOAT", "tensorShape": {"dim": [{"size": "1"}, {"size": "1"}, {"size": "240"}, {"size": "10"}]}}}}}, {"name": "efficientdet/block3b_se_reduce/BiasAdd/ReadVariableOp/resource", "op": "Const", "attr": {"dtype": {"type": "DT_FLOAT"}, "value": {"tensor": {"dtype": "DT_FLOAT", "tensorShape": {"dim": [{"size": "10"}]}}}}}, {"name": "efficientdet/block3b_se_expand/Conv2D/ReadVariableOp/resource", "op": "Const", "attr": {"dtype": {"type": "DT_FLOAT"}, "value": {"tensor": {"dtype": "DT_FLOAT", "tensorShape": {"dim": [{"size": "1"}, {"size": "1"}, {"size": "10"}, {"size": "240"}]}}}}}, {"name": "efficientdet/block3b_se_expand/BiasAdd/ReadVariableOp/resource", "op": "Const", "attr": {"dtype": {"type": "DT_FLOAT"}, "value": {"tensor": {"dtype": "DT_FLOAT", "tensorShape": {"dim": [{"size": "240"}]}}}}}, {"name": "efficientdet/block3b_se_reshape/Reshape/shape/3", "op": "Const", "attr": {"dtype": {"type": "DT_INT32"}, "value": {"tensor": {"dtype": "DT_INT32", "tensorShape": {}}}}}, {"name": "efficientdet/block4a_se_reduce/Conv2D/ReadVariableOp/resource", "op": "Const", "attr": {"value": {"tensor": {"dtype": "DT_FLOAT", "tensorShape": {"dim": [{"size": "1"}, {"size": "1"}, {"size": "240"}, {"size": "10"}]}}}, "dtype": {"type": "DT_FLOAT"}}}, {"name": "efficientdet/block4a_se_reduce/BiasAdd/ReadVariableOp/resource", "op": "Const", "attr": {"dtype": {"type": "DT_FLOAT"}, "value": {"tensor": {"dtype": "DT_FLOAT", "tensorShape": {"dim": [{"size": "10"}]}}}}}, {"name": "efficientdet/block4a_se_expand/Conv2D/ReadVariableOp/resource", "op": "Const", "attr": {"value": {"tensor": {"dtype": "DT_FLOAT", "tensorShape": {"dim": [{"size": "1"}, {"size": "1"}, {"size": "10"}, {"size": "240"}]}}}, "dtype": {"type": "DT_FLOAT"}}}, {"name": "efficientdet/block4a_se_expand/BiasAdd/ReadVariableOp/resource", "op": "Const", "attr": {"value": {"tensor": {"dtype": "DT_FLOAT", "tensorShape": {"dim": [{"size": "240"}]}}}, "dtype": {"type": "DT_FLOAT"}}}, {"name": "efficientdet/block4b_se_reduce/Conv2D/ReadVariableOp/resource", "op": "Const", "attr": {"value": {"tensor": {"dtype": "DT_FLOAT", "tensorShape": {"dim": [{"size": "1"}, {"size": "1"}, {"size": "480"}, {"size": "20"}]}}}, "dtype": {"type": "DT_FLOAT"}}}, {"name": "efficientdet/block4b_se_reduce/BiasAdd/ReadVariableOp/resource", "op": "Const", "attr": {"value": {"tensor": {"dtype": "DT_FLOAT", "tensorShape": {"dim": [{"size": "20"}]}}}, "dtype": {"type": "DT_FLOAT"}}}, {"name": "efficientdet/block4b_se_expand/Conv2D/ReadVariableOp/resource", "op": "Const", "attr": {"value": {"tensor": {"dtype": "DT_FLOAT", "tensorShape": {"dim": [{"size": "1"}, {"size": "1"}, {"size": "20"}, {"size": "480"}]}}}, "dtype": {"type": "DT_FLOAT"}}}, {"name": "efficientdet/block4b_se_expand/BiasAdd/ReadVariableOp/resource", "op": "Const", "attr": {"value": {"tensor": {"dtype": "DT_FLOAT", "tensorShape": {"dim": [{"size": "480"}]}}}, "dtype": {"type": "DT_FLOAT"}}}, {"name": "efficientdet/block4c_se_reduce/Conv2D/ReadVariableOp/resource", "op": "Const", "attr": {"value": {"tensor": {"dtype": "DT_FLOAT", "tensorShape": {"dim": [{"size": "1"}, {"size": "1"}, {"size": "480"}, {"size": "20"}]}}}, "dtype": {"type": "DT_FLOAT"}}}, {"name": "efficientdet/block4c_se_reduce/BiasAdd/ReadVariableOp/resource", "op": "Const", "attr": {"dtype": {"type": "DT_FLOAT"}, "value": {"tensor": {"dtype": "DT_FLOAT", "tensorShape": {"dim": [{"size": "20"}]}}}}}, {"name": "efficientdet/block4c_se_expand/Conv2D/ReadVariableOp/resource", "op": "Const", "attr": {"dtype": {"type": "DT_FLOAT"}, "value": {"tensor": {"dtype": "DT_FLOAT", "tensorShape": {"dim": [{"size": "1"}, {"size": "1"}, {"size": "20"}, {"size": "480"}]}}}}}, {"name": "efficientdet/block4c_se_expand/BiasAdd/ReadVariableOp/resource", "op": "Const", "attr": {"value": {"tensor": {"dtype": "DT_FLOAT", "tensorShape": {"dim": [{"size": "480"}]}}}, "dtype": {"type": "DT_FLOAT"}}}, {"name": "efficientdet/block4c_se_reshape/Reshape/shape/3", "op": "Const", "attr": {"value": {"tensor": {"dtype": "DT_INT32", "tensorShape": {}}}, "dtype": {"type": "DT_INT32"}}}, {"name": "efficientdet/block5a_se_reduce/Conv2D/ReadVariableOp/resource", "op": "Const", "attr": {"value": {"tensor": {"dtype": "DT_FLOAT", "tensorShape": {"dim": [{"size": "1"}, {"size": "1"}, {"size": "480"}, {"size": "20"}]}}}, "dtype": {"type": "DT_FLOAT"}}}, {"name": "efficientdet/block5a_se_reduce/BiasAdd/ReadVariableOp/resource", "op": "Const", "attr": {"value": {"tensor": {"dtype": "DT_FLOAT", "tensorShape": {"dim": [{"size": "20"}]}}}, "dtype": {"type": "DT_FLOAT"}}}, {"name": "efficientdet/block5a_se_expand/Conv2D/ReadVariableOp/resource", "op": "Const", "attr": {"dtype": {"type": "DT_FLOAT"}, "value": {"tensor": {"dtype": "DT_FLOAT", "tensorShape": {"dim": [{"size": "1"}, {"size": "1"}, {"size": "20"}, {"size": "480"}]}}}}}, {"name": "efficientdet/block5a_se_expand/BiasAdd/ReadVariableOp/resource", "op": "Const", "attr": {"value": {"tensor": {"dtype": "DT_FLOAT", "tensorShape": {"dim": [{"size": "480"}]}}}, "dtype": {"type": "DT_FLOAT"}}}, {"name": "efficientdet/block5b_se_reduce/Conv2D/ReadVariableOp/resource", "op": "Const", "attr": {"value": {"tensor": {"dtype": "DT_FLOAT", "tensorShape": {"dim": [{"size": "1"}, {"size": "1"}, {"size": "672"}, {"size": "28"}]}}}, "dtype": {"type": "DT_FLOAT"}}}, {"name": "efficientdet/block5b_se_reduce/BiasAdd/ReadVariableOp/resource", "op": "Const", "attr": {"value": {"tensor": {"dtype": "DT_FLOAT", "tensorShape": {"dim": [{"size": "28"}]}}}, "dtype": {"type": "DT_FLOAT"}}}, {"name": "efficientdet/block5b_se_expand/Conv2D/ReadVariableOp/resource", "op": "Const", "attr": {"value": {"tensor": {"dtype": "DT_FLOAT", "tensorShape": {"dim": [{"size": "1"}, {"size": "1"}, {"size": "28"}, {"size": "672"}]}}}, "dtype": {"type": "DT_FLOAT"}}}, {"name": "efficientdet/block5b_se_expand/BiasAdd/ReadVariableOp/resource", "op": "Const", "attr": {"dtype": {"type": "DT_FLOAT"}, "value": {"tensor": {"dtype": "DT_FLOAT", "tensorShape": {"dim": [{"size": "672"}]}}}}}, {"name": "efficientdet/block5c_se_reduce/Conv2D/ReadVariableOp/resource", "op": "Const", "attr": {"dtype": {"type": "DT_FLOAT"}, "value": {"tensor": {"dtype": "DT_FLOAT", "tensorShape": {"dim": [{"size": "1"}, {"size": "1"}, {"size": "672"}, {"size": "28"}]}}}}}, {"name": "efficientdet/block5c_se_reduce/BiasAdd/ReadVariableOp/resource", "op": "Const", "attr": {"dtype": {"type": "DT_FLOAT"}, "value": {"tensor": {"dtype": "DT_FLOAT", "tensorShape": {"dim": [{"size": "28"}]}}}}}, {"name": "efficientdet/block5c_se_expand/Conv2D/ReadVariableOp/resource", "op": "Const", "attr": {"value": {"tensor": {"dtype": "DT_FLOAT", "tensorShape": {"dim": [{"size": "1"}, {"size": "1"}, {"size": "28"}, {"size": "672"}]}}}, "dtype": {"type": "DT_FLOAT"}}}, {"name": "efficientdet/block5c_se_expand/BiasAdd/ReadVariableOp/resource", "op": "Const", "attr": {"value": {"tensor": {"dtype": "DT_FLOAT", "tensorShape": {"dim": [{"size": "672"}]}}}, "dtype": {"type": "DT_FLOAT"}}}, {"name": "efficientdet/block5c_se_reshape/Reshape/shape/3", "op": "Const", "attr": {"dtype": {"type": "DT_INT32"}, "value": {"tensor": {"dtype": "DT_INT32", "tensorShape": {}}}}}, {"name": "efficientdet/block6a_se_reduce/Conv2D/ReadVariableOp/resource", "op": "Const", "attr": {"dtype": {"type": "DT_FLOAT"}, "value": {"tensor": {"dtype": "DT_FLOAT", "tensorShape": {"dim": [{"size": "1"}, {"size": "1"}, {"size": "672"}, {"size": "28"}]}}}}}, {"name": "efficientdet/block6a_se_reduce/BiasAdd/ReadVariableOp/resource", "op": "Const", "attr": {"value": {"tensor": {"dtype": "DT_FLOAT", "tensorShape": {"dim": [{"size": "28"}]}}}, "dtype": {"type": "DT_FLOAT"}}}, {"name": "efficientdet/block6a_se_expand/Conv2D/ReadVariableOp/resource", "op": "Const", "attr": {"dtype": {"type": "DT_FLOAT"}, "value": {"tensor": {"dtype": "DT_FLOAT", "tensorShape": {"dim": [{"size": "1"}, {"size": "1"}, {"size": "28"}, {"size": "672"}]}}}}}, {"name": "efficientdet/block6a_se_expand/BiasAdd/ReadVariableOp/resource", "op": "Const", "attr": {"value": {"tensor": {"dtype": "DT_FLOAT", "tensorShape": {"dim": [{"size": "672"}]}}}, "dtype": {"type": "DT_FLOAT"}}}, {"name": "efficientdet/block6b_se_reduce/Conv2D/ReadVariableOp/resource", "op": "Const", "attr": {"value": {"tensor": {"dtype": "DT_FLOAT", "tensorShape": {"dim": [{"size": "1"}, {"size": "1"}, {"size": "1152"}, {"size": "48"}]}}}, "dtype": {"type": "DT_FLOAT"}}}, {"name": "efficientdet/block6b_se_reduce/BiasAdd/ReadVariableOp/resource", "op": "Const", "attr": {"dtype": {"type": "DT_FLOAT"}, "value": {"tensor": {"dtype": "DT_FLOAT", "tensorShape": {"dim": [{"size": "48"}]}}}}}, {"name": "efficientdet/block6b_se_expand/Conv2D/ReadVariableOp/resource", "op": "Const", "attr": {"dtype": {"type": "DT_FLOAT"}, "value": {"tensor": {"dtype": "DT_FLOAT", "tensorShape": {"dim": [{"size": "1"}, {"size": "1"}, {"size": "48"}, {"size": "1152"}]}}}}}, {"name": "efficientdet/block6b_se_expand/BiasAdd/ReadVariableOp/resource", "op": "Const", "attr": {"dtype": {"type": "DT_FLOAT"}, "value": {"tensor": {"dtype": "DT_FLOAT", "tensorShape": {"dim": [{"size": "1152"}]}}}}}, {"name": "efficientdet/block6c_se_reduce/Conv2D/ReadVariableOp/resource", "op": "Const", "attr": {"dtype": {"type": "DT_FLOAT"}, "value": {"tensor": {"dtype": "DT_FLOAT", "tensorShape": {"dim": [{"size": "1"}, {"size": "1"}, {"size": "1152"}, {"size": "48"}]}}}}}, {"name": "efficientdet/block6c_se_reduce/BiasAdd/ReadVariableOp/resource", "op": "Const", "attr": {"value": {"tensor": {"dtype": "DT_FLOAT", "tensorShape": {"dim": [{"size": "48"}]}}}, "dtype": {"type": "DT_FLOAT"}}}, {"name": "efficientdet/block6c_se_expand/Conv2D/ReadVariableOp/resource", "op": "Const", "attr": {"value": {"tensor": {"dtype": "DT_FLOAT", "tensorShape": {"dim": [{"size": "1"}, {"size": "1"}, {"size": "48"}, {"size": "1152"}]}}}, "dtype": {"type": "DT_FLOAT"}}}, {"name": "efficientdet/block6c_se_expand/BiasAdd/ReadVariableOp/resource", "op": "Const", "attr": {"dtype": {"type": "DT_FLOAT"}, "value": {"tensor": {"dtype": "DT_FLOAT", "tensorShape": {"dim": [{"size": "1152"}]}}}}}, {"name": "efficientdet/block6d_se_reduce/Conv2D/ReadVariableOp/resource", "op": "Const", "attr": {"dtype": {"type": "DT_FLOAT"}, "value": {"tensor": {"dtype": "DT_FLOAT", "tensorShape": {"dim": [{"size": "1"}, {"size": "1"}, {"size": "1152"}, {"size": "48"}]}}}}}, {"name": "efficientdet/block6d_se_reduce/BiasAdd/ReadVariableOp/resource", "op": "Const", "attr": {"value": {"tensor": {"dtype": "DT_FLOAT", "tensorShape": {"dim": [{"size": "48"}]}}}, "dtype": {"type": "DT_FLOAT"}}}, {"name": "efficientdet/block6d_se_expand/Conv2D/ReadVariableOp/resource", "op": "Const", "attr": {"dtype": {"type": "DT_FLOAT"}, "value": {"tensor": {"dtype": "DT_FLOAT", "tensorShape": {"dim": [{"size": "1"}, {"size": "1"}, {"size": "48"}, {"size": "1152"}]}}}}}, {"name": "efficientdet/block6d_se_expand/BiasAdd/ReadVariableOp/resource", "op": "Const", "attr": {"dtype": {"type": "DT_FLOAT"}, "value": {"tensor": {"dtype": "DT_FLOAT", "tensorShape": {"dim": [{"size": "1152"}]}}}}}, {"name": "efficientdet/block6d_se_squeeze/Mean/reduction_indices", "op": "Const", "attr": {"value": {"tensor": {"dtype": "DT_INT32", "tensorShape": {"dim": [{"size": "2"}]}}}, "dtype": {"type": "DT_INT32"}}}, {"name": "efficientdet/block6d_se_reshape/Reshape/shape/3", "op": "Const", "attr": {"dtype": {"type": "DT_INT32"}, "value": {"tensor": {"dtype": "DT_INT32", "tensorShape": {}}}}}, {"name": "efficientdet/block7a_se_reduce/Conv2D/ReadVariableOp/resource", "op": "Const", "attr": {"dtype": {"type": "DT_FLOAT"}, "value": {"tensor": {"dtype": "DT_FLOAT", "tensorShape": {"dim": [{"size": "1"}, {"size": "1"}, {"size": "1152"}, {"size": "48"}]}}}}}, {"name": "efficientdet/block7a_se_reduce/BiasAdd/ReadVariableOp/resource", "op": "Const", "attr": {"value": {"tensor": {"dtype": "DT_FLOAT", "tensorShape": {"dim": [{"size": "48"}]}}}, "dtype": {"type": "DT_FLOAT"}}}, {"name": "efficientdet/block7a_se_expand/Conv2D/ReadVariableOp/resource", "op": "Const", "attr": {"dtype": {"type": "DT_FLOAT"}, "value": {"tensor": {"dtype": "DT_FLOAT", "tensorShape": {"dim": [{"size": "1"}, {"size": "1"}, {"size": "48"}, {"size": "1152"}]}}}}}, {"name": "efficientdet/block7a_se_expand/BiasAdd/ReadVariableOp/resource", "op": "Const", "attr": {"value": {"tensor": {"dtype": "DT_FLOAT", "tensorShape": {"dim": [{"size": "1152"}]}}}, "dtype": {"type": "DT_FLOAT"}}}, {"name": "efficientdet/fpn_cells/cell_0/fnode0/op_after_combine5/conv/separable_conv2d/ReadVariableOp/resource", "op": "Const", "attr": {"dtype": {"type": "DT_FLOAT"}, "value": {"tensor": {"dtype": "DT_FLOAT", "tensorShape": {"dim": [{"size": "3"}, {"size": "3"}, {"size": "64"}, {"size": "1"}]}}}}}, {"name": "efficientdet/fpn_cells/cell_0/fnode1/op_after_combine6/conv/separable_conv2d/ReadVariableOp/resource", "op": "Const", "attr": {"value": {"tensor": {"dtype": "DT_FLOAT", "tensorShape": {"dim": [{"size": "3"}, {"size": "3"}, {"size": "64"}, {"size": "1"}]}}}, "dtype": {"type": "DT_FLOAT"}}}, {"name": "efficientdet/fpn_cells/cell_0/fnode2/op_after_combine7/conv/separable_conv2d/ReadVariableOp/resource", "op": "Const", "attr": {"value": {"tensor": {"dtype": "DT_FLOAT", "tensorShape": {"dim": [{"size": "3"}, {"size": "3"}, {"size": "64"}, {"size": "1"}]}}}, "dtype": {"type": "DT_FLOAT"}}}, {"name": "efficientdet/fpn_cells/cell_0/fnode3/op_after_combine8/conv/separable_conv2d/ReadVariableOp/resource", "op": "Const", "attr": {"value": {"tensor": {"dtype": "DT_FLOAT", "tensorShape": {"dim": [{"size": "3"}, {"size": "3"}, {"size": "64"}, {"size": "1"}]}}}, "dtype": {"type": "DT_FLOAT"}}}, {"name": "efficientdet/fpn_cells/cell_0/fnode4/op_after_combine9/conv/separable_conv2d/ReadVariableOp/resource", "op": "Const", "attr": {"dtype": {"type": "DT_FLOAT"}, "value": {"tensor": {"dtype": "DT_FLOAT", "tensorShape": {"dim": [{"size": "3"}, {"size": "3"}, {"size": "64"}, {"size": "1"}]}}}}}, {"name": "efficientdet/fpn_cells/cell_0/fnode5/op_after_combine10/conv/separable_conv2d/ReadVariableOp/resource", "op": "Const", "attr": {"dtype": {"type": "DT_FLOAT"}, "value": {"tensor": {"dtype": "DT_FLOAT", "tensorShape": {"dim": [{"size": "3"}, {"size": "3"}, {"size": "64"}, {"size": "1"}]}}}}}, {"name": "efficientdet/fpn_cells/cell_0/fnode6/op_after_combine11/conv/separable_conv2d/ReadVariableOp/resource", "op": "Const", "attr": {"value": {"tensor": {"dtype": "DT_FLOAT", "tensorShape": {"dim": [{"size": "3"}, {"size": "3"}, {"size": "64"}, {"size": "1"}]}}}, "dtype": {"type": "DT_FLOAT"}}}, {"name": "efficientdet/fpn_cells/cell_0/fnode7/op_after_combine12/conv/separable_conv2d/ReadVariableOp/resource", "op": "Const", "attr": {"dtype": {"type": "DT_FLOAT"}, "value": {"tensor": {"dtype": "DT_FLOAT", "tensorShape": {"dim": [{"size": "3"}, {"size": "3"}, {"size": "64"}, {"size": "1"}]}}}}}, {"name": "efficientdet/fpn_cells/cell_1/fnode0/op_after_combine5/conv/separable_conv2d/ReadVariableOp/resource", "op": "Const", "attr": {"value": {"tensor": {"dtype": "DT_FLOAT", "tensorShape": {"dim": [{"size": "3"}, {"size": "3"}, {"size": "64"}, {"size": "1"}]}}}, "dtype": {"type": "DT_FLOAT"}}}, {"name": "efficientdet/fpn_cells/cell_1/fnode1/op_after_combine6/conv/separable_conv2d/ReadVariableOp/resource", "op": "Const", "attr": {"value": {"tensor": {"dtype": "DT_FLOAT", "tensorShape": {"dim": [{"size": "3"}, {"size": "3"}, {"size": "64"}, {"size": "1"}]}}}, "dtype": {"type": "DT_FLOAT"}}}, {"name": "efficientdet/fpn_cells/cell_1/fnode2/op_after_combine7/conv/separable_conv2d/ReadVariableOp/resource", "op": "Const", "attr": {"value": {"tensor": {"dtype": "DT_FLOAT", "tensorShape": {"dim": [{"size": "3"}, {"size": "3"}, {"size": "64"}, {"size": "1"}]}}}, "dtype": {"type": "DT_FLOAT"}}}, {"name": "efficientdet/fpn_cells/cell_1/fnode3/op_after_combine8/conv/separable_conv2d/ReadVariableOp/resource", "op": "Const", "attr": {"value": {"tensor": {"dtype": "DT_FLOAT", "tensorShape": {"dim": [{"size": "3"}, {"size": "3"}, {"size": "64"}, {"size": "1"}]}}}, "dtype": {"type": "DT_FLOAT"}}}, {"name": "efficientdet/fpn_cells/cell_1/fnode4/op_after_combine9/conv/separable_conv2d/ReadVariableOp/resource", "op": "Const", "attr": {"value": {"tensor": {"dtype": "DT_FLOAT", "tensorShape": {"dim": [{"size": "3"}, {"size": "3"}, {"size": "64"}, {"size": "1"}]}}}, "dtype": {"type": "DT_FLOAT"}}}, {"name": "efficientdet/fpn_cells/cell_1/fnode5/op_after_combine10/conv/separable_conv2d/ReadVariableOp/resource", "op": "Const", "attr": {"value": {"tensor": {"dtype": "DT_FLOAT", "tensorShape": {"dim": [{"size": "3"}, {"size": "3"}, {"size": "64"}, {"size": "1"}]}}}, "dtype": {"type": "DT_FLOAT"}}}, {"name": "efficientdet/fpn_cells/cell_1/fnode6/op_after_combine11/conv/separable_conv2d/ReadVariableOp/resource", "op": "Const", "attr": {"dtype": {"type": "DT_FLOAT"}, "value": {"tensor": {"dtype": "DT_FLOAT", "tensorShape": {"dim": [{"size": "3"}, {"size": "3"}, {"size": "64"}, {"size": "1"}]}}}}}, {"name": "efficientdet/fpn_cells/cell_1/fnode7/op_after_combine12/conv/separable_conv2d/ReadVariableOp/resource", "op": "Const", "attr": {"dtype": {"type": "DT_FLOAT"}, "value": {"tensor": {"dtype": "DT_FLOAT", "tensorShape": {"dim": [{"size": "3"}, {"size": "3"}, {"size": "64"}, {"size": "1"}]}}}}}, {"name": "efficientdet/fpn_cells/cell_2/fnode0/op_after_combine5/conv/separable_conv2d/ReadVariableOp/resource", "op": "Const", "attr": {"value": {"tensor": {"dtype": "DT_FLOAT", "tensorShape": {"dim": [{"size": "3"}, {"size": "3"}, {"size": "64"}, {"size": "1"}]}}}, "dtype": {"type": "DT_FLOAT"}}}, {"name": "efficientdet/fpn_cells/cell_2/fnode1/op_after_combine6/conv/separable_conv2d/ReadVariableOp/resource", "op": "Const", "attr": {"dtype": {"type": "DT_FLOAT"}, "value": {"tensor": {"dtype": "DT_FLOAT", "tensorShape": {"dim": [{"size": "3"}, {"size": "3"}, {"size": "64"}, {"size": "1"}]}}}}}, {"name": "efficientdet/fpn_cells/cell_2/fnode2/op_after_combine7/conv/separable_conv2d/ReadVariableOp/resource", "op": "Const", "attr": {"value": {"tensor": {"dtype": "DT_FLOAT", "tensorShape": {"dim": [{"size": "3"}, {"size": "3"}, {"size": "64"}, {"size": "1"}]}}}, "dtype": {"type": "DT_FLOAT"}}}, {"name": "efficientdet/up_sampling2d/strided_slice/stack_1", "op": "Const", "attr": {"value": {"tensor": {"dtype": "DT_INT32", "tensorShape": {"dim": [{"size": "1"}]}}}, "dtype": {"type": "DT_INT32"}}}, {"name": "efficientdet/fpn_cells/cell_2/fnode3/op_after_combine8/conv/separable_conv2d/ReadVariableOp/resource", "op": "Const", "attr": {"value": {"tensor": {"dtype": "DT_FLOAT", "tensorShape": {"dim": [{"size": "3"}, {"size": "3"}, {"size": "64"}, {"size": "1"}]}}}, "dtype": {"type": "DT_FLOAT"}}}, {"name": "efficientdet/fpn_cells/cell_2/fnode4/op_after_combine9/conv/separable_conv2d/ReadVariableOp/resource", "op": "Const", "attr": {"dtype": {"type": "DT_FLOAT"}, "value": {"tensor": {"dtype": "DT_FLOAT", "tensorShape": {"dim": [{"size": "3"}, {"size": "3"}, {"size": "64"}, {"size": "1"}]}}}}}, {"name": "efficientdet/fpn_cells/cell_2/fnode5/op_after_combine10/conv/separable_conv2d/ReadVariableOp/resource", "op": "Const", "attr": {"dtype": {"type": "DT_FLOAT"}, "value": {"tensor": {"dtype": "DT_FLOAT", "tensorShape": {"dim": [{"size": "3"}, {"size": "3"}, {"size": "64"}, {"size": "1"}]}}}}}, {"name": "efficientdet/fpn_cells/cell_2/fnode6/op_after_combine11/conv/separable_conv2d/ReadVariableOp/resource", "op": "Const", "attr": {"value": {"tensor": {"dtype": "DT_FLOAT", "tensorShape": {"dim": [{"size": "3"}, {"size": "3"}, {"size": "64"}, {"size": "1"}]}}}, "dtype": {"type": "DT_FLOAT"}}}, {"name": "efficientdet/fpn_cells/cell_0/fnode0/add/Sum/reduction_indices", "op": "Const", "attr": {"value": {"tensor": {"dtype": "DT_INT32", "tensorShape": {}}}, "dtype": {"type": "DT_INT32"}}}, {"name": "efficientdet/fpn_cells/cell_2/fnode7/op_after_combine12/conv/separable_conv2d/ReadVariableOp/resource", "op": "Const", "attr": {"dtype": {"type": "DT_FLOAT"}, "value": {"tensor": {"dtype": "DT_FLOAT", "tensorShape": {"dim": [{"size": "3"}, {"size": "3"}, {"size": "64"}, {"size": "1"}]}}}}}, {"name": "efficientdet/class_net/class-0/separable_conv2d/ReadVariableOp/resource", "op": "Const", "attr": {"value": {"tensor": {"dtype": "DT_FLOAT", "tensorShape": {"dim": [{"size": "3"}, {"size": "3"}, {"size": "64"}, {"size": "1"}]}}}, "dtype": {"type": "DT_FLOAT"}}}, {"name": "efficientdet/class_net/class-1/separable_conv2d/ReadVariableOp/resource", "op": "Const", "attr": {"value": {"tensor": {"dtype": "DT_FLOAT", "tensorShape": {"dim": [{"size": "3"}, {"size": "3"}, {"size": "64"}, {"size": "1"}]}}}, "dtype": {"type": "DT_FLOAT"}}}, {"name": "efficientdet/class_net/class-2/separable_conv2d/ReadVariableOp/resource", "op": "Const", "attr": {"dtype": {"type": "DT_FLOAT"}, "value": {"tensor": {"dtype": "DT_FLOAT", "tensorShape": {"dim": [{"size": "3"}, {"size": "3"}, {"size": "64"}, {"size": "1"}]}}}}}, {"name": "efficientdet/class_net/class-predict/separable_conv2d/ReadVariableOp/resource", "op": "Const", "attr": {"value": {"tensor": {"dtype": "DT_FLOAT", "tensorShape": {"dim": [{"size": "3"}, {"size": "3"}, {"size": "64"}, {"size": "1"}]}}}, "dtype": {"type": "DT_FLOAT"}}}, {"name": "efficientdet/class_net/class-predict/separable_conv2d/ReadVariableOp_1/resource", "op": "Const", "attr": {"dtype": {"type": "DT_FLOAT"}, "value": {"tensor": {"dtype": "DT_FLOAT", "tensorShape": {"dim": [{"size": "1"}, {"size": "1"}, {"size": "64"}, {"size": "810"}]}}}}}, {"name": "efficientdet/class_net/class-predict/BiasAdd/ReadVariableOp/resource", "op": "Const", "attr": {"value": {"tensor": {"dtype": "DT_FLOAT", "tensorShape": {"dim": [{"size": "810"}]}}}, "dtype": {"type": "DT_FLOAT"}}}, {"name": "efficientdet/reshape_1_4/strided_slice/stack", "op": "Const", "attr": {"value": {"tensor": {"dtype": "DT_INT32", "tensorShape": {"dim": [{"size": "1"}]}}}, "dtype": {"type": "DT_INT32"}}}, {"name": "efficientdet/reshape_1_4/strided_slice/stack_1", "op": "Const", "attr": {"dtype": {"type": "DT_INT32"}, "value": {"tensor": {"dtype": "DT_INT32", "tensorShape": {"dim": [{"size": "1"}]}}}}}, {"name": "efficientdet/reshape_1_4/Reshape/shape/1", "op": "Const", "attr": {"dtype": {"type": "DT_INT32"}, "value": {"tensor": {"dtype": "DT_INT32", "tensorShape": {}}}}}, {"name": "efficientdet/reshape_1_4/Reshape/shape/2", "op": "Const", "attr": {"value": {"tensor": {"dtype": "DT_INT32", "tensorShape": {}}}, "dtype": {"type": "DT_INT32"}}}, {"name": "efficientdet/block6d_se_reshape/Reshape/shape/1", "op": "Const", "attr": {"value": {"tensor": {"dtype": "DT_INT32", "tensorShape": {}}}, "dtype": {"type": "DT_INT32"}}}, {"name": "x", "op": "Placeholder", "attr": {"shape": {"shape": {"dim": [{"size": "-1"}, {"size": "512"}, {"size": "512"}, {"size": "3"}]}}, "dtype": {"type": "DT_FLOAT"}}}, {"name": "efficientdet/stem_conv/Conv2D_weights", "op": "Const", "attr": {"dtype": {"type": "DT_FLOAT"}, "value": {"tensor": {"dtype": "DT_FLOAT", "tensorShape": {"dim": [{"size": "3"}, {"size": "3"}, {"size": "3"}, {"size": "32"}]}}}}}, {"name": "efficientdet/stem_conv/Conv2D_bn_offset", "op": "Const", "attr": {"value": {"tensor": {"dtype": "DT_FLOAT", "tensorShape": {"dim": [{"size": "32"}]}}}, "dtype": {"type": "DT_FLOAT"}}}, {"name": "efficientdet/block1a_dwconv/depthwise_weights", "op": "Const", "attr": {"dtype": {"type": "DT_FLOAT"}, "value": {"tensor": {"dtype": "DT_FLOAT", "tensorShape": {"dim": [{"size": "3"}, {"size": "3"}, {"size": "32"}, {"size": "1"}]}}}}}, {"name": "efficientdet/block1a_dwconv/depthwise_bn_offset", "op": "Const", "attr": {"dtype": {"type": "DT_FLOAT"}, "value": {"tensor": {"dtype": "DT_FLOAT", "tensorShape": {"dim": [{"size": "32"}]}}}}}, {"name": "efficientdet/block1a_project_conv/Conv2D_weights", "op": "Const", "attr": {"value": {"tensor": {"dtype": "DT_FLOAT", "tensorShape": {"dim": [{"size": "1"}, {"size": "1"}, {"size": "32"}, {"size": "16"}]}}}, "dtype": {"type": "DT_FLOAT"}}}, {"name": "efficientdet/class_net/class-2_1/separable_conv2d_weights", "op": "Const", "attr": {"value": {"tensor": {"dtype": "DT_FLOAT", "tensorShape": {"dim": [{"size": "1"}, {"size": "1"}, {"size": "64"}, {"size": "64"}]}}}, "dtype": {"type": "DT_FLOAT"}}}, {"name": "efficientdet/block1a_project_conv/Conv2D_bn_offset", "op": "Const", "attr": {"value": {"tensor": {"dtype": "DT_FLOAT", "tensorShape": {"dim": [{"size": "16"}]}}}, "dtype": {"type": "DT_FLOAT"}}}, {"name": "efficientdet/block2a_expand_conv/Conv2D_weights", "op": "Const", "attr": {"value": {"tensor": {"dtype": "DT_FLOAT", "tensorShape": {"dim": [{"size": "1"}, {"size": "1"}, {"size": "16"}, {"size": "96"}]}}}, "dtype": {"type": "DT_FLOAT"}}}, {"name": "efficientdet/class_net/class-2_4/separable_conv2d_bn_offset", "op": "Const", "attr": {"value": {"tensor": {"dtype": "DT_FLOAT", "tensorShape": {"dim": [{"size": "64"}]}}}, "dtype": {"type": "DT_FLOAT"}}}, {"name": "efficientdet/block2a_expand_conv/Conv2D_bn_offset", "op": "Const", "attr": {"dtype": {"type": "DT_FLOAT"}, "value": {"tensor": {"dtype": "DT_FLOAT", "tensorShape": {"dim": [{"size": "96"}]}}}}}, {"name": "efficientdet/block2a_dwconv/depthwise_weights", "op": "Const", "attr": {"dtype": {"type": "DT_FLOAT"}, "value": {"tensor": {"dtype": "DT_FLOAT", "tensorShape": {"dim": [{"size": "3"}, {"size": "3"}, {"size": "96"}, {"size": "1"}]}}}}}, {"name": "efficientdet/block2a_dwconv/depthwise_bn_offset", "op": "Const", "attr": {"value": {"tensor": {"dtype": "DT_FLOAT", "tensorShape": {"dim": [{"size": "96"}]}}}, "dtype": {"type": "DT_FLOAT"}}}, {"name": "efficientdet/class_net/class-2_1/separable_conv2d_bn_offset", "op": "Const", "attr": {"dtype": {"type": "DT_FLOAT"}, "value": {"tensor": {"dtype": "DT_FLOAT", "tensorShape": {"dim": [{"size": "64"}]}}}}}, {"name": "efficientdet/block2a_project_conv/Conv2D_weights", "op": "Const", "attr": {"dtype": {"type": "DT_FLOAT"}, "value": {"tensor": {"dtype": "DT_FLOAT", "tensorShape": {"dim": [{"size": "1"}, {"size": "1"}, {"size": "96"}, {"size": "24"}]}}}}}, {"name": "efficientdet/block2a_project_conv/Conv2D_bn_offset", "op": "Const", "attr": {"value": {"tensor": {"dtype": "DT_FLOAT", "tensorShape": {"dim": [{"size": "24"}]}}}, "dtype": {"type": "DT_FLOAT"}}}, {"name": "efficientdet/block2b_expand_conv/Conv2D_weights", "op": "Const", "attr": {"value": {"tensor": {"dtype": "DT_FLOAT", "tensorShape": {"dim": [{"size": "1"}, {"size": "1"}, {"size": "24"}, {"size": "144"}]}}}, "dtype": {"type": "DT_FLOAT"}}}, {"name": "efficientdet/block2b_expand_conv/Conv2D_bn_offset", "op": "Const", "attr": {"dtype": {"type": "DT_FLOAT"}, "value": {"tensor": {"dtype": "DT_FLOAT", "tensorShape": {"dim": [{"size": "144"}]}}}}}, {"name": "efficientdet/block2b_dwconv/depthwise_weights", "op": "Const", "attr": {"value": {"tensor": {"dtype": "DT_FLOAT", "tensorShape": {"dim": [{"size": "3"}, {"size": "3"}, {"size": "144"}, {"size": "1"}]}}}, "dtype": {"type": "DT_FLOAT"}}}, {"name": "efficientdet/block2b_dwconv/depthwise_bn_offset", "op": "Const", "attr": {"dtype": {"type": "DT_FLOAT"}, "value": {"tensor": {"dtype": "DT_FLOAT", "tensorShape": {"dim": [{"size": "144"}]}}}}}, {"name": "efficientdet/block2b_project_conv/Conv2D_weights", "op": "Const", "attr": {"dtype": {"type": "DT_FLOAT"}, "value": {"tensor": {"dtype": "DT_FLOAT", "tensorShape": {"dim": [{"size": "1"}, {"size": "1"}, {"size": "144"}, {"size": "24"}]}}}}}, {"name": "efficientdet/block2b_project_conv/Conv2D_bn_offset", "op": "Const", "attr": {"dtype": {"type": "DT_FLOAT"}, "value": {"tensor": {"dtype": "DT_FLOAT", "tensorShape": {"dim": [{"size": "24"}]}}}}}, {"name": "efficientdet/block3a_expand_conv/Conv2D_weights", "op": "Const", "attr": {"dtype": {"type": "DT_FLOAT"}, "value": {"tensor": {"dtype": "DT_FLOAT", "tensorShape": {"dim": [{"size": "1"}, {"size": "1"}, {"size": "24"}, {"size": "144"}]}}}}}, {"name": "efficientdet/block3a_expand_conv/Conv2D_bn_offset", "op": "Const", "attr": {"dtype": {"type": "DT_FLOAT"}, "value": {"tensor": {"dtype": "DT_FLOAT", "tensorShape": {"dim": [{"size": "144"}]}}}}}, {"name": "efficientdet/block3a_dwconv/depthwise_weights", "op": "Const", "attr": {"value": {"tensor": {"dtype": "DT_FLOAT", "tensorShape": {"dim": [{"size": "5"}, {"size": "5"}, {"size": "144"}, {"size": "1"}]}}}, "dtype": {"type": "DT_FLOAT"}}}, {"name": "efficientdet/block3a_dwconv/depthwise_bn_offset", "op": "Const", "attr": {"dtype": {"type": "DT_FLOAT"}, "value": {"tensor": {"dtype": "DT_FLOAT", "tensorShape": {"dim": [{"size": "144"}]}}}}}, {"name": "efficientdet/block3a_project_conv/Conv2D_weights", "op": "Const", "attr": {"value": {"tensor": {"dtype": "DT_FLOAT", "tensorShape": {"dim": [{"size": "1"}, {"size": "1"}, {"size": "144"}, {"size": "40"}]}}}, "dtype": {"type": "DT_FLOAT"}}}, {"name": "efficientdet/block3a_project_conv/Conv2D_bn_offset", "op": "Const", "attr": {"dtype": {"type": "DT_FLOAT"}, "value": {"tensor": {"dtype": "DT_FLOAT", "tensorShape": {"dim": [{"size": "40"}]}}}}}, {"name": "efficientdet/block3b_expand_conv/Conv2D_weights", "op": "Const", "attr": {"dtype": {"type": "DT_FLOAT"}, "value": {"tensor": {"dtype": "DT_FLOAT", "tensorShape": {"dim": [{"size": "1"}, {"size": "1"}, {"size": "40"}, {"size": "240"}]}}}}}, {"name": "efficientdet/class_net/class-0/separable_conv2d_weights", "op": "Const", "attr": {"value": {"tensor": {"dtype": "DT_FLOAT", "tensorShape": {"dim": [{"size": "1"}, {"size": "1"}, {"size": "64"}, {"size": "64"}]}}}, "dtype": {"type": "DT_FLOAT"}}}, {"name": "efficientdet/block3b_expand_conv/Conv2D_bn_offset", "op": "Const", "attr": {"value": {"tensor": {"dtype": "DT_FLOAT", "tensorShape": {"dim": [{"size": "240"}]}}}, "dtype": {"type": "DT_FLOAT"}}}, {"name": "efficientdet/block3b_dwconv/depthwise_weights", "op": "Const", "attr": {"value": {"tensor": {"dtype": "DT_FLOAT", "tensorShape": {"dim": [{"size": "5"}, {"size": "5"}, {"size": "240"}, {"size": "1"}]}}}, "dtype": {"type": "DT_FLOAT"}}}, {"name": "efficientdet/block3b_dwconv/depthwise_bn_offset", "op": "Const", "attr": {"value": {"tensor": {"dtype": "DT_FLOAT", "tensorShape": {"dim": [{"size": "240"}]}}}, "dtype": {"type": "DT_FLOAT"}}}, {"name": "efficientdet/class_net/class-0/separable_conv2d_bn_offset", "op": "Const", "attr": {"dtype": {"type": "DT_FLOAT"}, "value": {"tensor": {"dtype": "DT_FLOAT", "tensorShape": {"dim": [{"size": "64"}]}}}}}, {"name": "efficientdet/block3b_project_conv/Conv2D_weights", "op": "Const", "attr": {"value": {"tensor": {"dtype": "DT_FLOAT", "tensorShape": {"dim": [{"size": "1"}, {"size": "1"}, {"size": "240"}, {"size": "40"}]}}}, "dtype": {"type": "DT_FLOAT"}}}, {"name": "efficientdet/block3b_project_conv/Conv2D_bn_offset", "op": "Const", "attr": {"value": {"tensor": {"dtype": "DT_FLOAT", "tensorShape": {"dim": [{"size": "40"}]}}}, "dtype": {"type": "DT_FLOAT"}}}, {"name": "efficientdet/block4a_expand_conv/Conv2D_weights", "op": "Const", "attr": {"dtype": {"type": "DT_FLOAT"}, "value": {"tensor": {"dtype": "DT_FLOAT", "tensorShape": {"dim": [{"size": "1"}, {"size": "1"}, {"size": "40"}, {"size": "240"}]}}}}}, {"name": "efficientdet/block4a_expand_conv/Conv2D_bn_offset", "op": "Const", "attr": {"value": {"tensor": {"dtype": "DT_FLOAT", "tensorShape": {"dim": [{"size": "240"}]}}}, "dtype": {"type": "DT_FLOAT"}}}, {"name": "efficientdet/fpn_cells/cell_0/fnode3/resample_0_0_8/conv2d/Conv2D_weights", "op": "Const", "attr": {"dtype": {"type": "DT_FLOAT"}, "value": {"tensor": {"dtype": "DT_FLOAT", "tensorShape": {"dim": [{"size": "1"}, {"size": "1"}, {"size": "40"}, {"size": "64"}]}}}}}, {"name": "efficientdet/fpn_cells/cell_0/fnode3/resample_0_0_8/conv2d/Conv2D_bn_offset", "op": "Const", "attr": {"dtype": {"type": "DT_FLOAT"}, "value": {"tensor": {"dtype": "DT_FLOAT", "tensorShape": {"dim": [{"size": "64"}]}}}}}, {"name": "efficientdet/block4a_dwconv/depthwise_weights", "op": "Const", "attr": {"value": {"tensor": {"dtype": "DT_FLOAT", "tensorShape": {"dim": [{"size": "3"}, {"size": "3"}, {"size": "240"}, {"size": "1"}]}}}, "dtype": {"type": "DT_FLOAT"}}}, {"name": "efficientdet/block4a_dwconv/depthwise_bn_offset", "op": "Const", "attr": {"value": {"tensor": {"dtype": "DT_FLOAT", "tensorShape": {"dim": [{"size": "240"}]}}}, "dtype": {"type": "DT_FLOAT"}}}, {"name": "efficientdet/class_net/class-1/separable_conv2d_weights", "op": "Const", "attr": {"dtype": {"type": "DT_FLOAT"}, "value": {"tensor": {"dtype": "DT_FLOAT", "tensorShape": {"dim": [{"size": "1"}, {"size": "1"}, {"size": "64"}, {"size": "64"}]}}}}}, {"name": "efficientdet/block4a_project_conv/Conv2D_weights", "op": "Const", "attr": {"dtype": {"type": "DT_FLOAT"}, "value": {"tensor": {"dtype": "DT_FLOAT", "tensorShape": {"dim": [{"size": "1"}, {"size": "1"}, {"size": "240"}, {"size": "80"}]}}}}}, {"name": "efficientdet/block4a_project_conv/Conv2D_bn_offset", "op": "Const", "attr": {"dtype": {"type": "DT_FLOAT"}, "value": {"tensor": {"dtype": "DT_FLOAT", "tensorShape": {"dim": [{"size": "80"}]}}}}}, {"name": "efficientdet/block4b_expand_conv/Conv2D_weights", "op": "Const", "attr": {"dtype": {"type": "DT_FLOAT"}, "value": {"tensor": {"dtype": "DT_FLOAT", "tensorShape": {"dim": [{"size": "1"}, {"size": "1"}, {"size": "80"}, {"size": "480"}]}}}}}, {"name": "efficientdet/class_net/class-1/separable_conv2d_bn_offset", "op": "Const", "attr": {"value": {"tensor": {"dtype": "DT_FLOAT", "tensorShape": {"dim": [{"size": "64"}]}}}, "dtype": {"type": "DT_FLOAT"}}}, {"name": "efficientdet/block4b_expand_conv/Conv2D_bn_offset", "op": "Const", "attr": {"dtype": {"type": "DT_FLOAT"}, "value": {"tensor": {"dtype": "DT_FLOAT", "tensorShape": {"dim": [{"size": "480"}]}}}}}, {"name": "efficientdet/block4b_dwconv/depthwise_weights", "op": "Const", "attr": {"dtype": {"type": "DT_FLOAT"}, "value": {"tensor": {"dtype": "DT_FLOAT", "tensorShape": {"dim": [{"size": "3"}, {"size": "3"}, {"size": "480"}, {"size": "1"}]}}}}}, {"name": "efficientdet/block4b_dwconv/depthwise_bn_offset", "op": "Const", "attr": {"value": {"tensor": {"dtype": "DT_FLOAT", "tensorShape": {"dim": [{"size": "480"}]}}}, "dtype": {"type": "DT_FLOAT"}}}, {"name": "efficientdet/block4b_project_conv/Conv2D_weights", "op": "Const", "attr": {"value": {"tensor": {"dtype": "DT_FLOAT", "tensorShape": {"dim": [{"size": "1"}, {"size": "1"}, {"size": "480"}, {"size": "80"}]}}}, "dtype": {"type": "DT_FLOAT"}}}, {"name": "efficientdet/block4b_project_conv/Conv2D_bn_offset", "op": "Const", "attr": {"value": {"tensor": {"dtype": "DT_FLOAT", "tensorShape": {"dim": [{"size": "80"}]}}}, "dtype": {"type": "DT_FLOAT"}}}, {"name": "efficientdet/block4c_expand_conv/Conv2D_weights", "op": "Const", "attr": {"value": {"tensor": {"dtype": "DT_FLOAT", "tensorShape": {"dim": [{"size": "1"}, {"size": "1"}, {"size": "80"}, {"size": "480"}]}}}, "dtype": {"type": "DT_FLOAT"}}}, {"name": "efficientdet/block4c_expand_conv/Conv2D_bn_offset", "op": "Const", "attr": {"dtype": {"type": "DT_FLOAT"}, "value": {"tensor": {"dtype": "DT_FLOAT", "tensorShape": {"dim": [{"size": "480"}]}}}}}, {"name": "efficientdet/block4c_dwconv/depthwise_weights", "op": "Const", "attr": {"value": {"tensor": {"dtype": "DT_FLOAT", "tensorShape": {"dim": [{"size": "3"}, {"size": "3"}, {"size": "480"}, {"size": "1"}]}}}, "dtype": {"type": "DT_FLOAT"}}}, {"name": "efficientdet/block4c_dwconv/depthwise_bn_offset", "op": "Const", "attr": {"value": {"tensor": {"dtype": "DT_FLOAT", "tensorShape": {"dim": [{"size": "480"}]}}}, "dtype": {"type": "DT_FLOAT"}}}, {"name": "efficientdet/fpn_cells/cell_2/fnode4/op_after_combine9/conv/separable_conv2d_weights", "op": "Const", "attr": {"value": {"tensor": {"dtype": "DT_FLOAT", "tensorShape": {"dim": [{"size": "1"}, {"size": "1"}, {"size": "64"}, {"size": "64"}]}}}, "dtype": {"type": "DT_FLOAT"}}}, {"name": "efficientdet/block4c_project_conv/Conv2D_weights", "op": "Const", "attr": {"value": {"tensor": {"dtype": "DT_FLOAT", "tensorShape": {"dim": [{"size": "1"}, {"size": "1"}, {"size": "480"}, {"size": "80"}]}}}, "dtype": {"type": "DT_FLOAT"}}}, {"name": "efficientdet/fpn_cells/cell_2/fnode4/op_after_combine9/conv/separable_conv2d_bn_offset", "op": "Const", "attr": {"value": {"tensor": {"dtype": "DT_FLOAT", "tensorShape": {"dim": [{"size": "64"}]}}}, "dtype": {"type": "DT_FLOAT"}}}, {"name": "efficientdet/block4c_project_conv/Conv2D_bn_offset", "op": "Const", "attr": {"dtype": {"type": "DT_FLOAT"}, "value": {"tensor": {"dtype": "DT_FLOAT", "tensorShape": {"dim": [{"size": "80"}]}}}}}, {"name": "efficientdet/block5a_expand_conv/Conv2D_weights", "op": "Const", "attr": {"dtype": {"type": "DT_FLOAT"}, "value": {"tensor": {"dtype": "DT_FLOAT", "tensorShape": {"dim": [{"size": "1"}, {"size": "1"}, {"size": "80"}, {"size": "480"}]}}}}}, {"name": "efficientdet/block5a_expand_conv/Conv2D_bn_offset", "op": "Const", "attr": {"dtype": {"type": "DT_FLOAT"}, "value": {"tensor": {"dtype": "DT_FLOAT", "tensorShape": {"dim": [{"size": "480"}]}}}}}, {"name": "efficientdet/block5a_dwconv/depthwise_weights", "op": "Const", "attr": {"value": {"tensor": {"dtype": "DT_FLOAT", "tensorShape": {"dim": [{"size": "5"}, {"size": "5"}, {"size": "480"}, {"size": "1"}]}}}, "dtype": {"type": "DT_FLOAT"}}}, {"name": "efficientdet/block5a_dwconv/depthwise_bn_offset", "op": "Const", "attr": {"dtype": {"type": "DT_FLOAT"}, "value": {"tensor": {"dtype": "DT_FLOAT", "tensorShape": {"dim": [{"size": "480"}]}}}}}, {"name": "efficientdet/block5a_project_conv/Conv2D_weights", "op": "Const", "attr": {"value": {"tensor": {"dtype": "DT_FLOAT", "tensorShape": {"dim": [{"size": "1"}, {"size": "1"}, {"size": "480"}, {"size": "112"}]}}}, "dtype": {"type": "DT_FLOAT"}}}, {"name": "efficientdet/block5a_project_conv/Conv2D_bn_offset", "op": "Const", "attr": {"dtype": {"type": "DT_FLOAT"}, "value": {"tensor": {"dtype": "DT_FLOAT", "tensorShape": {"dim": [{"size": "112"}]}}}}}, {"name": "efficientdet/block5b_expand_conv/Conv2D_weights", "op": "Const", "attr": {"dtype": {"type": "DT_FLOAT"}, "value": {"tensor": {"dtype": "DT_FLOAT", "tensorShape": {"dim": [{"size": "1"}, {"size": "1"}, {"size": "112"}, {"size": "672"}]}}}}}, {"name": "efficientdet/block5b_expand_conv/Conv2D_bn_offset", "op": "Const", "attr": {"value": {"tensor": {"dtype": "DT_FLOAT", "tensorShape": {"dim": [{"size": "672"}]}}}, "dtype": {"type": "DT_FLOAT"}}}, {"name": "efficientdet/block5b_dwconv/depthwise_weights", "op": "Const", "attr": {"dtype": {"type": "DT_FLOAT"}, "value": {"tensor": {"dtype": "DT_FLOAT", "tensorShape": {"dim": [{"size": "5"}, {"size": "5"}, {"size": "672"}, {"size": "1"}]}}}}}, {"name": "efficientdet/block5b_dwconv/depthwise_bn_offset", "op": "Const", "attr": {"value": {"tensor": {"dtype": "DT_FLOAT", "tensorShape": {"dim": [{"size": "672"}]}}}, "dtype": {"type": "DT_FLOAT"}}}, {"name": "efficientdet/block5b_project_conv/Conv2D_weights", "op": "Const", "attr": {"dtype": {"type": "DT_FLOAT"}, "value": {"tensor": {"dtype": "DT_FLOAT", "tensorShape": {"dim": [{"size": "1"}, {"size": "1"}, {"size": "672"}, {"size": "112"}]}}}}}, {"name": "efficientdet/block5b_project_conv/Conv2D_bn_offset", "op": "Const", "attr": {"dtype": {"type": "DT_FLOAT"}, "value": {"tensor": {"dtype": "DT_FLOAT", "tensorShape": {"dim": [{"size": "112"}]}}}}}, {"name": "efficientdet/block5c_expand_conv/Conv2D_weights", "op": "Const", "attr": {"dtype": {"type": "DT_FLOAT"}, "value": {"tensor": {"dtype": "DT_FLOAT", "tensorShape": {"dim": [{"size": "1"}, {"size": "1"}, {"size": "112"}, {"size": "672"}]}}}}}, {"name": "efficientdet/block5c_expand_conv/Conv2D_bn_offset", "op": "Const", "attr": {"value": {"tensor": {"dtype": "DT_FLOAT", "tensorShape": {"dim": [{"size": "672"}]}}}, "dtype": {"type": "DT_FLOAT"}}}, {"name": "efficientdet/block5c_dwconv/depthwise_weights", "op": "Const", "attr": {"dtype": {"type": "DT_FLOAT"}, "value": {"tensor": {"dtype": "DT_FLOAT", "tensorShape": {"dim": [{"size": "5"}, {"size": "5"}, {"size": "672"}, {"size": "1"}]}}}}}, {"name": "efficientdet/block5c_dwconv/depthwise_bn_offset", "op": "Const", "attr": {"value": {"tensor": {"dtype": "DT_FLOAT", "tensorShape": {"dim": [{"size": "672"}]}}}, "dtype": {"type": "DT_FLOAT"}}}, {"name": "efficientdet/class_net/class-2/separable_conv2d_weights", "op": "Const", "attr": {"value": {"tensor": {"dtype": "DT_FLOAT", "tensorShape": {"dim": [{"size": "1"}, {"size": "1"}, {"size": "64"}, {"size": "64"}]}}}, "dtype": {"type": "DT_FLOAT"}}}, {"name": "efficientdet/block5c_project_conv/Conv2D_weights", "op": "Const", "attr": {"value": {"tensor": {"dtype": "DT_FLOAT", "tensorShape": {"dim": [{"size": "1"}, {"size": "1"}, {"size": "672"}, {"size": "112"}]}}}, "dtype": {"type": "DT_FLOAT"}}}, {"name": "efficientdet/class_net/class-2/separable_conv2d_bn_offset", "op": "Const", "attr": {"dtype": {"type": "DT_FLOAT"}, "value": {"tensor": {"dtype": "DT_FLOAT", "tensorShape": {"dim": [{"size": "64"}]}}}}}, {"name": "efficientdet/block5c_project_conv/Conv2D_bn_offset", "op": "Const", "attr": {"value": {"tensor": {"dtype": "DT_FLOAT", "tensorShape": {"dim": [{"size": "112"}]}}}, "dtype": {"type": "DT_FLOAT"}}}, {"name": "efficientdet/block6a_expand_conv/Conv2D_weights", "op": "Const", "attr": {"dtype": {"type": "DT_FLOAT"}, "value": {"tensor": {"dtype": "DT_FLOAT", "tensorShape": {"dim": [{"size": "1"}, {"size": "1"}, {"size": "112"}, {"size": "672"}]}}}}}, {"name": "efficientdet/block6a_expand_conv/Conv2D_bn_offset", "op": "Const", "attr": {"value": {"tensor": {"dtype": "DT_FLOAT", "tensorShape": {"dim": [{"size": "672"}]}}}, "dtype": {"type": "DT_FLOAT"}}}, {"name": "efficientdet/fpn_cells/cell_0/fnode4/resample_0_1_9/conv2d/Conv2D_weights", "op": "Const", "attr": {"value": {"tensor": {"dtype": "DT_FLOAT", "tensorShape": {"dim": [{"size": "1"}, {"size": "1"}, {"size": "112"}, {"size": "64"}]}}}, "dtype": {"type": "DT_FLOAT"}}}, {"name": "efficientdet/fpn_cells/cell_0/fnode4/resample_0_1_9/conv2d/Conv2D_bn_offset", "op": "Const", "attr": {"dtype": {"type": "DT_FLOAT"}, "value": {"tensor": {"dtype": "DT_FLOAT", "tensorShape": {"dim": [{"size": "64"}]}}}}}, {"name": "efficientdet/fpn_cells/cell_0/fnode2/resample_0_1_7/conv2d/Conv2D_weights", "op": "Const", "attr": {"value": {"tensor": {"dtype": "DT_FLOAT", "tensorShape": {"dim": [{"size": "1"}, {"size": "1"}, {"size": "112"}, {"size": "64"}]}}}, "dtype": {"type": "DT_FLOAT"}}}, {"name": "efficientdet/fpn_cells/cell_0/fnode2/resample_0_1_7/conv2d/Conv2D_bn_offset", "op": "Const", "attr": {"value": {"tensor": {"dtype": "DT_FLOAT", "tensorShape": {"dim": [{"size": "64"}]}}}, "dtype": {"type": "DT_FLOAT"}}}, {"name": "efficientdet/block6a_dwconv/depthwise_weights", "op": "Const", "attr": {"dtype": {"type": "DT_FLOAT"}, "value": {"tensor": {"dtype": "DT_FLOAT", "tensorShape": {"dim": [{"size": "5"}, {"size": "5"}, {"size": "672"}, {"size": "1"}]}}}}}, {"name": "efficientdet/block6a_dwconv/depthwise_bn_offset", "op": "Const", "attr": {"value": {"tensor": {"dtype": "DT_FLOAT", "tensorShape": {"dim": [{"size": "672"}]}}}, "dtype": {"type": "DT_FLOAT"}}}, {"name": "efficientdet/block6a_project_conv/Conv2D_weights", "op": "Const", "attr": {"value": {"tensor": {"dtype": "DT_FLOAT", "tensorShape": {"dim": [{"size": "1"}, {"size": "1"}, {"size": "672"}, {"size": "192"}]}}}, "dtype": {"type": "DT_FLOAT"}}}, {"name": "efficientdet/block6a_project_conv/Conv2D_bn_offset", "op": "Const", "attr": {"value": {"tensor": {"dtype": "DT_FLOAT", "tensorShape": {"dim": [{"size": "192"}]}}}, "dtype": {"type": "DT_FLOAT"}}}, {"name": "efficientdet/block6b_expand_conv/Conv2D_weights", "op": "Const", "attr": {"value": {"tensor": {"dtype": "DT_FLOAT", "tensorShape": {"dim": [{"size": "1"}, {"size": "1"}, {"size": "192"}, {"size": "1152"}]}}}, "dtype": {"type": "DT_FLOAT"}}}, {"name": "efficientdet/block6b_expand_conv/Conv2D_bn_offset", "op": "Const", "attr": {"value": {"tensor": {"dtype": "DT_FLOAT", "tensorShape": {"dim": [{"size": "1152"}]}}}, "dtype": {"type": "DT_FLOAT"}}}, {"name": "efficientdet/block6b_dwconv/depthwise_weights", "op": "Const", "attr": {"dtype": {"type": "DT_FLOAT"}, "value": {"tensor": {"dtype": "DT_FLOAT", "tensorShape": {"dim": [{"size": "5"}, {"size": "5"}, {"size": "1152"}, {"size": "1"}]}}}}}, {"name": "efficientdet/block6b_dwconv/depthwise_bn_offset", "op": "Const", "attr": {"dtype": {"type": "DT_FLOAT"}, "value": {"tensor": {"dtype": "DT_FLOAT", "tensorShape": {"dim": [{"size": "1152"}]}}}}}, {"name": "efficientdet/block6b_project_conv/Conv2D_weights", "op": "Const", "attr": {"dtype": {"type": "DT_FLOAT"}, "value": {"tensor": {"dtype": "DT_FLOAT", "tensorShape": {"dim": [{"size": "1"}, {"size": "1"}, {"size": "1152"}, {"size": "192"}]}}}}}, {"name": "efficientdet/block6b_project_conv/Conv2D_bn_offset", "op": "Const", "attr": {"dtype": {"type": "DT_FLOAT"}, "value": {"tensor": {"dtype": "DT_FLOAT", "tensorShape": {"dim": [{"size": "192"}]}}}}}, {"name": "efficientdet/block6c_expand_conv/Conv2D_weights", "op": "Const", "attr": {"value": {"tensor": {"dtype": "DT_FLOAT", "tensorShape": {"dim": [{"size": "1"}, {"size": "1"}, {"size": "192"}, {"size": "1152"}]}}}, "dtype": {"type": "DT_FLOAT"}}}, {"name": "efficientdet/fpn_cells/cell_2/fnode5/op_after_combine10/conv/separable_conv2d_weights", "op": "Const", "attr": {"dtype": {"type": "DT_FLOAT"}, "value": {"tensor": {"dtype": "DT_FLOAT", "tensorShape": {"dim": [{"size": "1"}, {"size": "1"}, {"size": "64"}, {"size": "64"}]}}}}}, {"name": "efficientdet/block6c_expand_conv/Conv2D_bn_offset", "op": "Const", "attr": {"dtype": {"type": "DT_FLOAT"}, "value": {"tensor": {"dtype": "DT_FLOAT", "tensorShape": {"dim": [{"size": "1152"}]}}}}}, {"name": "efficientdet/block6c_dwconv/depthwise_weights", "op": "Const", "attr": {"dtype": {"type": "DT_FLOAT"}, "value": {"tensor": {"dtype": "DT_FLOAT", "tensorShape": {"dim": [{"size": "5"}, {"size": "5"}, {"size": "1152"}, {"size": "1"}]}}}}}, {"name": "efficientdet/block6c_dwconv/depthwise_bn_offset", "op": "Const", "attr": {"value": {"tensor": {"dtype": "DT_FLOAT", "tensorShape": {"dim": [{"size": "1152"}]}}}, "dtype": {"type": "DT_FLOAT"}}}, {"name": "efficientdet/fpn_cells/cell_2/fnode5/op_after_combine10/conv/separable_conv2d_bn_offset", "op": "Const", "attr": {"dtype": {"type": "DT_FLOAT"}, "value": {"tensor": {"dtype": "DT_FLOAT", "tensorShape": {"dim": [{"size": "64"}]}}}}}, {"name": "efficientdet/block6c_project_conv/Conv2D_weights", "op": "Const", "attr": {"value": {"tensor": {"dtype": "DT_FLOAT", "tensorShape": {"dim": [{"size": "1"}, {"size": "1"}, {"size": "1152"}, {"size": "192"}]}}}, "dtype": {"type": "DT_FLOAT"}}}, {"name": "efficientdet/block6c_project_conv/Conv2D_bn_offset", "op": "Const", "attr": {"dtype": {"type": "DT_FLOAT"}, "value": {"tensor": {"dtype": "DT_FLOAT", "tensorShape": {"dim": [{"size": "192"}]}}}}}, {"name": "efficientdet/block6d_expand_conv/Conv2D_weights", "op": "Const", "attr": {"value": {"tensor": {"dtype": "DT_FLOAT", "tensorShape": {"dim": [{"size": "1"}, {"size": "1"}, {"size": "192"}, {"size": "1152"}]}}}, "dtype": {"type": "DT_FLOAT"}}}, {"name": "efficientdet/block6d_expand_conv/Conv2D_bn_offset", "op": "Const", "attr": {"dtype": {"type": "DT_FLOAT"}, "value": {"tensor": {"dtype": "DT_FLOAT", "tensorShape": {"dim": [{"size": "1152"}]}}}}}, {"name": "efficientdet/block6d_dwconv/depthwise_weights", "op": "Const", "attr": {"value": {"tensor": {"dtype": "DT_FLOAT", "tensorShape": {"dim": [{"size": "5"}, {"size": "5"}, {"size": "1152"}, {"size": "1"}]}}}, "dtype": {"type": "DT_FLOAT"}}}, {"name": "efficientdet/block6d_dwconv/depthwise_bn_offset", "op": "Const", "attr": {"value": {"tensor": {"dtype": "DT_FLOAT", "tensorShape": {"dim": [{"size": "1152"}]}}}, "dtype": {"type": "DT_FLOAT"}}}, {"name": "efficientdet/block6d_project_conv/Conv2D_weights", "op": "Const", "attr": {"value": {"tensor": {"dtype": "DT_FLOAT", "tensorShape": {"dim": [{"size": "1"}, {"size": "1"}, {"size": "1152"}, {"size": "192"}]}}}, "dtype": {"type": "DT_FLOAT"}}}, {"name": "efficientdet/block6d_project_conv/Conv2D_bn_offset", "op": "Const", "attr": {"dtype": {"type": "DT_FLOAT"}, "value": {"tensor": {"dtype": "DT_FLOAT", "tensorShape": {"dim": [{"size": "192"}]}}}}}, {"name": "efficientdet/block7a_expand_conv/Conv2D_weights", "op": "Const", "attr": {"value": {"tensor": {"dtype": "DT_FLOAT", "tensorShape": {"dim": [{"size": "1"}, {"size": "1"}, {"size": "192"}, {"size": "1152"}]}}}, "dtype": {"type": "DT_FLOAT"}}}, {"name": "efficientdet/block7a_expand_conv/Conv2D_bn_offset", "op": "Const", "attr": {"dtype": {"type": "DT_FLOAT"}, "value": {"tensor": {"dtype": "DT_FLOAT", "tensorShape": {"dim": [{"size": "1152"}]}}}}}, {"name": "efficientdet/block7a_dwconv/depthwise_weights", "op": "Const", "attr": {"value": {"tensor": {"dtype": "DT_FLOAT", "tensorShape": {"dim": [{"size": "3"}, {"size": "3"}, {"size": "1152"}, {"size": "1"}]}}}, "dtype": {"type": "DT_FLOAT"}}}, {"name": "efficientdet/block7a_dwconv/depthwise_bn_offset", "op": "Const", "attr": {"dtype": {"type": "DT_FLOAT"}, "value": {"tensor": {"dtype": "DT_FLOAT", "tensorShape": {"dim": [{"size": "1152"}]}}}}}, {"name": "efficientdet/block7a_project_conv/Conv2D_weights", "op": "Const", "attr": {"dtype": {"type": "DT_FLOAT"}, "value": {"tensor": {"dtype": "DT_FLOAT", "tensorShape": {"dim": [{"size": "1"}, {"size": "1"}, {"size": "1152"}, {"size": "320"}]}}}}}, {"name": "efficientdet/block7a_project_conv/Conv2D_bn_offset", "op": "Const", "attr": {"dtype": {"type": "DT_FLOAT"}, "value": {"tensor": {"dtype": "DT_FLOAT", "tensorShape": {"dim": [{"size": "320"}]}}}}}, {"name": "efficientdet/fpn_cells/cell_0/fnode5/resample_0_2_10/conv2d/Conv2D_weights", "op": "Const", "attr": {"value": {"tensor": {"dtype": "DT_FLOAT", "tensorShape": {"dim": [{"size": "1"}, {"size": "1"}, {"size": "320"}, {"size": "64"}]}}}, "dtype": {"type": "DT_FLOAT"}}}, {"name": "efficientdet/fpn_cells/cell_2/fnode6/op_after_combine11/conv/separable_conv2d_weights", "op": "Const", "attr": {"value": {"tensor": {"dtype": "DT_FLOAT", "tensorShape": {"dim": [{"size": "1"}, {"size": "1"}, {"size": "64"}, {"size": "64"}]}}}, "dtype": {"type": "DT_FLOAT"}}}, {"name": "efficientdet/fpn_cells/cell_0/fnode5/resample_0_2_10/conv2d/Conv2D_bn_offset", "op": "Const", "attr": {"value": {"tensor": {"dtype": "DT_FLOAT", "tensorShape": {"dim": [{"size": "64"}]}}}, "dtype": {"type": "DT_FLOAT"}}}, {"name": "efficientdet/fpn_cells/cell_0/fnode1/resample_0_2_6/conv2d/Conv2D_weights", "op": "Const", "attr": {"dtype": {"type": "DT_FLOAT"}, "value": {"tensor": {"dtype": "DT_FLOAT", "tensorShape": {"dim": [{"size": "1"}, {"size": "1"}, {"size": "320"}, {"size": "64"}]}}}}}, {"name": "efficientdet/fpn_cells/cell_0/fnode1/resample_0_2_6/conv2d/Conv2D_bn_offset", "op": "Const", "attr": {"dtype": {"type": "DT_FLOAT"}, "value": {"tensor": {"dtype": "DT_FLOAT", "tensorShape": {"dim": [{"size": "64"}]}}}}}, {"name": "efficientdet/resample_p6/conv2d/Conv2D_weights", "op": "Const", "attr": {"value": {"tensor": {"dtype": "DT_FLOAT", "tensorShape": {"dim": [{"size": "1"}, {"size": "1"}, {"size": "320"}, {"size": "64"}]}}}, "dtype": {"type": "DT_FLOAT"}}}, {"name": "efficientdet/fpn_cells/cell_2/fnode6/op_after_combine11/conv/separable_conv2d_bn_offset", "op": "Const", "attr": {"dtype": {"type": "DT_FLOAT"}, "value": {"tensor": {"dtype": "DT_FLOAT", "tensorShape": {"dim": [{"size": "64"}]}}}}}, {"name": "efficientdet/resample_p6/conv2d/Conv2D_bn_offset", "op": "Const", "attr": {"value": {"tensor": {"dtype": "DT_FLOAT", "tensorShape": {"dim": [{"size": "64"}]}}}, "dtype": {"type": "DT_FLOAT"}}}, {"name": "efficientdet/fpn_cells/cell_0/fnode0/op_after_combine5/conv/separable_conv2d_weights", "op": "Const", "attr": {"dtype": {"type": "DT_FLOAT"}, "value": {"tensor": {"dtype": "DT_FLOAT", "tensorShape": {"dim": [{"size": "1"}, {"size": "1"}, {"size": "64"}, {"size": "64"}]}}}}}, {"name": "efficientdet/fpn_cells/cell_0/fnode0/op_after_combine5/conv/separable_conv2d_bn_offset", "op": "Const", "attr": {"value": {"tensor": {"dtype": "DT_FLOAT", "tensorShape": {"dim": [{"size": "64"}]}}}, "dtype": {"type": "DT_FLOAT"}}}, {"name": "efficientdet/fpn_cells/cell_0/fnode1/op_after_combine6/conv/separable_conv2d_weights", "op": "Const", "attr": {"value": {"tensor": {"dtype": "DT_FLOAT", "tensorShape": {"dim": [{"size": "1"}, {"size": "1"}, {"size": "64"}, {"size": "64"}]}}}, "dtype": {"type": "DT_FLOAT"}}}, {"name": "efficientdet/fpn_cells/cell_0/fnode1/op_after_combine6/conv/separable_conv2d_bn_offset", "op": "Const", "attr": {"dtype": {"type": "DT_FLOAT"}, "value": {"tensor": {"dtype": "DT_FLOAT", "tensorShape": {"dim": [{"size": "64"}]}}}}}, {"name": "efficientdet/fpn_cells/cell_0/fnode2/op_after_combine7/conv/separable_conv2d_weights", "op": "Const", "attr": {"value": {"tensor": {"dtype": "DT_FLOAT", "tensorShape": {"dim": [{"size": "1"}, {"size": "1"}, {"size": "64"}, {"size": "64"}]}}}, "dtype": {"type": "DT_FLOAT"}}}, {"name": "efficientdet/fpn_cells/cell_0/fnode2/op_after_combine7/conv/separable_conv2d_bn_offset", "op": "Const", "attr": {"dtype": {"type": "DT_FLOAT"}, "value": {"tensor": {"dtype": "DT_FLOAT", "tensorShape": {"dim": [{"size": "64"}]}}}}}, {"name": "efficientdet/fpn_cells/cell_0/fnode3/op_after_combine8/conv/separable_conv2d_weights", "op": "Const", "attr": {"dtype": {"type": "DT_FLOAT"}, "value": {"tensor": {"dtype": "DT_FLOAT", "tensorShape": {"dim": [{"size": "1"}, {"size": "1"}, {"size": "64"}, {"size": "64"}]}}}}}, {"name": "efficientdet/fpn_cells/cell_0/fnode3/op_after_combine8/conv/separable_conv2d_bn_offset", "op": "Const", "attr": {"dtype": {"type": "DT_FLOAT"}, "value": {"tensor": {"dtype": "DT_FLOAT", "tensorShape": {"dim": [{"size": "64"}]}}}}}, {"name": "efficientdet/fpn_cells/cell_0/fnode4/op_after_combine9/conv/separable_conv2d_weights", "op": "Const", "attr": {"dtype": {"type": "DT_FLOAT"}, "value": {"tensor": {"dtype": "DT_FLOAT", "tensorShape": {"dim": [{"size": "1"}, {"size": "1"}, {"size": "64"}, {"size": "64"}]}}}}}, {"name": "efficientdet/fpn_cells/cell_0/fnode4/op_after_combine9/conv/separable_conv2d_bn_offset", "op": "Const", "attr": {"value": {"tensor": {"dtype": "DT_FLOAT", "tensorShape": {"dim": [{"size": "64"}]}}}, "dtype": {"type": "DT_FLOAT"}}}, {"name": "efficientdet/fpn_cells/cell_0/fnode5/op_after_combine10/conv/separable_conv2d_weights", "op": "Const", "attr": {"value": {"tensor": {"dtype": "DT_FLOAT", "tensorShape": {"dim": [{"size": "1"}, {"size": "1"}, {"size": "64"}, {"size": "64"}]}}}, "dtype": {"type": "DT_FLOAT"}}}, {"name": "efficientdet/fpn_cells/cell_0/fnode5/op_after_combine10/conv/separable_conv2d_bn_offset", "op": "Const", "attr": {"dtype": {"type": "DT_FLOAT"}, "value": {"tensor": {"dtype": "DT_FLOAT", "tensorShape": {"dim": [{"size": "64"}]}}}}}, {"name": "efficientdet/fpn_cells/cell_0/fnode6/op_after_combine11/conv/separable_conv2d_weights", "op": "Const", "attr": {"dtype": {"type": "DT_FLOAT"}, "value": {"tensor": {"dtype": "DT_FLOAT", "tensorShape": {"dim": [{"size": "1"}, {"size": "1"}, {"size": "64"}, {"size": "64"}]}}}}}, {"name": "efficientdet/fpn_cells/cell_0/fnode6/op_after_combine11/conv/separable_conv2d_bn_offset", "op": "Const", "attr": {"value": {"tensor": {"dtype": "DT_FLOAT", "tensorShape": {"dim": [{"size": "64"}]}}}, "dtype": {"type": "DT_FLOAT"}}}, {"name": "efficientdet/fpn_cells/cell_0/fnode7/op_after_combine12/conv/separable_conv2d_weights", "op": "Const", "attr": {"value": {"tensor": {"dtype": "DT_FLOAT", "tensorShape": {"dim": [{"size": "1"}, {"size": "1"}, {"size": "64"}, {"size": "64"}]}}}, "dtype": {"type": "DT_FLOAT"}}}, {"name": "efficientdet/fpn_cells/cell_0/fnode7/op_after_combine12/conv/separable_conv2d_bn_offset", "op": "Const", "attr": {"dtype": {"type": "DT_FLOAT"}, "value": {"tensor": {"dtype": "DT_FLOAT", "tensorShape": {"dim": [{"size": "64"}]}}}}}, {"name": "efficientdet/fpn_cells/cell_1/fnode0/op_after_combine5/conv/separable_conv2d_weights", "op": "Const", "attr": {"dtype": {"type": "DT_FLOAT"}, "value": {"tensor": {"dtype": "DT_FLOAT", "tensorShape": {"dim": [{"size": "1"}, {"size": "1"}, {"size": "64"}, {"size": "64"}]}}}}}, {"name": "efficientdet/fpn_cells/cell_1/fnode0/op_after_combine5/conv/separable_conv2d_bn_offset", "op": "Const", "attr": {"value": {"tensor": {"dtype": "DT_FLOAT", "tensorShape": {"dim": [{"size": "64"}]}}}, "dtype": {"type": "DT_FLOAT"}}}, {"name": "efficientdet/fpn_cells/cell_1/fnode1/op_after_combine6/conv/separable_conv2d_weights", "op": "Const", "attr": {"dtype": {"type": "DT_FLOAT"}, "value": {"tensor": {"dtype": "DT_FLOAT", "tensorShape": {"dim": [{"size": "1"}, {"size": "1"}, {"size": "64"}, {"size": "64"}]}}}}}, {"name": "efficientdet/fpn_cells/cell_2/fnode7/op_after_combine12/conv/separable_conv2d_weights", "op": "Const", "attr": {"dtype": {"type": "DT_FLOAT"}, "value": {"tensor": {"dtype": "DT_FLOAT", "tensorShape": {"dim": [{"size": "1"}, {"size": "1"}, {"size": "64"}, {"size": "64"}]}}}}}, {"name": "efficientdet/fpn_cells/cell_1/fnode1/op_after_combine6/conv/separable_conv2d_bn_offset", "op": "Const", "attr": {"value": {"tensor": {"dtype": "DT_FLOAT", "tensorShape": {"dim": [{"size": "64"}]}}}, "dtype": {"type": "DT_FLOAT"}}}, {"name": "efficientdet/fpn_cells/cell_1/fnode2/op_after_combine7/conv/separable_conv2d_weights", "op": "Const", "attr": {"value": {"tensor": {"dtype": "DT_FLOAT", "tensorShape": {"dim": [{"size": "1"}, {"size": "1"}, {"size": "64"}, {"size": "64"}]}}}, "dtype": {"type": "DT_FLOAT"}}}, {"name": "efficientdet/fpn_cells/cell_1/fnode2/op_after_combine7/conv/separable_conv2d_bn_offset", "op": "Const", "attr": {"dtype": {"type": "DT_FLOAT"}, "value": {"tensor": {"dtype": "DT_FLOAT", "tensorShape": {"dim": [{"size": "64"}]}}}}}, {"name": "efficientdet/fpn_cells/cell_1/fnode3/op_after_combine8/conv/separable_conv2d_weights", "op": "Const", "attr": {"value": {"tensor": {"dtype": "DT_FLOAT", "tensorShape": {"dim": [{"size": "1"}, {"size": "1"}, {"size": "64"}, {"size": "64"}]}}}, "dtype": {"type": "DT_FLOAT"}}}, {"name": "efficientdet/fpn_cells/cell_2/fnode7/op_after_combine12/conv/separable_conv2d_bn_offset", "op": "Const", "attr": {"value": {"tensor": {"dtype": "DT_FLOAT", "tensorShape": {"dim": [{"size": "64"}]}}}, "dtype": {"type": "DT_FLOAT"}}}, {"name": "efficientdet/fpn_cells/cell_1/fnode3/op_after_combine8/conv/separable_conv2d_bn_offset", "op": "Const", "attr": {"dtype": {"type": "DT_FLOAT"}, "value": {"tensor": {"dtype": "DT_FLOAT", "tensorShape": {"dim": [{"size": "64"}]}}}}}, {"name": "efficientdet/fpn_cells/cell_1/fnode4/op_after_combine9/conv/separable_conv2d_weights", "op": "Const", "attr": {"dtype": {"type": "DT_FLOAT"}, "value": {"tensor": {"dtype": "DT_FLOAT", "tensorShape": {"dim": [{"size": "1"}, {"size": "1"}, {"size": "64"}, {"size": "64"}]}}}}}, {"name": "efficientdet/fpn_cells/cell_1/fnode4/op_after_combine9/conv/separable_conv2d_bn_offset", "op": "Const", "attr": {"dtype": {"type": "DT_FLOAT"}, "value": {"tensor": {"dtype": "DT_FLOAT", "tensorShape": {"dim": [{"size": "64"}]}}}}}, {"name": "efficientdet/fpn_cells/cell_1/fnode5/op_after_combine10/conv/separable_conv2d_weights", "op": "Const", "attr": {"dtype": {"type": "DT_FLOAT"}, "value": {"tensor": {"dtype": "DT_FLOAT", "tensorShape": {"dim": [{"size": "1"}, {"size": "1"}, {"size": "64"}, {"size": "64"}]}}}}}, {"name": "efficientdet/fpn_cells/cell_1/fnode5/op_after_combine10/conv/separable_conv2d_bn_offset", "op": "Const", "attr": {"dtype": {"type": "DT_FLOAT"}, "value": {"tensor": {"dtype": "DT_FLOAT", "tensorShape": {"dim": [{"size": "64"}]}}}}}, {"name": "efficientdet/fpn_cells/cell_1/fnode6/op_after_combine11/conv/separable_conv2d_weights", "op": "Const", "attr": {"dtype": {"type": "DT_FLOAT"}, "value": {"tensor": {"dtype": "DT_FLOAT", "tensorShape": {"dim": [{"size": "1"}, {"size": "1"}, {"size": "64"}, {"size": "64"}]}}}}}, {"name": "efficientdet/class_net/class-0_4/separable_conv2d_weights", "op": "Const", "attr": {"value": {"tensor": {"dtype": "DT_FLOAT", "tensorShape": {"dim": [{"size": "1"}, {"size": "1"}, {"size": "64"}, {"size": "64"}]}}}, "dtype": {"type": "DT_FLOAT"}}}, {"name": "efficientdet/fpn_cells/cell_1/fnode6/op_after_combine11/conv/separable_conv2d_bn_offset", "op": "Const", "attr": {"value": {"tensor": {"dtype": "DT_FLOAT", "tensorShape": {"dim": [{"size": "64"}]}}}, "dtype": {"type": "DT_FLOAT"}}}, {"name": "efficientdet/fpn_cells/cell_1/fnode7/op_after_combine12/conv/separable_conv2d_weights", "op": "Const", "attr": {"dtype": {"type": "DT_FLOAT"}, "value": {"tensor": {"dtype": "DT_FLOAT", "tensorShape": {"dim": [{"size": "1"}, {"size": "1"}, {"size": "64"}, {"size": "64"}]}}}}}, {"name": "efficientdet/fpn_cells/cell_1/fnode7/op_after_combine12/conv/separable_conv2d_bn_offset", "op": "Const", "attr": {"dtype": {"type": "DT_FLOAT"}, "value": {"tensor": {"dtype": "DT_FLOAT", "tensorShape": {"dim": [{"size": "64"}]}}}}}, {"name": "efficientdet/fpn_cells/cell_2/fnode0/op_after_combine5/conv/separable_conv2d_weights", "op": "Const", "attr": {"dtype": {"type": "DT_FLOAT"}, "value": {"tensor": {"dtype": "DT_FLOAT", "tensorShape": {"dim": [{"size": "1"}, {"size": "1"}, {"size": "64"}, {"size": "64"}]}}}}}, {"name": "efficientdet/class_net/class-0_4/separable_conv2d_bn_offset", "op": "Const", "attr": {"dtype": {"type": "DT_FLOAT"}, "value": {"tensor": {"dtype": "DT_FLOAT", "tensorShape": {"dim": [{"size": "64"}]}}}}}, {"name": "efficientdet/fpn_cells/cell_2/fnode0/op_after_combine5/conv/separable_conv2d_bn_offset", "op": "Const", "attr": {"dtype": {"type": "DT_FLOAT"}, "value": {"tensor": {"dtype": "DT_FLOAT", "tensorShape": {"dim": [{"size": "64"}]}}}}}, {"name": "efficientdet/class_net/class-0_3/separable_conv2d_weights", "op": "Const", "attr": {"value": {"tensor": {"dtype": "DT_FLOAT", "tensorShape": {"dim": [{"size": "1"}, {"size": "1"}, {"size": "64"}, {"size": "64"}]}}}, "dtype": {"type": "DT_FLOAT"}}}, {"name": "efficientdet/class_net/class-0_3/separable_conv2d_bn_offset", "op": "Const", "attr": {"dtype": {"type": "DT_FLOAT"}, "value": {"tensor": {"dtype": "DT_FLOAT", "tensorShape": {"dim": [{"size": "64"}]}}}}}, {"name": "efficientdet/class_net/class-1_3/separable_conv2d_weights", "op": "Const", "attr": {"dtype": {"type": "DT_FLOAT"}, "value": {"tensor": {"dtype": "DT_FLOAT", "tensorShape": {"dim": [{"size": "1"}, {"size": "1"}, {"size": "64"}, {"size": "64"}]}}}}}, {"name": "efficientdet/class_net/class-1_3/separable_conv2d_bn_offset", "op": "Const", "attr": {"dtype": {"type": "DT_FLOAT"}, "value": {"tensor": {"dtype": "DT_FLOAT", "tensorShape": {"dim": [{"size": "64"}]}}}}}, {"name": "efficientdet/fpn_cells/cell_2/fnode1/op_after_combine6/conv/separable_conv2d_weights", "op": "Const", "attr": {"dtype": {"type": "DT_FLOAT"}, "value": {"tensor": {"dtype": "DT_FLOAT", "tensorShape": {"dim": [{"size": "1"}, {"size": "1"}, {"size": "64"}, {"size": "64"}]}}}}}, {"name": "efficientdet/fpn_cells/cell_2/fnode1/op_after_combine6/conv/separable_conv2d_bn_offset", "op": "Const", "attr": {"value": {"tensor": {"dtype": "DT_FLOAT", "tensorShape": {"dim": [{"size": "64"}]}}}, "dtype": {"type": "DT_FLOAT"}}}, {"name": "efficientdet/class_net/class-2_3/separable_conv2d_weights", "op": "Const", "attr": {"dtype": {"type": "DT_FLOAT"}, "value": {"tensor": {"dtype": "DT_FLOAT", "tensorShape": {"dim": [{"size": "1"}, {"size": "1"}, {"size": "64"}, {"size": "64"}]}}}}}, {"name": "efficientdet/class_net/class-2_3/separable_conv2d_bn_offset", "op": "Const", "attr": {"value": {"tensor": {"dtype": "DT_FLOAT", "tensorShape": {"dim": [{"size": "64"}]}}}, "dtype": {"type": "DT_FLOAT"}}}, {"name": "efficientdet/class_net/class-1_4/separable_conv2d_weights", "op": "Const", "attr": {"value": {"tensor": {"dtype": "DT_FLOAT", "tensorShape": {"dim": [{"size": "1"}, {"size": "1"}, {"size": "64"}, {"size": "64"}]}}}, "dtype": {"type": "DT_FLOAT"}}}, {"name": "efficientdet/class_net/class-0_2/separable_conv2d_weights", "op": "Const", "attr": {"value": {"tensor": {"dtype": "DT_FLOAT", "tensorShape": {"dim": [{"size": "1"}, {"size": "1"}, {"size": "64"}, {"size": "64"}]}}}, "dtype": {"type": "DT_FLOAT"}}}, {"name": "efficientdet/class_net/class-0_2/separable_conv2d_bn_offset", "op": "Const", "attr": {"value": {"tensor": {"dtype": "DT_FLOAT", "tensorShape": {"dim": [{"size": "64"}]}}}, "dtype": {"type": "DT_FLOAT"}}}, {"name": "efficientdet/class_net/class-1_2/separable_conv2d_weights", "op": "Const", "attr": {"dtype": {"type": "DT_FLOAT"}, "value": {"tensor": {"dtype": "DT_FLOAT", "tensorShape": {"dim": [{"size": "1"}, {"size": "1"}, {"size": "64"}, {"size": "64"}]}}}}}, {"name": "efficientdet/class_net/class-1_4/separable_conv2d_bn_offset", "op": "Const", "attr": {"value": {"tensor": {"dtype": "DT_FLOAT", "tensorShape": {"dim": [{"size": "64"}]}}}, "dtype": {"type": "DT_FLOAT"}}}, {"name": "efficientdet/class_net/class-1_2/separable_conv2d_bn_offset", "op": "Const", "attr": {"value": {"tensor": {"dtype": "DT_FLOAT", "tensorShape": {"dim": [{"size": "64"}]}}}, "dtype": {"type": "DT_FLOAT"}}}, {"name": "efficientdet/fpn_cells/cell_2/fnode2/op_after_combine7/conv/separable_conv2d_weights", "op": "Const", "attr": {"dtype": {"type": "DT_FLOAT"}, "value": {"tensor": {"dtype": "DT_FLOAT", "tensorShape": {"dim": [{"size": "1"}, {"size": "1"}, {"size": "64"}, {"size": "64"}]}}}}}, {"name": "efficientdet/fpn_cells/cell_2/fnode2/op_after_combine7/conv/separable_conv2d_bn_offset", "op": "Const", "attr": {"value": {"tensor": {"dtype": "DT_FLOAT", "tensorShape": {"dim": [{"size": "64"}]}}}, "dtype": {"type": "DT_FLOAT"}}}, {"name": "efficientdet/class_net/class-2_2/separable_conv2d_weights", "op": "Const", "attr": {"value": {"tensor": {"dtype": "DT_FLOAT", "tensorShape": {"dim": [{"size": "1"}, {"size": "1"}, {"size": "64"}, {"size": "64"}]}}}, "dtype": {"type": "DT_FLOAT"}}}, {"name": "efficientdet/class_net/class-2_2/separable_conv2d_bn_offset", "op": "Const", "attr": {"value": {"tensor": {"dtype": "DT_FLOAT", "tensorShape": {"dim": [{"size": "64"}]}}}, "dtype": {"type": "DT_FLOAT"}}}, {"name": "efficientdet/class_net/class-0_1/separable_conv2d_weights", "op": "Const", "attr": {"value": {"tensor": {"dtype": "DT_FLOAT", "tensorShape": {"dim": [{"size": "1"}, {"size": "1"}, {"size": "64"}, {"size": "64"}]}}}, "dtype": {"type": "DT_FLOAT"}}}, {"name": "efficientdet/class_net/class-0_1/separable_conv2d_bn_offset", "op": "Const", "attr": {"value": {"tensor": {"dtype": "DT_FLOAT", "tensorShape": {"dim": [{"size": "64"}]}}}, "dtype": {"type": "DT_FLOAT"}}}, {"name": "efficientdet/class_net/class-1_1/separable_conv2d_weights", "op": "Const", "attr": {"dtype": {"type": "DT_FLOAT"}, "value": {"tensor": {"dtype": "DT_FLOAT", "tensorShape": {"dim": [{"size": "1"}, {"size": "1"}, {"size": "64"}, {"size": "64"}]}}}}}, {"name": "efficientdet/class_net/class-2_4/separable_conv2d_weights", "op": "Const", "attr": {"value": {"tensor": {"dtype": "DT_FLOAT", "tensorShape": {"dim": [{"size": "1"}, {"size": "1"}, {"size": "64"}, {"size": "64"}]}}}, "dtype": {"type": "DT_FLOAT"}}}, {"name": "efficientdet/class_net/class-1_1/separable_conv2d_bn_offset", "op": "Const", "attr": {"dtype": {"type": "DT_FLOAT"}, "value": {"tensor": {"dtype": "DT_FLOAT", "tensorShape": {"dim": [{"size": "64"}]}}}}}, {"name": "efficientdet/fpn_cells/cell_2/fnode3/op_after_combine8/conv/separable_conv2d_weights", "op": "Const", "attr": {"value": {"tensor": {"dtype": "DT_FLOAT", "tensorShape": {"dim": [{"size": "1"}, {"size": "1"}, {"size": "64"}, {"size": "64"}]}}}, "dtype": {"type": "DT_FLOAT"}}}, {"name": "efficientdet/fpn_cells/cell_2/fnode3/op_after_combine8/conv/separable_conv2d_bn_offset", "op": "Const", "attr": {"value": {"tensor": {"dtype": "DT_FLOAT", "tensorShape": {"dim": [{"size": "64"}]}}}, "dtype": {"type": "DT_FLOAT"}}}, {"name": "efficientdet/stem_bn/FusedBatchNormV3", "op": "_FusedConv2D", "input": ["x", "efficientdet/stem_conv/Conv2D_weights", "efficientdet/stem_conv/Conv2D_bn_offset"], "device": "/device:CPU:0", "attr": {"epsilon": {"f": 0.0}, "data_format": {"s": "TkhXQw=="}, "strides": {"list": {"i": ["1", "2", "2", "1"]}}, "use_cudnn_on_gpu": {"b": true}, "num_args": {"i": "1"}, "fused_ops": {"list": {"s": ["Qmlhc0FkZA=="]}}, "explicit_paddings": {"list": {}}, "padding": {"s": "U0FNRQ=="}, "dilations": {"list": {"i": ["1", "1", "1", "1"]}}, "T": {"type": "DT_FLOAT"}}}, {"name": "efficientdet/stem_activation/Sigmoid", "op": "Sigmoid", "input": ["efficientdet/stem_bn/FusedBatchNormV3"], "attr": {"T": {"type": "DT_FLOAT"}}}, {"name": "efficientdet/stem_activation/mul", "op": "Mul", "input": ["efficientdet/stem_activation/Sigmoid", "efficientdet/stem_bn/FusedBatchNormV3"], "attr": {"T": {"type": "DT_FLOAT"}}}, {"name": "efficientdet/block1a_dwconv/depthwise", "op": "FusedDepthwiseConv2dNative", "input": ["efficientdet/stem_activation/mul", "efficientdet/block1a_dwconv/depthwise_weights", "efficientdet/block1a_dwconv/depthwise_bn_offset"], "attr": {"data_format": {"s": "TkhXQw=="}, "padding": {"s": "U0FNRQ=="}, "T": {"type": "DT_FLOAT"}, "fused_ops": {"list": {"s": ["Qmlhc0FkZA=="]}}, "strides": {"list": {"i": ["1", "1", "1", "1"]}}, "dilations": {"list": {"i": ["1", "1", "1", "1"]}}, "num_args": {"i": "1"}}}, {"name": "efficientdet/block1a_activation/Sigmoid", "op": "Sigmoid", "input": ["efficientdet/block1a_dwconv/depthwise"], "attr": {"T": {"type": "DT_FLOAT"}}}, {"name": "efficientdet/block1a_activation/mul", "op": "Mul", "input": ["efficientdet/block1a_activation/Sigmoid", "efficientdet/block1a_dwconv/depthwise"], "attr": {"T": {"type": "DT_FLOAT"}}}, {"name": "efficientdet/block1a_se_squeeze/Mean", "op": "Mean", "input": ["efficientdet/block1a_activation/mul", "efficientdet/block6d_se_squeeze/Mean/reduction_indices"], "attr": {"T": {"type": "DT_FLOAT"}, "keep_dims": {"b": false}, "Tidx": {"type": "DT_INT32"}}}, {"name": "efficientdet/block1a_se_reshape/Shape", "op": "Shape", "input": ["efficientdet/block1a_se_squeeze/Mean"], "attr": {"out_type": {"type": "DT_INT32"}, "T": {"type": "DT_FLOAT"}}}, {"name": "efficientdet/block1a_se_reshape/strided_slice", "op": "StridedSlice", "input": ["efficientdet/block1a_se_reshape/Shape", "efficientdet/reshape_1_4/strided_slice/stack", "efficientdet/reshape_1_4/strided_slice/stack_1", "efficientdet/reshape_1_4/strided_slice/stack_1"], "attr": {"ellipsis_mask": {"i": "0"}, "end_mask": {"i": "0"}, "shrink_axis_mask": {"i": "1"}, "Index": {"type": "DT_INT32"}, "begin_mask": {"i": "0"}, "T": {"type": "DT_INT32"}, "new_axis_mask": {"i": "0"}}}, {"name": "efficientdet/block1a_se_reshape/Reshape/shape", "op": "Pack", "input": ["efficientdet/block1a_se_reshape/strided_slice", "efficientdet/block6d_se_reshape/Reshape/shape/1", "efficientdet/block6d_se_reshape/Reshape/shape/1", "efficientdet/block1a_se_reshape/Reshape/shape/3"], "attr": {"N": {"i": "4"}, "axis": {"i": "0"}, "T": {"type": "DT_INT32"}}}, {"name": "efficientdet/block1a_se_reshape/Reshape", "op": "Reshape", "input": ["efficientdet/block1a_se_squeeze/Mean", "efficientdet/block1a_se_reshape/Reshape/shape"], "attr": {"Tshape": {"type": "DT_INT32"}, "T": {"type": "DT_FLOAT"}}}, {"name": "efficientdet/block1a_se_reduce/BiasAdd", "op": "_FusedConv2D", "input": ["efficientdet/block1a_se_reshape/Reshape", "efficientdet/block1a_se_reduce/Conv2D/ReadVariableOp/resource", "efficientdet/block1a_se_reduce/BiasAdd/ReadVariableOp/resource"], "device": "/device:CPU:0", "attr": {"dilations": {"list": {"i": ["1", "1", "1", "1"]}}, "epsilon": {"f": 0.0}, "explicit_paddings": {"list": {}}, "data_format": {"s": "TkhXQw=="}, "T": {"type": "DT_FLOAT"}, "num_args": {"i": "1"}, "strides": {"list": {"i": ["1", "1", "1", "1"]}}, "padding": {"s": "U0FNRQ=="}, "fused_ops": {"list": {"s": ["Qmlhc0FkZA=="]}}, "use_cudnn_on_gpu": {"b": true}}}, {"name": "efficientdet/block1a_se_reduce/Sigmoid", "op": "Sigmoid", "input": ["efficientdet/block1a_se_reduce/BiasAdd"], "attr": {"T": {"type": "DT_FLOAT"}}}, {"name": "efficientdet/block1a_se_reduce/mul", "op": "Mul", "input": ["efficientdet/block1a_se_reduce/BiasAdd", "efficientdet/block1a_se_reduce/Sigmoid"], "attr": {"T": {"type": "DT_FLOAT"}}}, {"name": "efficientdet/block1a_se_expand/BiasAdd", "op": "_FusedConv2D", "input": ["efficientdet/block1a_se_reduce/mul", "efficientdet/block1a_se_expand/Conv2D/ReadVariableOp/resource", "efficientdet/block1a_se_expand/BiasAdd/ReadVariableOp/resource"], "device": "/device:CPU:0", "attr": {"use_cudnn_on_gpu": {"b": true}, "fused_ops": {"list": {"s": ["Qmlhc0FkZA=="]}}, "epsilon": {"f": 0.0}, "num_args": {"i": "1"}, "T": {"type": "DT_FLOAT"}, "data_format": {"s": "TkhXQw=="}, "padding": {"s": "U0FNRQ=="}, "dilations": {"list": {"i": ["1", "1", "1", "1"]}}, "strides": {"list": {"i": ["1", "1", "1", "1"]}}, "explicit_paddings": {"list": {}}}}, {"name": "efficientdet/block1a_se_expand/Sigmoid", "op": "Sigmoid", "input": ["efficientdet/block1a_se_expand/BiasAdd"], "attr": {"T": {"type": "DT_FLOAT"}}}, {"name": "efficientdet/block1a_se_excite/mul", "op": "Mul", "input": ["efficientdet/block1a_activation/mul", "efficientdet/block1a_se_expand/Sigmoid"], "attr": {"T": {"type": "DT_FLOAT"}}}, {"name": "efficientdet/block1a_project_bn/FusedBatchNormV3", "op": "_FusedConv2D", "input": ["efficientdet/block1a_se_excite/mul", "efficientdet/block1a_project_conv/Conv2D_weights", "efficientdet/block1a_project_conv/Conv2D_bn_offset"], "device": "/device:CPU:0", "attr": {"num_args": {"i": "1"}, "strides": {"list": {"i": ["1", "1", "1", "1"]}}, "explicit_paddings": {"list": {}}, "epsilon": {"f": 0.0}, "padding": {"s": "U0FNRQ=="}, "dilations": {"list": {"i": ["1", "1", "1", "1"]}}, "use_cudnn_on_gpu": {"b": true}, "fused_ops": {"list": {"s": ["Qmlhc0FkZA=="]}}, "data_format": {"s": "TkhXQw=="}, "T": {"type": "DT_FLOAT"}}}, {"name": "efficientdet/block2a_expand_bn/FusedBatchNormV3", "op": "_FusedConv2D", "input": ["efficientdet/block1a_project_bn/FusedBatchNormV3", "efficientdet/block2a_expand_conv/Conv2D_weights", "efficientdet/block2a_expand_conv/Conv2D_bn_offset"], "device": "/device:CPU:0", "attr": {"epsilon": {"f": 0.0}, "num_args": {"i": "1"}, "padding": {"s": "U0FNRQ=="}, "fused_ops": {"list": {"s": ["Qmlhc0FkZA=="]}}, "dilations": {"list": {"i": ["1", "1", "1", "1"]}}, "use_cudnn_on_gpu": {"b": true}, "T": {"type": "DT_FLOAT"}, "explicit_paddings": {"list": {}}, "strides": {"list": {"i": ["1", "1", "1", "1"]}}, "data_format": {"s": "TkhXQw=="}}}, {"name": "efficientdet/block2a_expand_activation/Sigmoid", "op": "Sigmoid", "input": ["efficientdet/block2a_expand_bn/FusedBatchNormV3"], "attr": {"T": {"type": "DT_FLOAT"}}}, {"name": "efficientdet/block2a_expand_activation/mul", "op": "Mul", "input": ["efficientdet/block2a_expand_activation/Sigmoid", "efficientdet/block2a_expand_bn/FusedBatchNormV3"], "attr": {"T": {"type": "DT_FLOAT"}}}, {"name": "efficientdet/block2a_dwconv/depthwise", "op": "FusedDepthwiseConv2dNative", "input": ["efficientdet/block2a_expand_activation/mul", "efficientdet/block2a_dwconv/depthwise_weights", "efficientdet/block2a_dwconv/depthwise_bn_offset"], "attr": {"fused_ops": {"list": {"s": ["Qmlhc0FkZA=="]}}, "num_args": {"i": "1"}, "padding": {"s": "U0FNRQ=="}, "dilations": {"list": {"i": ["1", "1", "1", "1"]}}, "strides": {"list": {"i": ["1", "2", "2", "1"]}}, "data_format": {"s": "TkhXQw=="}, "T": {"type": "DT_FLOAT"}}}, {"name": "efficientdet/block2a_activation/Sigmoid", "op": "Sigmoid", "input": ["efficientdet/block2a_dwconv/depthwise"], "attr": {"T": {"type": "DT_FLOAT"}}}, {"name": "efficientdet/block2a_activation/mul", "op": "Mul", "input": ["efficientdet/block2a_activation/Sigmoid", "efficientdet/block2a_dwconv/depthwise"], "attr": {"T": {"type": "DT_FLOAT"}}}, {"name": "efficientdet/block2a_se_squeeze/Mean", "op": "Mean", "input": ["efficientdet/block2a_activation/mul", "efficientdet/block6d_se_squeeze/Mean/reduction_indices"], "attr": {"T": {"type": "DT_FLOAT"}, "Tidx": {"type": "DT_INT32"}, "keep_dims": {"b": false}}}, {"name": "efficientdet/block2a_se_reshape/Shape", "op": "Shape", "input": ["efficientdet/block2a_se_squeeze/Mean"], "attr": {"T": {"type": "DT_FLOAT"}, "out_type": {"type": "DT_INT32"}}}, {"name": "efficientdet/block2a_se_reshape/strided_slice", "op": "StridedSlice", "input": ["efficientdet/block2a_se_reshape/Shape", "efficientdet/reshape_1_4/strided_slice/stack", "efficientdet/reshape_1_4/strided_slice/stack_1", "efficientdet/reshape_1_4/strided_slice/stack_1"], "attr": {"T": {"type": "DT_INT32"}, "new_axis_mask": {"i": "0"}, "end_mask": {"i": "0"}, "begin_mask": {"i": "0"}, "ellipsis_mask": {"i": "0"}, "Index": {"type": "DT_INT32"}, "shrink_axis_mask": {"i": "1"}}}, {"name": "efficientdet/block2a_se_reshape/Reshape/shape", "op": "Pack", "input": ["efficientdet/block2a_se_reshape/strided_slice", "efficientdet/block6d_se_reshape/Reshape/shape/1", "efficientdet/block6d_se_reshape/Reshape/shape/1", "efficientdet/block2a_se_reshape/Reshape/shape/3"], "attr": {"T": {"type": "DT_INT32"}, "axis": {"i": "0"}, "N": {"i": "4"}}}, {"name": "efficientdet/block2a_se_reshape/Reshape", "op": "Reshape", "input": ["efficientdet/block2a_se_squeeze/Mean", "efficientdet/block2a_se_reshape/Reshape/shape"], "attr": {"T": {"type": "DT_FLOAT"}, "Tshape": {"type": "DT_INT32"}}}, {"name": "efficientdet/block2a_se_reduce/BiasAdd", "op": "_FusedConv2D", "input": ["efficientdet/block2a_se_reshape/Reshape", "efficientdet/block2a_se_reduce/Conv2D/ReadVariableOp/resource", "efficientdet/block2a_se_reduce/BiasAdd/ReadVariableOp/resource"], "device": "/device:CPU:0", "attr": {"strides": {"list": {"i": ["1", "1", "1", "1"]}}, "num_args": {"i": "1"}, "T": {"type": "DT_FLOAT"}, "data_format": {"s": "TkhXQw=="}, "padding": {"s": "U0FNRQ=="}, "dilations": {"list": {"i": ["1", "1", "1", "1"]}}, "use_cudnn_on_gpu": {"b": true}, "epsilon": {"f": 0.0}, "fused_ops": {"list": {"s": ["Qmlhc0FkZA=="]}}, "explicit_paddings": {"list": {}}}}, {"name": "efficientdet/block2a_se_reduce/Sigmoid", "op": "Sigmoid", "input": ["efficientdet/block2a_se_reduce/BiasAdd"], "attr": {"T": {"type": "DT_FLOAT"}}}, {"name": "efficientdet/block2a_se_reduce/mul", "op": "Mul", "input": ["efficientdet/block2a_se_reduce/BiasAdd", "efficientdet/block2a_se_reduce/Sigmoid"], "attr": {"T": {"type": "DT_FLOAT"}}}, {"name": "efficientdet/block2a_se_expand/BiasAdd", "op": "_FusedConv2D", "input": ["efficientdet/block2a_se_reduce/mul", "efficientdet/block2a_se_expand/Conv2D/ReadVariableOp/resource", "efficientdet/block2a_se_expand/BiasAdd/ReadVariableOp/resource"], "device": "/device:CPU:0", "attr": {"dilations": {"list": {"i": ["1", "1", "1", "1"]}}, "data_format": {"s": "TkhXQw=="}, "padding": {"s": "U0FNRQ=="}, "explicit_paddings": {"list": {}}, "num_args": {"i": "1"}, "fused_ops": {"list": {"s": ["Qmlhc0FkZA=="]}}, "use_cudnn_on_gpu": {"b": true}, "epsilon": {"f": 0.0}, "T": {"type": "DT_FLOAT"}, "strides": {"list": {"i": ["1", "1", "1", "1"]}}}}, {"name": "efficientdet/block2a_se_expand/Sigmoid", "op": "Sigmoid", "input": ["efficientdet/block2a_se_expand/BiasAdd"], "attr": {"T": {"type": "DT_FLOAT"}}}, {"name": "efficientdet/block2a_se_excite/mul", "op": "Mul", "input": ["efficientdet/block2a_activation/mul", "efficientdet/block2a_se_expand/Sigmoid"], "attr": {"T": {"type": "DT_FLOAT"}}}, {"name": "efficientdet/block2a_project_bn/FusedBatchNormV3", "op": "_FusedConv2D", "input": ["efficientdet/block2a_se_excite/mul", "efficientdet/block2a_project_conv/Conv2D_weights", "efficientdet/block2a_project_conv/Conv2D_bn_offset"], "device": "/device:CPU:0", "attr": {"explicit_paddings": {"list": {}}, "epsilon": {"f": 0.0}, "strides": {"list": {"i": ["1", "1", "1", "1"]}}, "T": {"type": "DT_FLOAT"}, "data_format": {"s": "TkhXQw=="}, "dilations": {"list": {"i": ["1", "1", "1", "1"]}}, "fused_ops": {"list": {"s": ["Qmlhc0FkZA=="]}}, "num_args": {"i": "1"}, "padding": {"s": "U0FNRQ=="}, "use_cudnn_on_gpu": {"b": true}}}, {"name": "efficientdet/block2b_expand_bn/FusedBatchNormV3", "op": "_FusedConv2D", "input": ["efficientdet/block2a_project_bn/FusedBatchNormV3", "efficientdet/block2b_expand_conv/Conv2D_weights", "efficientdet/block2b_expand_conv/Conv2D_bn_offset"], "device": "/device:CPU:0", "attr": {"explicit_paddings": {"list": {}}, "dilations": {"list": {"i": ["1", "1", "1", "1"]}}, "data_format": {"s": "TkhXQw=="}, "strides": {"list": {"i": ["1", "1", "1", "1"]}}, "num_args": {"i": "1"}, "use_cudnn_on_gpu": {"b": true}, "T": {"type": "DT_FLOAT"}, "fused_ops": {"list": {"s": ["Qmlhc0FkZA=="]}}, "padding": {"s": "U0FNRQ=="}, "epsilon": {"f": 0.0}}}, {"name": "efficientdet/block2b_expand_activation/Sigmoid", "op": "Sigmoid", "input": ["efficientdet/block2b_expand_bn/FusedBatchNormV3"], "attr": {"T": {"type": "DT_FLOAT"}}}, {"name": "efficientdet/block2b_expand_activation/mul", "op": "Mul", "input": ["efficientdet/block2b_expand_activation/Sigmoid", "efficientdet/block2b_expand_bn/FusedBatchNormV3"], "attr": {"T": {"type": "DT_FLOAT"}}}, {"name": "efficientdet/block2b_dwconv/depthwise", "op": "FusedDepthwiseConv2dNative", "input": ["efficientdet/block2b_expand_activation/mul", "efficientdet/block2b_dwconv/depthwise_weights", "efficientdet/block2b_dwconv/depthwise_bn_offset"], "attr": {"dilations": {"list": {"i": ["1", "1", "1", "1"]}}, "strides": {"list": {"i": ["1", "1", "1", "1"]}}, "fused_ops": {"list": {"s": ["Qmlhc0FkZA=="]}}, "num_args": {"i": "1"}, "padding": {"s": "U0FNRQ=="}, "data_format": {"s": "TkhXQw=="}, "T": {"type": "DT_FLOAT"}}}, {"name": "efficientdet/block2b_activation/Sigmoid", "op": "Sigmoid", "input": ["efficientdet/block2b_dwconv/depthwise"], "attr": {"T": {"type": "DT_FLOAT"}}}, {"name": "efficientdet/block2b_activation/mul", "op": "Mul", "input": ["efficientdet/block2b_activation/Sigmoid", "efficientdet/block2b_dwconv/depthwise"], "attr": {"T": {"type": "DT_FLOAT"}}}, {"name": "efficientdet/block2b_se_squeeze/Mean", "op": "Mean", "input": ["efficientdet/block2b_activation/mul", "efficientdet/block6d_se_squeeze/Mean/reduction_indices"], "attr": {"keep_dims": {"b": false}, "T": {"type": "DT_FLOAT"}, "Tidx": {"type": "DT_INT32"}}}, {"name": "efficientdet/block2b_se_reshape/Shape", "op": "Shape", "input": ["efficientdet/block2b_se_squeeze/Mean"], "attr": {"T": {"type": "DT_FLOAT"}, "out_type": {"type": "DT_INT32"}}}, {"name": "efficientdet/block2b_se_reshape/strided_slice", "op": "StridedSlice", "input": ["efficientdet/block2b_se_reshape/Shape", "efficientdet/reshape_1_4/strided_slice/stack", "efficientdet/reshape_1_4/strided_slice/stack_1", "efficientdet/reshape_1_4/strided_slice/stack_1"], "attr": {"new_axis_mask": {"i": "0"}, "ellipsis_mask": {"i": "0"}, "begin_mask": {"i": "0"}, "shrink_axis_mask": {"i": "1"}, "end_mask": {"i": "0"}, "T": {"type": "DT_INT32"}, "Index": {"type": "DT_INT32"}}}, {"name": "efficientdet/block2b_se_reshape/Reshape/shape", "op": "Pack", "input": ["efficientdet/block2b_se_reshape/strided_slice", "efficientdet/block6d_se_reshape/Reshape/shape/1", "efficientdet/block6d_se_reshape/Reshape/shape/1", "efficientdet/block2b_se_reshape/Reshape/shape/3"], "attr": {"axis": {"i": "0"}, "T": {"type": "DT_INT32"}, "N": {"i": "4"}}}, {"name": "efficientdet/block2b_se_reshape/Reshape", "op": "Reshape", "input": ["efficientdet/block2b_se_squeeze/Mean", "efficientdet/block2b_se_reshape/Reshape/shape"], "attr": {"Tshape": {"type": "DT_INT32"}, "T": {"type": "DT_FLOAT"}}}, {"name": "efficientdet/block2b_se_reduce/BiasAdd", "op": "_FusedConv2D", "input": ["efficientdet/block2b_se_reshape/Reshape", "efficientdet/block2b_se_reduce/Conv2D/ReadVariableOp/resource", "efficientdet/block2b_se_reduce/BiasAdd/ReadVariableOp/resource"], "device": "/device:CPU:0", "attr": {"use_cudnn_on_gpu": {"b": true}, "epsilon": {"f": 0.0}, "T": {"type": "DT_FLOAT"}, "dilations": {"list": {"i": ["1", "1", "1", "1"]}}, "data_format": {"s": "TkhXQw=="}, "padding": {"s": "U0FNRQ=="}, "num_args": {"i": "1"}, "fused_ops": {"list": {"s": ["Qmlhc0FkZA=="]}}, "explicit_paddings": {"list": {}}, "strides": {"list": {"i": ["1", "1", "1", "1"]}}}}, {"name": "efficientdet/block2b_se_reduce/Sigmoid", "op": "Sigmoid", "input": ["efficientdet/block2b_se_reduce/BiasAdd"], "attr": {"T": {"type": "DT_FLOAT"}}}, {"name": "efficientdet/block2b_se_reduce/mul", "op": "Mul", "input": ["efficientdet/block2b_se_reduce/BiasAdd", "efficientdet/block2b_se_reduce/Sigmoid"], "attr": {"T": {"type": "DT_FLOAT"}}}, {"name": "efficientdet/block2b_se_expand/BiasAdd", "op": "_FusedConv2D", "input": ["efficientdet/block2b_se_reduce/mul", "efficientdet/block2b_se_expand/Conv2D/ReadVariableOp/resource", "efficientdet/block2b_se_expand/BiasAdd/ReadVariableOp/resource"], "device": "/device:CPU:0", "attr": {"padding": {"s": "U0FNRQ=="}, "explicit_paddings": {"list": {}}, "dilations": {"list": {"i": ["1", "1", "1", "1"]}}, "num_args": {"i": "1"}, "T": {"type": "DT_FLOAT"}, "fused_ops": {"list": {"s": ["Qmlhc0FkZA=="]}}, "strides": {"list": {"i": ["1", "1", "1", "1"]}}, "epsilon": {"f": 0.0}, "data_format": {"s": "TkhXQw=="}, "use_cudnn_on_gpu": {"b": true}}}, {"name": "efficientdet/block2b_se_expand/Sigmoid", "op": "Sigmoid", "input": ["efficientdet/block2b_se_expand/BiasAdd"], "attr": {"T": {"type": "DT_FLOAT"}}}, {"name": "efficientdet/block2b_se_excite/mul", "op": "Mul", "input": ["efficientdet/block2b_activation/mul", "efficientdet/block2b_se_expand/Sigmoid"], "attr": {"T": {"type": "DT_FLOAT"}}}, {"name": "efficientdet/block2b_project_bn/FusedBatchNormV3", "op": "_FusedConv2D", "input": ["efficientdet/block2b_se_excite/mul", "efficientdet/block2b_project_conv/Conv2D_weights", "efficientdet/block2b_project_conv/Conv2D_bn_offset"], "device": "/device:CPU:0", "attr": {"num_args": {"i": "1"}, "fused_ops": {"list": {"s": ["Qmlhc0FkZA=="]}}, "explicit_paddings": {"list": {}}, "data_format": {"s": "TkhXQw=="}, "epsilon": {"f": 0.0}, "T": {"type": "DT_FLOAT"}, "use_cudnn_on_gpu": {"b": true}, "dilations": {"list": {"i": ["1", "1", "1", "1"]}}, "strides": {"list": {"i": ["1", "1", "1", "1"]}}, "padding": {"s": "U0FNRQ=="}}}, {"name": "efficientdet/block2b_add/add", "op": "AddV2", "input": ["efficientdet/block2a_project_bn/FusedBatchNormV3", "efficientdet/block2b_project_bn/FusedBatchNormV3"], "attr": {"T": {"type": "DT_FLOAT"}}}, {"name": "efficientdet/block3a_expand_bn/FusedBatchNormV3", "op": "_FusedConv2D", "input": ["efficientdet/block2b_add/add", "efficientdet/block3a_expand_conv/Conv2D_weights", "efficientdet/block3a_expand_conv/Conv2D_bn_offset"], "device": "/device:CPU:0", "attr": {"data_format": {"s": "TkhXQw=="}, "dilations": {"list": {"i": ["1", "1", "1", "1"]}}, "use_cudnn_on_gpu": {"b": true}, "epsilon": {"f": 0.0}, "strides": {"list": {"i": ["1", "1", "1", "1"]}}, "padding": {"s": "U0FNRQ=="}, "T": {"type": "DT_FLOAT"}, "num_args": {"i": "1"}, "fused_ops": {"list": {"s": ["Qmlhc0FkZA=="]}}, "explicit_paddings": {"list": {}}}}, {"name": "efficientdet/block3a_expand_activation/Sigmoid", "op": "Sigmoid", "input": ["efficientdet/block3a_expand_bn/FusedBatchNormV3"], "attr": {"T": {"type": "DT_FLOAT"}}}, {"name": "efficientdet/block3a_expand_activation/mul", "op": "Mul", "input": ["efficientdet/block3a_expand_activation/Sigmoid", "efficientdet/block3a_expand_bn/FusedBatchNormV3"], "attr": {"T": {"type": "DT_FLOAT"}}}, {"name": "efficientdet/block3a_dwconv/depthwise", "op": "FusedDepthwiseConv2dNative", "input": ["efficientdet/block3a_expand_activation/mul", "efficientdet/block3a_dwconv/depthwise_weights", "efficientdet/block3a_dwconv/depthwise_bn_offset"], "attr": {"data_format": {"s": "TkhXQw=="}, "padding": {"s": "U0FNRQ=="}, "strides": {"list": {"i": ["1", "2", "2", "1"]}}, "dilations": {"list": {"i": ["1", "1", "1", "1"]}}, "T": {"type": "DT_FLOAT"}, "num_args": {"i": "1"}, "fused_ops": {"list": {"s": ["Qmlhc0FkZA=="]}}}}, {"name": "efficientdet/block3a_activation/Sigmoid", "op": "Sigmoid", "input": ["efficientdet/block3a_dwconv/depthwise"], "attr": {"T": {"type": "DT_FLOAT"}}}, {"name": "efficientdet/block3a_activation/mul", "op": "Mul", "input": ["efficientdet/block3a_activation/Sigmoid", "efficientdet/block3a_dwconv/depthwise"], "attr": {"T": {"type": "DT_FLOAT"}}}, {"name": "efficientdet/block3a_se_squeeze/Mean", "op": "Mean", "input": ["efficientdet/block3a_activation/mul", "efficientdet/block6d_se_squeeze/Mean/reduction_indices"], "attr": {"T": {"type": "DT_FLOAT"}, "Tidx": {"type": "DT_INT32"}, "keep_dims": {"b": false}}}, {"name": "efficientdet/block3a_se_reshape/Shape", "op": "Shape", "input": ["efficientdet/block3a_se_squeeze/Mean"], "attr": {"out_type": {"type": "DT_INT32"}, "T": {"type": "DT_FLOAT"}}}, {"name": "efficientdet/block3a_se_reshape/strided_slice", "op": "StridedSlice", "input": ["efficientdet/block3a_se_reshape/Shape", "efficientdet/reshape_1_4/strided_slice/stack", "efficientdet/reshape_1_4/strided_slice/stack_1", "efficientdet/reshape_1_4/strided_slice/stack_1"], "attr": {"ellipsis_mask": {"i": "0"}, "Index": {"type": "DT_INT32"}, "end_mask": {"i": "0"}, "begin_mask": {"i": "0"}, "shrink_axis_mask": {"i": "1"}, "new_axis_mask": {"i": "0"}, "T": {"type": "DT_INT32"}}}, {"name": "efficientdet/block3a_se_reshape/Reshape/shape", "op": "Pack", "input": ["efficientdet/block3a_se_reshape/strided_slice", "efficientdet/block6d_se_reshape/Reshape/shape/1", "efficientdet/block6d_se_reshape/Reshape/shape/1", "efficientdet/block2b_se_reshape/Reshape/shape/3"], "attr": {"T": {"type": "DT_INT32"}, "axis": {"i": "0"}, "N": {"i": "4"}}}, {"name": "efficientdet/block3a_se_reshape/Reshape", "op": "Reshape", "input": ["efficientdet/block3a_se_squeeze/Mean", "efficientdet/block3a_se_reshape/Reshape/shape"], "attr": {"Tshape": {"type": "DT_INT32"}, "T": {"type": "DT_FLOAT"}}}, {"name": "efficientdet/block3a_se_reduce/BiasAdd", "op": "_FusedConv2D", "input": ["efficientdet/block3a_se_reshape/Reshape", "efficientdet/block3a_se_reduce/Conv2D/ReadVariableOp/resource", "efficientdet/block3a_se_reduce/BiasAdd/ReadVariableOp/resource"], "device": "/device:CPU:0", "attr": {"dilations": {"list": {"i": ["1", "1", "1", "1"]}}, "T": {"type": "DT_FLOAT"}, "data_format": {"s": "TkhXQw=="}, "explicit_paddings": {"list": {}}, "strides": {"list": {"i": ["1", "1", "1", "1"]}}, "epsilon": {"f": 0.0}, "padding": {"s": "U0FNRQ=="}, "use_cudnn_on_gpu": {"b": true}, "fused_ops": {"list": {"s": ["Qmlhc0FkZA=="]}}, "num_args": {"i": "1"}}}, {"name": "efficientdet/block3a_se_reduce/Sigmoid", "op": "Sigmoid", "input": ["efficientdet/block3a_se_reduce/BiasAdd"], "attr": {"T": {"type": "DT_FLOAT"}}}, {"name": "efficientdet/block3a_se_reduce/mul", "op": "Mul", "input": ["efficientdet/block3a_se_reduce/BiasAdd", "efficientdet/block3a_se_reduce/Sigmoid"], "attr": {"T": {"type": "DT_FLOAT"}}}, {"name": "efficientdet/block3a_se_expand/BiasAdd", "op": "_FusedConv2D", "input": ["efficientdet/block3a_se_reduce/mul", "efficientdet/block3a_se_expand/Conv2D/ReadVariableOp/resource", "efficientdet/block3a_se_expand/BiasAdd/ReadVariableOp/resource"], "device": "/device:CPU:0", "attr": {"T": {"type": "DT_FLOAT"}, "dilations": {"list": {"i": ["1", "1", "1", "1"]}}, "explicit_paddings": {"list": {}}, "epsilon": {"f": 0.0}, "data_format": {"s": "TkhXQw=="}, "strides": {"list": {"i": ["1", "1", "1", "1"]}}, "padding": {"s": "U0FNRQ=="}, "num_args": {"i": "1"}, "fused_ops": {"list": {"s": ["Qmlhc0FkZA=="]}}, "use_cudnn_on_gpu": {"b": true}}}, {"name": "efficientdet/block3a_se_expand/Sigmoid", "op": "Sigmoid", "input": ["efficientdet/block3a_se_expand/BiasAdd"], "attr": {"T": {"type": "DT_FLOAT"}}}, {"name": "efficientdet/block3a_se_excite/mul", "op": "Mul", "input": ["efficientdet/block3a_activation/mul", "efficientdet/block3a_se_expand/Sigmoid"], "attr": {"T": {"type": "DT_FLOAT"}}}, {"name": "efficientdet/block3a_project_bn/FusedBatchNormV3", "op": "_FusedConv2D", "input": ["efficientdet/block3a_se_excite/mul", "efficientdet/block3a_project_conv/Conv2D_weights", "efficientdet/block3a_project_conv/Conv2D_bn_offset"], "device": "/device:CPU:0", "attr": {"T": {"type": "DT_FLOAT"}, "explicit_paddings": {"list": {}}, "dilations": {"list": {"i": ["1", "1", "1", "1"]}}, "padding": {"s": "U0FNRQ=="}, "epsilon": {"f": 0.0}, "strides": {"list": {"i": ["1", "1", "1", "1"]}}, "num_args": {"i": "1"}, "data_format": {"s": "TkhXQw=="}, "fused_ops": {"list": {"s": ["Qmlhc0FkZA=="]}}, "use_cudnn_on_gpu": {"b": true}}}, {"name": "efficientdet/block3b_expand_bn/FusedBatchNormV3", "op": "_FusedConv2D", "input": ["efficientdet/block3a_project_bn/FusedBatchNormV3", "efficientdet/block3b_expand_conv/Conv2D_weights", "efficientdet/block3b_expand_conv/Conv2D_bn_offset"], "device": "/device:CPU:0", "attr": {"epsilon": {"f": 0.0}, "data_format": {"s": "TkhXQw=="}, "padding": {"s": "U0FNRQ=="}, "strides": {"list": {"i": ["1", "1", "1", "1"]}}, "T": {"type": "DT_FLOAT"}, "explicit_paddings": {"list": {}}, "use_cudnn_on_gpu": {"b": true}, "dilations": {"list": {"i": ["1", "1", "1", "1"]}}, "num_args": {"i": "1"}, "fused_ops": {"list": {"s": ["Qmlhc0FkZA=="]}}}}, {"name": "efficientdet/block3b_expand_activation/Sigmoid", "op": "Sigmoid", "input": ["efficientdet/block3b_expand_bn/FusedBatchNormV3"], "attr": {"T": {"type": "DT_FLOAT"}}}, {"name": "efficientdet/block3b_expand_activation/mul", "op": "Mul", "input": ["efficientdet/block3b_expand_activation/Sigmoid", "efficientdet/block3b_expand_bn/FusedBatchNormV3"], "attr": {"T": {"type": "DT_FLOAT"}}}, {"name": "efficientdet/block3b_dwconv/depthwise", "op": "FusedDepthwiseConv2dNative", "input": ["efficientdet/block3b_expand_activation/mul", "efficientdet/block3b_dwconv/depthwise_weights", "efficientdet/block3b_dwconv/depthwise_bn_offset"], "attr": {"fused_ops": {"list": {"s": ["Qmlhc0FkZA=="]}}, "T": {"type": "DT_FLOAT"}, "strides": {"list": {"i": ["1", "1", "1", "1"]}}, "num_args": {"i": "1"}, "padding": {"s": "U0FNRQ=="}, "data_format": {"s": "TkhXQw=="}, "dilations": {"list": {"i": ["1", "1", "1", "1"]}}}}, {"name": "efficientdet/block3b_activation/Sigmoid", "op": "Sigmoid", "input": ["efficientdet/block3b_dwconv/depthwise"], "attr": {"T": {"type": "DT_FLOAT"}}}, {"name": "efficientdet/block3b_activation/mul", "op": "Mul", "input": ["efficientdet/block3b_activation/Sigmoid", "efficientdet/block3b_dwconv/depthwise"], "attr": {"T": {"type": "DT_FLOAT"}}}, {"name": "efficientdet/block3b_se_squeeze/Mean", "op": "Mean", "input": ["efficientdet/block3b_activation/mul", "efficientdet/block6d_se_squeeze/Mean/reduction_indices"], "attr": {"T": {"type": "DT_FLOAT"}, "keep_dims": {"b": false}, "Tidx": {"type": "DT_INT32"}}}, {"name": "efficientdet/block3b_se_reshape/Shape", "op": "Shape", "input": ["efficientdet/block3b_se_squeeze/Mean"], "attr": {"T": {"type": "DT_FLOAT"}, "out_type": {"type": "DT_INT32"}}}, {"name": "efficientdet/block3b_se_reshape/strided_slice", "op": "StridedSlice", "input": ["efficientdet/block3b_se_reshape/Shape", "efficientdet/reshape_1_4/strided_slice/stack", "efficientdet/reshape_1_4/strided_slice/stack_1", "efficientdet/reshape_1_4/strided_slice/stack_1"], "attr": {"Index": {"type": "DT_INT32"}, "shrink_axis_mask": {"i": "1"}, "begin_mask": {"i": "0"}, "end_mask": {"i": "0"}, "ellipsis_mask": {"i": "0"}, "new_axis_mask": {"i": "0"}, "T": {"type": "DT_INT32"}}}, {"name": "efficientdet/block3b_se_reshape/Reshape/shape", "op": "Pack", "input": ["efficientdet/block3b_se_reshape/strided_slice", "efficientdet/block6d_se_reshape/Reshape/shape/1", "efficientdet/block6d_se_reshape/Reshape/shape/1", "efficientdet/block3b_se_reshape/Reshape/shape/3"], "attr": {"axis": {"i": "0"}, "N": {"i": "4"}, "T": {"type": "DT_INT32"}}}, {"name": "efficientdet/block3b_se_reshape/Reshape", "op": "Reshape", "input": ["efficientdet/block3b_se_squeeze/Mean", "efficientdet/block3b_se_reshape/Reshape/shape"], "attr": {"Tshape": {"type": "DT_INT32"}, "T": {"type": "DT_FLOAT"}}}, {"name": "efficientdet/block3b_se_reduce/BiasAdd", "op": "_FusedConv2D", "input": ["efficientdet/block3b_se_reshape/Reshape", "efficientdet/block3b_se_reduce/Conv2D/ReadVariableOp/resource", "efficientdet/block3b_se_reduce/BiasAdd/ReadVariableOp/resource"], "device": "/device:CPU:0", "attr": {"epsilon": {"f": 0.0}, "strides": {"list": {"i": ["1", "1", "1", "1"]}}, "fused_ops": {"list": {"s": ["Qmlhc0FkZA=="]}}, "num_args": {"i": "1"}, "data_format": {"s": "TkhXQw=="}, "dilations": {"list": {"i": ["1", "1", "1", "1"]}}, "explicit_paddings": {"list": {}}, "use_cudnn_on_gpu": {"b": true}, "T": {"type": "DT_FLOAT"}, "padding": {"s": "U0FNRQ=="}}}, {"name": "efficientdet/block3b_se_reduce/Sigmoid", "op": "Sigmoid", "input": ["efficientdet/block3b_se_reduce/BiasAdd"], "attr": {"T": {"type": "DT_FLOAT"}}}, {"name": "efficientdet/block3b_se_reduce/mul", "op": "Mul", "input": ["efficientdet/block3b_se_reduce/BiasAdd", "efficientdet/block3b_se_reduce/Sigmoid"], "attr": {"T": {"type": "DT_FLOAT"}}}, {"name": "efficientdet/block3b_se_expand/BiasAdd", "op": "_FusedConv2D", "input": ["efficientdet/block3b_se_reduce/mul", "efficientdet/block3b_se_expand/Conv2D/ReadVariableOp/resource", "efficientdet/block3b_se_expand/BiasAdd/ReadVariableOp/resource"], "device": "/device:CPU:0", "attr": {"padding": {"s": "U0FNRQ=="}, "epsilon": {"f": 0.0}, "T": {"type": "DT_FLOAT"}, "dilations": {"list": {"i": ["1", "1", "1", "1"]}}, "data_format": {"s": "TkhXQw=="}, "use_cudnn_on_gpu": {"b": true}, "num_args": {"i": "1"}, "fused_ops": {"list": {"s": ["Qmlhc0FkZA=="]}}, "explicit_paddings": {"list": {}}, "strides": {"list": {"i": ["1", "1", "1", "1"]}}}}, {"name": "efficientdet/block3b_se_expand/Sigmoid", "op": "Sigmoid", "input": ["efficientdet/block3b_se_expand/BiasAdd"], "attr": {"T": {"type": "DT_FLOAT"}}}, {"name": "efficientdet/block3b_se_excite/mul", "op": "Mul", "input": ["efficientdet/block3b_activation/mul", "efficientdet/block3b_se_expand/Sigmoid"], "attr": {"T": {"type": "DT_FLOAT"}}}, {"name": "efficientdet/block3b_project_bn/FusedBatchNormV3", "op": "_FusedConv2D", "input": ["efficientdet/block3b_se_excite/mul", "efficientdet/block3b_project_conv/Conv2D_weights", "efficientdet/block3b_project_conv/Conv2D_bn_offset"], "device": "/device:CPU:0", "attr": {"num_args": {"i": "1"}, "data_format": {"s": "TkhXQw=="}, "use_cudnn_on_gpu": {"b": true}, "T": {"type": "DT_FLOAT"}, "strides": {"list": {"i": ["1", "1", "1", "1"]}}, "padding": {"s": "U0FNRQ=="}, "dilations": {"list": {"i": ["1", "1", "1", "1"]}}, "fused_ops": {"list": {"s": ["Qmlhc0FkZA=="]}}, "epsilon": {"f": 0.0}, "explicit_paddings": {"list": {}}}}, {"name": "efficientdet/block3b_add/add", "op": "AddV2", "input": ["efficientdet/block3a_project_bn/FusedBatchNormV3", "efficientdet/block3b_project_bn/FusedBatchNormV3"], "attr": {"T": {"type": "DT_FLOAT"}}}, {"name": "efficientdet/block4a_expand_bn/FusedBatchNormV3", "op": "_FusedConv2D", "input": ["efficientdet/block3b_add/add", "efficientdet/block4a_expand_conv/Conv2D_weights", "efficientdet/block4a_expand_conv/Conv2D_bn_offset"], "device": "/device:CPU:0", "attr": {"num_args": {"i": "1"}, "fused_ops": {"list": {"s": ["Qmlhc0FkZA=="]}}, "data_format": {"s": "TkhXQw=="}, "epsilon": {"f": 0.0}, "padding": {"s": "U0FNRQ=="}, "strides": {"list": {"i": ["1", "1", "1", "1"]}}, "dilations": {"list": {"i": ["1", "1", "1", "1"]}}, "explicit_paddings": {"list": {}}, "T": {"type": "DT_FLOAT"}, "use_cudnn_on_gpu": {"b": true}}}, {"name": "efficientdet/fpn_cells/cell_0/fnode3/resample_0_0_8/bn/FusedBatchNormV3", "op": "_FusedConv2D", "input": ["efficientdet/block3b_add/add", "efficientdet/fpn_cells/cell_0/fnode3/resample_0_0_8/conv2d/Conv2D_weights", "efficientdet/fpn_cells/cell_0/fnode3/resample_0_0_8/conv2d/Conv2D_bn_offset"], "device": "/device:CPU:0", "attr": {"strides": {"list": {"i": ["1", "1", "1", "1"]}}, "T": {"type": "DT_FLOAT"}, "use_cudnn_on_gpu": {"b": true}, "dilations": {"list": {"i": ["1", "1", "1", "1"]}}, "epsilon": {"f": 0.0}, "fused_ops": {"list": {"s": ["Qmlhc0FkZA=="]}}, "padding": {"s": "U0FNRQ=="}, "num_args": {"i": "1"}, "data_format": {"s": "TkhXQw=="}, "explicit_paddings": {"list": {}}}}, {"name": "efficientdet/block4a_expand_activation/Sigmoid", "op": "Sigmoid", "input": ["efficientdet/block4a_expand_bn/FusedBatchNormV3"], "attr": {"T": {"type": "DT_FLOAT"}}}, {"name": "efficientdet/fpn_cells/cell_0/fnode3/add/mul", "op": "Mul", "input": ["efficientdet/fpn_cells/cell_0/fnode3/add/strided_slice", "efficientdet/fpn_cells/cell_0/fnode3/resample_0_0_8/bn/FusedBatchNormV3"], "attr": {"T": {"type": "DT_FLOAT"}}}, {"name": "efficientdet/block4a_expand_activation/mul", "op": "Mul", "input": ["efficientdet/block4a_expand_activation/Sigmoid", "efficientdet/block4a_expand_bn/FusedBatchNormV3"], "attr": {"T": {"type": "DT_FLOAT"}}}, {"name": "efficientdet/block4a_dwconv/depthwise", "op": "FusedDepthwiseConv2dNative", "input": ["efficientdet/block4a_expand_activation/mul", "efficientdet/block4a_dwconv/depthwise_weights", "efficientdet/block4a_dwconv/depthwise_bn_offset"], "attr": {"num_args": {"i": "1"}, "dilations": {"list": {"i": ["1", "1", "1", "1"]}}, "T": {"type": "DT_FLOAT"}, "padding": {"s": "U0FNRQ=="}, "data_format": {"s": "TkhXQw=="}, "fused_ops": {"list": {"s": ["Qmlhc0FkZA=="]}}, "strides": {"list": {"i": ["1", "2", "2", "1"]}}}}, {"name": "efficientdet/block4a_activation/Sigmoid", "op": "Sigmoid", "input": ["efficientdet/block4a_dwconv/depthwise"], "attr": {"T": {"type": "DT_FLOAT"}}}, {"name": "efficientdet/block4a_activation/mul", "op": "Mul", "input": ["efficientdet/block4a_activation/Sigmoid", "efficientdet/block4a_dwconv/depthwise"], "attr": {"T": {"type": "DT_FLOAT"}}}, {"name": "efficientdet/block4a_se_squeeze/Mean", "op": "Mean", "input": ["efficientdet/block4a_activation/mul", "efficientdet/block6d_se_squeeze/Mean/reduction_indices"], "attr": {"Tidx": {"type": "DT_INT32"}, "T": {"type": "DT_FLOAT"}, "keep_dims": {"b": false}}}, {"name": "efficientdet/block4a_se_reshape/Shape", "op": "Shape", "input": ["efficientdet/block4a_se_squeeze/Mean"], "attr": {"T": {"type": "DT_FLOAT"}, "out_type": {"type": "DT_INT32"}}}, {"name": "efficientdet/block4a_se_reshape/strided_slice", "op": "StridedSlice", "input": ["efficientdet/block4a_se_reshape/Shape", "efficientdet/reshape_1_4/strided_slice/stack", "efficientdet/reshape_1_4/strided_slice/stack_1", "efficientdet/reshape_1_4/strided_slice/stack_1"], "attr": {"shrink_axis_mask": {"i": "1"}, "T": {"type": "DT_INT32"}, "new_axis_mask": {"i": "0"}, "begin_mask": {"i": "0"}, "Index": {"type": "DT_INT32"}, "ellipsis_mask": {"i": "0"}, "end_mask": {"i": "0"}}}, {"name": "efficientdet/block4a_se_reshape/Reshape/shape", "op": "Pack", "input": ["efficientdet/block4a_se_reshape/strided_slice", "efficientdet/block6d_se_reshape/Reshape/shape/1", "efficientdet/block6d_se_reshape/Reshape/shape/1", "efficientdet/block3b_se_reshape/Reshape/shape/3"], "attr": {"T": {"type": "DT_INT32"}, "axis": {"i": "0"}, "N": {"i": "4"}}}, {"name": "efficientdet/block4a_se_reshape/Reshape", "op": "Reshape", "input": ["efficientdet/block4a_se_squeeze/Mean", "efficientdet/block4a_se_reshape/Reshape/shape"], "attr": {"Tshape": {"type": "DT_INT32"}, "T": {"type": "DT_FLOAT"}}}, {"name": "efficientdet/block4a_se_reduce/BiasAdd", "op": "_FusedConv2D", "input": ["efficientdet/block4a_se_reshape/Reshape", "efficientdet/block4a_se_reduce/Conv2D/ReadVariableOp/resource", "efficientdet/block4a_se_reduce/BiasAdd/ReadVariableOp/resource"], "device": "/device:CPU:0", "attr": {"T": {"type": "DT_FLOAT"}, "fused_ops": {"list": {"s": ["Qmlhc0FkZA=="]}}, "num_args": {"i": "1"}, "epsilon": {"f": 0.0}, "strides": {"list": {"i": ["1", "1", "1", "1"]}}, "explicit_paddings": {"list": {}}, "dilations": {"list": {"i": ["1", "1", "1", "1"]}}, "padding": {"s": "U0FNRQ=="}, "use_cudnn_on_gpu": {"b": true}, "data_format": {"s": "TkhXQw=="}}}, {"name": "efficientdet/block4a_se_reduce/Sigmoid", "op": "Sigmoid", "input": ["efficientdet/block4a_se_reduce/BiasAdd"], "attr": {"T": {"type": "DT_FLOAT"}}}, {"name": "efficientdet/block4a_se_reduce/mul", "op": "Mul", "input": ["efficientdet/block4a_se_reduce/BiasAdd", "efficientdet/block4a_se_reduce/Sigmoid"], "attr": {"T": {"type": "DT_FLOAT"}}}, {"name": "efficientdet/block4a_se_expand/BiasAdd", "op": "_FusedConv2D", "input": ["efficientdet/block4a_se_reduce/mul", "efficientdet/block4a_se_expand/Conv2D/ReadVariableOp/resource", "efficientdet/block4a_se_expand/BiasAdd/ReadVariableOp/resource"], "device": "/device:CPU:0", "attr": {"num_args": {"i": "1"}, "T": {"type": "DT_FLOAT"}, "use_cudnn_on_gpu": {"b": true}, "dilations": {"list": {"i": ["1", "1", "1", "1"]}}, "padding": {"s": "U0FNRQ=="}, "fused_ops": {"list": {"s": ["Qmlhc0FkZA=="]}}, "explicit_paddings": {"list": {}}, "epsilon": {"f": 0.0}, "strides": {"list": {"i": ["1", "1", "1", "1"]}}, "data_format": {"s": "TkhXQw=="}}}, {"name": "efficientdet/block4a_se_expand/Sigmoid", "op": "Sigmoid", "input": ["efficientdet/block4a_se_expand/BiasAdd"], "attr": {"T": {"type": "DT_FLOAT"}}}, {"name": "efficientdet/block4a_se_excite/mul", "op": "Mul", "input": ["efficientdet/block4a_activation/mul", "efficientdet/block4a_se_expand/Sigmoid"], "attr": {"T": {"type": "DT_FLOAT"}}}, {"name": "efficientdet/block4a_project_bn/FusedBatchNormV3", "op": "_FusedConv2D", "input": ["efficientdet/block4a_se_excite/mul", "efficientdet/block4a_project_conv/Conv2D_weights", "efficientdet/block4a_project_conv/Conv2D_bn_offset"], "device": "/device:CPU:0", "attr": {"data_format": {"s": "TkhXQw=="}, "strides": {"list": {"i": ["1", "1", "1", "1"]}}, "dilations": {"list": {"i": ["1", "1", "1", "1"]}}, "T": {"type": "DT_FLOAT"}, "fused_ops": {"list": {"s": ["Qmlhc0FkZA=="]}}, "explicit_paddings": {"list": {}}, "padding": {"s": "U0FNRQ=="}, "epsilon": {"f": 0.0}, "num_args": {"i": "1"}, "use_cudnn_on_gpu": {"b": true}}}, {"name": "efficientdet/block4b_expand_bn/FusedBatchNormV3", "op": "_FusedConv2D", "input": ["efficientdet/block4a_project_bn/FusedBatchNormV3", "efficientdet/block4b_expand_conv/Conv2D_weights", "efficientdet/block4b_expand_conv/Conv2D_bn_offset"], "device": "/device:CPU:0", "attr": {"num_args": {"i": "1"}, "fused_ops": {"list": {"s": ["Qmlhc0FkZA=="]}}, "T": {"type": "DT_FLOAT"}, "data_format": {"s": "TkhXQw=="}, "explicit_paddings": {"list": {}}, "epsilon": {"f": 0.0}, "strides": {"list": {"i": ["1", "1", "1", "1"]}}, "dilations": {"list": {"i": ["1", "1", "1", "1"]}}, "use_cudnn_on_gpu": {"b": true}, "padding": {"s": "U0FNRQ=="}}}, {"name": "efficientdet/block4b_expand_activation/Sigmoid", "op": "Sigmoid", "input": ["efficientdet/block4b_expand_bn/FusedBatchNormV3"], "attr": {"T": {"type": "DT_FLOAT"}}}, {"name": "efficientdet/block4b_expand_activation/mul", "op": "Mul", "input": ["efficientdet/block4b_expand_activation/Sigmoid", "efficientdet/block4b_expand_bn/FusedBatchNormV3"], "attr": {"T": {"type": "DT_FLOAT"}}}, {"name": "efficientdet/block4b_dwconv/depthwise", "op": "FusedDepthwiseConv2dNative", "input": ["efficientdet/block4b_expand_activation/mul", "efficientdet/block4b_dwconv/depthwise_weights", "efficientdet/block4b_dwconv/depthwise_bn_offset"], "attr": {"strides": {"list": {"i": ["1", "1", "1", "1"]}}, "data_format": {"s": "TkhXQw=="}, "fused_ops": {"list": {"s": ["Qmlhc0FkZA=="]}}, "dilations": {"list": {"i": ["1", "1", "1", "1"]}}, "T": {"type": "DT_FLOAT"}, "padding": {"s": "U0FNRQ=="}, "num_args": {"i": "1"}}}, {"name": "efficientdet/block4b_activation/Sigmoid", "op": "Sigmoid", "input": ["efficientdet/block4b_dwconv/depthwise"], "attr": {"T": {"type": "DT_FLOAT"}}}, {"name": "efficientdet/block4b_activation/mul", "op": "Mul", "input": ["efficientdet/block4b_activation/Sigmoid", "efficientdet/block4b_dwconv/depthwise"], "attr": {"T": {"type": "DT_FLOAT"}}}, {"name": "efficientdet/block4b_se_squeeze/Mean", "op": "Mean", "input": ["efficientdet/block4b_activation/mul", "efficientdet/block6d_se_squeeze/Mean/reduction_indices"], "attr": {"Tidx": {"type": "DT_INT32"}, "T": {"type": "DT_FLOAT"}, "keep_dims": {"b": false}}}, {"name": "efficientdet/block4b_se_reshape/Shape", "op": "Shape", "input": ["efficientdet/block4b_se_squeeze/Mean"], "attr": {"T": {"type": "DT_FLOAT"}, "out_type": {"type": "DT_INT32"}}}, {"name": "efficientdet/block4b_se_reshape/strided_slice", "op": "StridedSlice", "input": ["efficientdet/block4b_se_reshape/Shape", "efficientdet/reshape_1_4/strided_slice/stack", "efficientdet/reshape_1_4/strided_slice/stack_1", "efficientdet/reshape_1_4/strided_slice/stack_1"], "attr": {"shrink_axis_mask": {"i": "1"}, "ellipsis_mask": {"i": "0"}, "begin_mask": {"i": "0"}, "T": {"type": "DT_INT32"}, "end_mask": {"i": "0"}, "Index": {"type": "DT_INT32"}, "new_axis_mask": {"i": "0"}}}, {"name": "efficientdet/block4b_se_reshape/Reshape/shape", "op": "Pack", "input": ["efficientdet/block4b_se_reshape/strided_slice", "efficientdet/block6d_se_reshape/Reshape/shape/1", "efficientdet/block6d_se_reshape/Reshape/shape/1", "efficientdet/block4c_se_reshape/Reshape/shape/3"], "attr": {"axis": {"i": "0"}, "N": {"i": "4"}, "T": {"type": "DT_INT32"}}}, {"name": "efficientdet/block4b_se_reshape/Reshape", "op": "Reshape", "input": ["efficientdet/block4b_se_squeeze/Mean", "efficientdet/block4b_se_reshape/Reshape/shape"], "attr": {"Tshape": {"type": "DT_INT32"}, "T": {"type": "DT_FLOAT"}}}, {"name": "efficientdet/block4b_se_reduce/BiasAdd", "op": "_FusedConv2D", "input": ["efficientdet/block4b_se_reshape/Reshape", "efficientdet/block4b_se_reduce/Conv2D/ReadVariableOp/resource", "efficientdet/block4b_se_reduce/BiasAdd/ReadVariableOp/resource"], "device": "/device:CPU:0", "attr": {"strides": {"list": {"i": ["1", "1", "1", "1"]}}, "data_format": {"s": "TkhXQw=="}, "dilations": {"list": {"i": ["1", "1", "1", "1"]}}, "T": {"type": "DT_FLOAT"}, "padding": {"s": "U0FNRQ=="}, "explicit_paddings": {"list": {}}, "use_cudnn_on_gpu": {"b": true}, "fused_ops": {"list": {"s": ["Qmlhc0FkZA=="]}}, "epsilon": {"f": 0.0}, "num_args": {"i": "1"}}}, {"name": "efficientdet/block4b_se_reduce/Sigmoid", "op": "Sigmoid", "input": ["efficientdet/block4b_se_reduce/BiasAdd"], "attr": {"T": {"type": "DT_FLOAT"}}}, {"name": "efficientdet/block4b_se_reduce/mul", "op": "Mul", "input": ["efficientdet/block4b_se_reduce/BiasAdd", "efficientdet/block4b_se_reduce/Sigmoid"], "attr": {"T": {"type": "DT_FLOAT"}}}, {"name": "efficientdet/block4b_se_expand/BiasAdd", "op": "_FusedConv2D", "input": ["efficientdet/block4b_se_reduce/mul", "efficientdet/block4b_se_expand/Conv2D/ReadVariableOp/resource", "efficientdet/block4b_se_expand/BiasAdd/ReadVariableOp/resource"], "device": "/device:CPU:0", "attr": {"strides": {"list": {"i": ["1", "1", "1", "1"]}}, "use_cudnn_on_gpu": {"b": true}, "data_format": {"s": "TkhXQw=="}, "epsilon": {"f": 0.0}, "padding": {"s": "U0FNRQ=="}, "fused_ops": {"list": {"s": ["Qmlhc0FkZA=="]}}, "T": {"type": "DT_FLOAT"}, "explicit_paddings": {"list": {}}, "dilations": {"list": {"i": ["1", "1", "1", "1"]}}, "num_args": {"i": "1"}}}, {"name": "efficientdet/block4b_se_expand/Sigmoid", "op": "Sigmoid", "input": ["efficientdet/block4b_se_expand/BiasAdd"], "attr": {"T": {"type": "DT_FLOAT"}}}, {"name": "efficientdet/block4b_se_excite/mul", "op": "Mul", "input": ["efficientdet/block4b_activation/mul", "efficientdet/block4b_se_expand/Sigmoid"], "attr": {"T": {"type": "DT_FLOAT"}}}, {"name": "efficientdet/block4b_project_bn/FusedBatchNormV3", "op": "_FusedConv2D", "input": ["efficientdet/block4b_se_excite/mul", "efficientdet/block4b_project_conv/Conv2D_weights", "efficientdet/block4b_project_conv/Conv2D_bn_offset"], "device": "/device:CPU:0", "attr": {"dilations": {"list": {"i": ["1", "1", "1", "1"]}}, "epsilon": {"f": 0.0}, "T": {"type": "DT_FLOAT"}, "strides": {"list": {"i": ["1", "1", "1", "1"]}}, "fused_ops": {"list": {"s": ["Qmlhc0FkZA=="]}}, "padding": {"s": "U0FNRQ=="}, "use_cudnn_on_gpu": {"b": true}, "explicit_paddings": {"list": {}}, "data_format": {"s": "TkhXQw=="}, "num_args": {"i": "1"}}}, {"name": "efficientdet/block4b_add/add", "op": "AddV2", "input": ["efficientdet/block4a_project_bn/FusedBatchNormV3", "efficientdet/block4b_project_bn/FusedBatchNormV3"], "attr": {"T": {"type": "DT_FLOAT"}}}, {"name": "efficientdet/block4c_expand_bn/FusedBatchNormV3", "op": "_FusedConv2D", "input": ["efficientdet/block4b_add/add", "efficientdet/block4c_expand_conv/Conv2D_weights", "efficientdet/block4c_expand_conv/Conv2D_bn_offset"], "device": "/device:CPU:0", "attr": {"epsilon": {"f": 0.0}, "use_cudnn_on_gpu": {"b": true}, "data_format": {"s": "TkhXQw=="}, "fused_ops": {"list": {"s": ["Qmlhc0FkZA=="]}}, "num_args": {"i": "1"}, "dilations": {"list": {"i": ["1", "1", "1", "1"]}}, "strides": {"list": {"i": ["1", "1", "1", "1"]}}, "explicit_paddings": {"list": {}}, "padding": {"s": "U0FNRQ=="}, "T": {"type": "DT_FLOAT"}}}, {"name": "efficientdet/block4c_expand_activation/Sigmoid", "op": "Sigmoid", "input": ["efficientdet/block4c_expand_bn/FusedBatchNormV3"], "attr": {"T": {"type": "DT_FLOAT"}}}, {"name": "efficientdet/block4c_expand_activation/mul", "op": "Mul", "input": ["efficientdet/block4c_expand_activation/Sigmoid", "efficientdet/block4c_expand_bn/FusedBatchNormV3"], "attr": {"T": {"type": "DT_FLOAT"}}}, {"name": "efficientdet/block4c_dwconv/depthwise", "op": "FusedDepthwiseConv2dNative", "input": ["efficientdet/block4c_expand_activation/mul", "efficientdet/block4c_dwconv/depthwise_weights", "efficientdet/block4c_dwconv/depthwise_bn_offset"], "attr": {"num_args": {"i": "1"}, "fused_ops": {"list": {"s": ["Qmlhc0FkZA=="]}}, "padding": {"s": "U0FNRQ=="}, "dilations": {"list": {"i": ["1", "1", "1", "1"]}}, "strides": {"list": {"i": ["1", "1", "1", "1"]}}, "T": {"type": "DT_FLOAT"}, "data_format": {"s": "TkhXQw=="}}}, {"name": "efficientdet/block4c_activation/Sigmoid", "op": "Sigmoid", "input": ["efficientdet/block4c_dwconv/depthwise"], "attr": {"T": {"type": "DT_FLOAT"}}}, {"name": "efficientdet/block4c_activation/mul", "op": "Mul", "input": ["efficientdet/block4c_activation/Sigmoid", "efficientdet/block4c_dwconv/depthwise"], "attr": {"T": {"type": "DT_FLOAT"}}}, {"name": "efficientdet/block4c_se_squeeze/Mean", "op": "Mean", "input": ["efficientdet/block4c_activation/mul", "efficientdet/block6d_se_squeeze/Mean/reduction_indices"], "attr": {"T": {"type": "DT_FLOAT"}, "Tidx": {"type": "DT_INT32"}, "keep_dims": {"b": false}}}, {"name": "efficientdet/block4c_se_reshape/Shape", "op": "Shape", "input": ["efficientdet/block4c_se_squeeze/Mean"], "attr": {"out_type": {"type": "DT_INT32"}, "T": {"type": "DT_FLOAT"}}}, {"name": "efficientdet/block4c_se_reshape/strided_slice", "op": "StridedSlice", "input": ["efficientdet/block4c_se_reshape/Shape", "efficientdet/reshape_1_4/strided_slice/stack", "efficientdet/reshape_1_4/strided_slice/stack_1", "efficientdet/reshape_1_4/strided_slice/stack_1"], "attr": {"begin_mask": {"i": "0"}, "new_axis_mask": {"i": "0"}, "end_mask": {"i": "0"}, "shrink_axis_mask": {"i": "1"}, "ellipsis_mask": {"i": "0"}, "T": {"type": "DT_INT32"}, "Index": {"type": "DT_INT32"}}}, {"name": "efficientdet/block4c_se_reshape/Reshape/shape", "op": "Pack", "input": ["efficientdet/block4c_se_reshape/strided_slice", "efficientdet/block6d_se_reshape/Reshape/shape/1", "efficientdet/block6d_se_reshape/Reshape/shape/1", "efficientdet/block4c_se_reshape/Reshape/shape/3"], "attr": {"N": {"i": "4"}, "T": {"type": "DT_INT32"}, "axis": {"i": "0"}}}, {"name": "efficientdet/block4c_se_reshape/Reshape", "op": "Reshape", "input": ["efficientdet/block4c_se_squeeze/Mean", "efficientdet/block4c_se_reshape/Reshape/shape"], "attr": {"Tshape": {"type": "DT_INT32"}, "T": {"type": "DT_FLOAT"}}}, {"name": "efficientdet/block4c_se_reduce/BiasAdd", "op": "_FusedConv2D", "input": ["efficientdet/block4c_se_reshape/Reshape", "efficientdet/block4c_se_reduce/Conv2D/ReadVariableOp/resource", "efficientdet/block4c_se_reduce/BiasAdd/ReadVariableOp/resource"], "device": "/device:CPU:0", "attr": {"strides": {"list": {"i": ["1", "1", "1", "1"]}}, "num_args": {"i": "1"}, "dilations": {"list": {"i": ["1", "1", "1", "1"]}}, "epsilon": {"f": 0.0}, "use_cudnn_on_gpu": {"b": true}, "padding": {"s": "U0FNRQ=="}, "explicit_paddings": {"list": {}}, "fused_ops": {"list": {"s": ["Qmlhc0FkZA=="]}}, "T": {"type": "DT_FLOAT"}, "data_format": {"s": "TkhXQw=="}}}, {"name": "efficientdet/block4c_se_reduce/Sigmoid", "op": "Sigmoid", "input": ["efficientdet/block4c_se_reduce/BiasAdd"], "attr": {"T": {"type": "DT_FLOAT"}}}, {"name": "efficientdet/block4c_se_reduce/mul", "op": "Mul", "input": ["efficientdet/block4c_se_reduce/BiasAdd", "efficientdet/block4c_se_reduce/Sigmoid"], "attr": {"T": {"type": "DT_FLOAT"}}}, {"name": "efficientdet/block4c_se_expand/BiasAdd", "op": "_FusedConv2D", "input": ["efficientdet/block4c_se_reduce/mul", "efficientdet/block4c_se_expand/Conv2D/ReadVariableOp/resource", "efficientdet/block4c_se_expand/BiasAdd/ReadVariableOp/resource"], "device": "/device:CPU:0", "attr": {"padding": {"s": "U0FNRQ=="}, "epsilon": {"f": 0.0}, "use_cudnn_on_gpu": {"b": true}, "dilations": {"list": {"i": ["1", "1", "1", "1"]}}, "strides": {"list": {"i": ["1", "1", "1", "1"]}}, "T": {"type": "DT_FLOAT"}, "data_format": {"s": "TkhXQw=="}, "num_args": {"i": "1"}, "fused_ops": {"list": {"s": ["Qmlhc0FkZA=="]}}, "explicit_paddings": {"list": {}}}}, {"name": "efficientdet/block4c_se_expand/Sigmoid", "op": "Sigmoid", "input": ["efficientdet/block4c_se_expand/BiasAdd"], "attr": {"T": {"type": "DT_FLOAT"}}}, {"name": "efficientdet/block4c_se_excite/mul", "op": "Mul", "input": ["efficientdet/block4c_activation/mul", "efficientdet/block4c_se_expand/Sigmoid"], "attr": {"T": {"type": "DT_FLOAT"}}}, {"name": "efficientdet/block4c_project_bn/FusedBatchNormV3", "op": "_FusedConv2D", "input": ["efficientdet/block4c_se_excite/mul", "efficientdet/block4c_project_conv/Conv2D_weights", "efficientdet/block4c_project_conv/Conv2D_bn_offset"], "device": "/device:CPU:0", "attr": {"strides": {"list": {"i": ["1", "1", "1", "1"]}}, "data_format": {"s": "TkhXQw=="}, "fused_ops": {"list": {"s": ["Qmlhc0FkZA=="]}}, "num_args": {"i": "1"}, "explicit_paddings": {"list": {}}, "use_cudnn_on_gpu": {"b": true}, "padding": {"s": "U0FNRQ=="}, "epsilon": {"f": 0.0}, "T": {"type": "DT_FLOAT"}, "dilations": {"list": {"i": ["1", "1", "1", "1"]}}}}, {"name": "efficientdet/block4c_add/add", "op": "AddV2", "input": ["efficientdet/block4b_add/add", "efficientdet/block4c_project_bn/FusedBatchNormV3"], "attr": {"T": {"type": "DT_FLOAT"}}}, {"name": "efficientdet/block5a_expand_bn/FusedBatchNormV3", "op": "_FusedConv2D", "input": ["efficientdet/block4c_add/add", "efficientdet/block5a_expand_conv/Conv2D_weights", "efficientdet/block5a_expand_conv/Conv2D_bn_offset"], "device": "/device:CPU:0", "attr": {"num_args": {"i": "1"}, "data_format": {"s": "TkhXQw=="}, "T": {"type": "DT_FLOAT"}, "strides": {"list": {"i": ["1", "1", "1", "1"]}}, "padding": {"s": "U0FNRQ=="}, "epsilon": {"f": 0.0}, "dilations": {"list": {"i": ["1", "1", "1", "1"]}}, "use_cudnn_on_gpu": {"b": true}, "fused_ops": {"list": {"s": ["Qmlhc0FkZA=="]}}, "explicit_paddings": {"list": {}}}}, {"name": "efficientdet/block5a_expand_activation/Sigmoid", "op": "Sigmoid", "input": ["efficientdet/block5a_expand_bn/FusedBatchNormV3"], "attr": {"T": {"type": "DT_FLOAT"}}}, {"name": "efficientdet/block5a_expand_activation/mul", "op": "Mul", "input": ["efficientdet/block5a_expand_activation/Sigmoid", "efficientdet/block5a_expand_bn/FusedBatchNormV3"], "attr": {"T": {"type": "DT_FLOAT"}}}, {"name": "efficientdet/block5a_dwconv/depthwise", "op": "FusedDepthwiseConv2dNative", "input": ["efficientdet/block5a_expand_activation/mul", "efficientdet/block5a_dwconv/depthwise_weights", "efficientdet/block5a_dwconv/depthwise_bn_offset"], "attr": {"dilations": {"list": {"i": ["1", "1", "1", "1"]}}, "strides": {"list": {"i": ["1", "1", "1", "1"]}}, "fused_ops": {"list": {"s": ["Qmlhc0FkZA=="]}}, "T": {"type": "DT_FLOAT"}, "num_args": {"i": "1"}, "data_format": {"s": "TkhXQw=="}, "padding": {"s": "U0FNRQ=="}}}, {"name": "efficientdet/block5a_activation/Sigmoid", "op": "Sigmoid", "input": ["efficientdet/block5a_dwconv/depthwise"], "attr": {"T": {"type": "DT_FLOAT"}}}, {"name": "efficientdet/block5a_activation/mul", "op": "Mul", "input": ["efficientdet/block5a_activation/Sigmoid", "efficientdet/block5a_dwconv/depthwise"], "attr": {"T": {"type": "DT_FLOAT"}}}, {"name": "efficientdet/block5a_se_squeeze/Mean", "op": "Mean", "input": ["efficientdet/block5a_activation/mul", "efficientdet/block6d_se_squeeze/Mean/reduction_indices"], "attr": {"Tidx": {"type": "DT_INT32"}, "keep_dims": {"b": false}, "T": {"type": "DT_FLOAT"}}}, {"name": "efficientdet/block5a_se_reshape/Shape", "op": "Shape", "input": ["efficientdet/block5a_se_squeeze/Mean"], "attr": {"out_type": {"type": "DT_INT32"}, "T": {"type": "DT_FLOAT"}}}, {"name": "efficientdet/block5a_se_reshape/strided_slice", "op": "StridedSlice", "input": ["efficientdet/block5a_se_reshape/Shape", "efficientdet/reshape_1_4/strided_slice/stack", "efficientdet/reshape_1_4/strided_slice/stack_1", "efficientdet/reshape_1_4/strided_slice/stack_1"], "attr": {"Index": {"type": "DT_INT32"}, "new_axis_mask": {"i": "0"}, "T": {"type": "DT_INT32"}, "shrink_axis_mask": {"i": "1"}, "ellipsis_mask": {"i": "0"}, "begin_mask": {"i": "0"}, "end_mask": {"i": "0"}}}, {"name": "efficientdet/block5a_se_reshape/Reshape/shape", "op": "Pack", "input": ["efficientdet/block5a_se_reshape/strided_slice", "efficientdet/block6d_se_reshape/Reshape/shape/1", "efficientdet/block6d_se_reshape/Reshape/shape/1", "efficientdet/block4c_se_reshape/Reshape/shape/3"], "attr": {"axis": {"i": "0"}, "T": {"type": "DT_INT32"}, "N": {"i": "4"}}}, {"name": "efficientdet/block5a_se_reshape/Reshape", "op": "Reshape", "input": ["efficientdet/block5a_se_squeeze/Mean", "efficientdet/block5a_se_reshape/Reshape/shape"], "attr": {"T": {"type": "DT_FLOAT"}, "Tshape": {"type": "DT_INT32"}}}, {"name": "efficientdet/block5a_se_reduce/BiasAdd", "op": "_FusedConv2D", "input": ["efficientdet/block5a_se_reshape/Reshape", "efficientdet/block5a_se_reduce/Conv2D/ReadVariableOp/resource", "efficientdet/block5a_se_reduce/BiasAdd/ReadVariableOp/resource"], "device": "/device:CPU:0", "attr": {"fused_ops": {"list": {"s": ["Qmlhc0FkZA=="]}}, "epsilon": {"f": 0.0}, "data_format": {"s": "TkhXQw=="}, "strides": {"list": {"i": ["1", "1", "1", "1"]}}, "num_args": {"i": "1"}, "use_cudnn_on_gpu": {"b": true}, "padding": {"s": "U0FNRQ=="}, "explicit_paddings": {"list": {}}, "T": {"type": "DT_FLOAT"}, "dilations": {"list": {"i": ["1", "1", "1", "1"]}}}}, {"name": "efficientdet/block5a_se_reduce/Sigmoid", "op": "Sigmoid", "input": ["efficientdet/block5a_se_reduce/BiasAdd"], "attr": {"T": {"type": "DT_FLOAT"}}}, {"name": "efficientdet/block5a_se_reduce/mul", "op": "Mul", "input": ["efficientdet/block5a_se_reduce/BiasAdd", "efficientdet/block5a_se_reduce/Sigmoid"], "attr": {"T": {"type": "DT_FLOAT"}}}, {"name": "efficientdet/block5a_se_expand/BiasAdd", "op": "_FusedConv2D", "input": ["efficientdet/block5a_se_reduce/mul", "efficientdet/block5a_se_expand/Conv2D/ReadVariableOp/resource", "efficientdet/block5a_se_expand/BiasAdd/ReadVariableOp/resource"], "device": "/device:CPU:0", "attr": {"epsilon": {"f": 0.0}, "T": {"type": "DT_FLOAT"}, "explicit_paddings": {"list": {}}, "dilations": {"list": {"i": ["1", "1", "1", "1"]}}, "data_format": {"s": "TkhXQw=="}, "padding": {"s": "U0FNRQ=="}, "num_args": {"i": "1"}, "fused_ops": {"list": {"s": ["Qmlhc0FkZA=="]}}, "use_cudnn_on_gpu": {"b": true}, "strides": {"list": {"i": ["1", "1", "1", "1"]}}}}, {"name": "efficientdet/block5a_se_expand/Sigmoid", "op": "Sigmoid", "input": ["efficientdet/block5a_se_expand/BiasAdd"], "attr": {"T": {"type": "DT_FLOAT"}}}, {"name": "efficientdet/block5a_se_excite/mul", "op": "Mul", "input": ["efficientdet/block5a_activation/mul", "efficientdet/block5a_se_expand/Sigmoid"], "attr": {"T": {"type": "DT_FLOAT"}}}, {"name": "efficientdet/block5a_project_bn/FusedBatchNormV3", "op": "_FusedConv2D", "input": ["efficientdet/block5a_se_excite/mul", "efficientdet/block5a_project_conv/Conv2D_weights", "efficientdet/block5a_project_conv/Conv2D_bn_offset"], "device": "/device:CPU:0", "attr": {"num_args": {"i": "1"}, "explicit_paddings": {"list": {}}, "dilations": {"list": {"i": ["1", "1", "1", "1"]}}, "epsilon": {"f": 0.0}, "data_format": {"s": "TkhXQw=="}, "fused_ops": {"list": {"s": ["Qmlhc0FkZA=="]}}, "strides": {"list": {"i": ["1", "1", "1", "1"]}}, "padding": {"s": "U0FNRQ=="}, "T": {"type": "DT_FLOAT"}, "use_cudnn_on_gpu": {"b": true}}}, {"name": "efficientdet/block5b_expand_bn/FusedBatchNormV3", "op": "_FusedConv2D", "input": ["efficientdet/block5a_project_bn/FusedBatchNormV3", "efficientdet/block5b_expand_conv/Conv2D_weights", "efficientdet/block5b_expand_conv/Conv2D_bn_offset"], "device": "/device:CPU:0", "attr": {"epsilon": {"f": 0.0}, "dilations": {"list": {"i": ["1", "1", "1", "1"]}}, "data_format": {"s": "TkhXQw=="}, "num_args": {"i": "1"}, "fused_ops": {"list": {"s": ["Qmlhc0FkZA=="]}}, "padding": {"s": "U0FNRQ=="}, "strides": {"list": {"i": ["1", "1", "1", "1"]}}, "explicit_paddings": {"list": {}}, "use_cudnn_on_gpu": {"b": true}, "T": {"type": "DT_FLOAT"}}}, {"name": "efficientdet/block5b_expand_activation/Sigmoid", "op": "Sigmoid", "input": ["efficientdet/block5b_expand_bn/FusedBatchNormV3"], "attr": {"T": {"type": "DT_FLOAT"}}}, {"name": "efficientdet/block5b_expand_activation/mul", "op": "Mul", "input": ["efficientdet/block5b_expand_activation/Sigmoid", "efficientdet/block5b_expand_bn/FusedBatchNormV3"], "attr": {"T": {"type": "DT_FLOAT"}}}, {"name": "efficientdet/block5b_dwconv/depthwise", "op": "FusedDepthwiseConv2dNative", "input": ["efficientdet/block5b_expand_activation/mul", "efficientdet/block5b_dwconv/depthwise_weights", "efficientdet/block5b_dwconv/depthwise_bn_offset"], "attr": {"T": {"type": "DT_FLOAT"}, "data_format": {"s": "TkhXQw=="}, "strides": {"list": {"i": ["1", "1", "1", "1"]}}, "num_args": {"i": "1"}, "fused_ops": {"list": {"s": ["Qmlhc0FkZA=="]}}, "dilations": {"list": {"i": ["1", "1", "1", "1"]}}, "padding": {"s": "U0FNRQ=="}}}, {"name": "efficientdet/block5b_activation/Sigmoid", "op": "Sigmoid", "input": ["efficientdet/block5b_dwconv/depthwise"], "attr": {"T": {"type": "DT_FLOAT"}}}, {"name": "efficientdet/block5b_activation/mul", "op": "Mul", "input": ["efficientdet/block5b_activation/Sigmoid", "efficientdet/block5b_dwconv/depthwise"], "attr": {"T": {"type": "DT_FLOAT"}}}, {"name": "efficientdet/block5b_se_squeeze/Mean", "op": "Mean", "input": ["efficientdet/block5b_activation/mul", "efficientdet/block6d_se_squeeze/Mean/reduction_indices"], "attr": {"keep_dims": {"b": false}, "T": {"type": "DT_FLOAT"}, "Tidx": {"type": "DT_INT32"}}}, {"name": "efficientdet/block5b_se_reshape/Shape", "op": "Shape", "input": ["efficientdet/block5b_se_squeeze/Mean"], "attr": {"T": {"type": "DT_FLOAT"}, "out_type": {"type": "DT_INT32"}}}, {"name": "efficientdet/block5b_se_reshape/strided_slice", "op": "StridedSlice", "input": ["efficientdet/block5b_se_reshape/Shape", "efficientdet/reshape_1_4/strided_slice/stack", "efficientdet/reshape_1_4/strided_slice/stack_1", "efficientdet/reshape_1_4/strided_slice/stack_1"], "attr": {"begin_mask": {"i": "0"}, "ellipsis_mask": {"i": "0"}, "T": {"type": "DT_INT32"}, "Index": {"type": "DT_INT32"}, "end_mask": {"i": "0"}, "new_axis_mask": {"i": "0"}, "shrink_axis_mask": {"i": "1"}}}, {"name": "efficientdet/block5b_se_reshape/Reshape/shape", "op": "Pack", "input": ["efficientdet/block5b_se_reshape/strided_slice", "efficientdet/block6d_se_reshape/Reshape/shape/1", "efficientdet/block6d_se_reshape/Reshape/shape/1", "efficientdet/block5c_se_reshape/Reshape/shape/3"], "attr": {"N": {"i": "4"}, "T": {"type": "DT_INT32"}, "axis": {"i": "0"}}}, {"name": "efficientdet/block5b_se_reshape/Reshape", "op": "Reshape", "input": ["efficientdet/block5b_se_squeeze/Mean", "efficientdet/block5b_se_reshape/Reshape/shape"], "attr": {"T": {"type": "DT_FLOAT"}, "Tshape": {"type": "DT_INT32"}}}, {"name": "efficientdet/block5b_se_reduce/BiasAdd", "op": "_FusedConv2D", "input": ["efficientdet/block5b_se_reshape/Reshape", "efficientdet/block5b_se_reduce/Conv2D/ReadVariableOp/resource", "efficientdet/block5b_se_reduce/BiasAdd/ReadVariableOp/resource"], "device": "/device:CPU:0", "attr": {"padding": {"s": "U0FNRQ=="}, "epsilon": {"f": 0.0}, "fused_ops": {"list": {"s": ["Qmlhc0FkZA=="]}}, "data_format": {"s": "TkhXQw=="}, "strides": {"list": {"i": ["1", "1", "1", "1"]}}, "use_cudnn_on_gpu": {"b": true}, "explicit_paddings": {"list": {}}, "num_args": {"i": "1"}, "T": {"type": "DT_FLOAT"}, "dilations": {"list": {"i": ["1", "1", "1", "1"]}}}}, {"name": "efficientdet/block5b_se_reduce/Sigmoid", "op": "Sigmoid", "input": ["efficientdet/block5b_se_reduce/BiasAdd"], "attr": {"T": {"type": "DT_FLOAT"}}}, {"name": "efficientdet/block5b_se_reduce/mul", "op": "Mul", "input": ["efficientdet/block5b_se_reduce/BiasAdd", "efficientdet/block5b_se_reduce/Sigmoid"], "attr": {"T": {"type": "DT_FLOAT"}}}, {"name": "efficientdet/block5b_se_expand/BiasAdd", "op": "_FusedConv2D", "input": ["efficientdet/block5b_se_reduce/mul", "efficientdet/block5b_se_expand/Conv2D/ReadVariableOp/resource", "efficientdet/block5b_se_expand/BiasAdd/ReadVariableOp/resource"], "device": "/device:CPU:0", "attr": {"data_format": {"s": "TkhXQw=="}, "num_args": {"i": "1"}, "dilations": {"list": {"i": ["1", "1", "1", "1"]}}, "padding": {"s": "U0FNRQ=="}, "strides": {"list": {"i": ["1", "1", "1", "1"]}}, "epsilon": {"f": 0.0}, "fused_ops": {"list": {"s": ["Qmlhc0FkZA=="]}}, "T": {"type": "DT_FLOAT"}, "use_cudnn_on_gpu": {"b": true}, "explicit_paddings": {"list": {}}}}, {"name": "efficientdet/block5b_se_expand/Sigmoid", "op": "Sigmoid", "input": ["efficientdet/block5b_se_expand/BiasAdd"], "attr": {"T": {"type": "DT_FLOAT"}}}, {"name": "efficientdet/block5b_se_excite/mul", "op": "Mul", "input": ["efficientdet/block5b_activation/mul", "efficientdet/block5b_se_expand/Sigmoid"], "attr": {"T": {"type": "DT_FLOAT"}}}, {"name": "efficientdet/block5b_project_bn/FusedBatchNormV3", "op": "_FusedConv2D", "input": ["efficientdet/block5b_se_excite/mul", "efficientdet/block5b_project_conv/Conv2D_weights", "efficientdet/block5b_project_conv/Conv2D_bn_offset"], "device": "/device:CPU:0", "attr": {"epsilon": {"f": 0.0}, "dilations": {"list": {"i": ["1", "1", "1", "1"]}}, "T": {"type": "DT_FLOAT"}, "fused_ops": {"list": {"s": ["Qmlhc0FkZA=="]}}, "num_args": {"i": "1"}, "explicit_paddings": {"list": {}}, "use_cudnn_on_gpu": {"b": true}, "data_format": {"s": "TkhXQw=="}, "strides": {"list": {"i": ["1", "1", "1", "1"]}}, "padding": {"s": "U0FNRQ=="}}}, {"name": "efficientdet/block5b_add/add", "op": "AddV2", "input": ["efficientdet/block5a_project_bn/FusedBatchNormV3", "efficientdet/block5b_project_bn/FusedBatchNormV3"], "attr": {"T": {"type": "DT_FLOAT"}}}, {"name": "efficientdet/block5c_expand_bn/FusedBatchNormV3", "op": "_FusedConv2D", "input": ["efficientdet/block5b_add/add", "efficientdet/block5c_expand_conv/Conv2D_weights", "efficientdet/block5c_expand_conv/Conv2D_bn_offset"], "device": "/device:CPU:0", "attr": {"num_args": {"i": "1"}, "T": {"type": "DT_FLOAT"}, "strides": {"list": {"i": ["1", "1", "1", "1"]}}, "dilations": {"list": {"i": ["1", "1", "1", "1"]}}, "epsilon": {"f": 0.0}, "explicit_paddings": {"list": {}}, "padding": {"s": "U0FNRQ=="}, "fused_ops": {"list": {"s": ["Qmlhc0FkZA=="]}}, "data_format": {"s": "TkhXQw=="}, "use_cudnn_on_gpu": {"b": true}}}, {"name": "efficientdet/block5c_expand_activation/Sigmoid", "op": "Sigmoid", "input": ["efficientde…
iginal_dtype": "float32"}}, {"name": "efficientdet/block3b_se_expand/Conv2D/ReadVariableOp/resource", "shape": [1, 1, 10, 240], "dtype": "float32", "quantization": {"dtype": "float16", "original_dtype": "float32"}}, {"name": "efficientdet/block3b_se_expand/BiasAdd/ReadVariableOp/resource", "shape": [240], "dtype": "float32", "quantization": {"dtype": "float16", "original_dtype": "float32"}}, {"name": "efficientdet/block3b_se_reshape/Reshape/shape/3", "shape": [], "dtype": "int32"}, {"name": "efficientdet/block4a_se_reduce/Conv2D/ReadVariableOp/resource", "shape": [1, 1, 240, 10], "dtype": "float32", "quantization": {"dtype": "float16", "original_dtype": "float32"}}, {"name": "efficientdet/block4a_se_reduce/BiasAdd/ReadVariableOp/resource", "shape": [10], "dtype": "float32", "quantization": {"dtype": "float16", "original_dtype": "float32"}}, {"name": "efficientdet/block4a_se_expand/Conv2D/ReadVariableOp/resource", "shape": [1, 1, 10, 240], "dtype": "float32", "quantization": {"dtype": "float16", "original_dtype": "float32"}}, {"name": "efficientdet/block4a_se_expand/BiasAdd/ReadVariableOp/resource", "shape": [240], "dtype": "float32", "quantization": {"dtype": "float16", "original_dtype": "float32"}}, {"name": "efficientdet/block4b_se_reduce/Conv2D/ReadVariableOp/resource", "shape": [1, 1, 480, 20], "dtype": "float32", "quantization": {"dtype": "float16", "original_dtype": "float32"}}, {"name": "efficientdet/block4b_se_reduce/BiasAdd/ReadVariableOp/resource", "shape": [20], "dtype": "float32", "quantization": {"dtype": "float16", "original_dtype": "float32"}}, {"name": "efficientdet/block4b_se_expand/Conv2D/ReadVariableOp/resource", "shape": [1, 1, 20, 480], "dtype": "float32", "quantization": {"dtype": "float16", "original_dtype": "float32"}}, {"name": "efficientdet/block4b_se_expand/BiasAdd/ReadVariableOp/resource", "shape": [480], "dtype": "float32", "quantization": {"dtype": "float16", "original_dtype": "float32"}}, {"name": "efficientdet/block4c_se_reduce/Conv2D/ReadVariableOp/resource", "shape": [1, 1, 480, 20], "dtype": "float32", "quantization": {"dtype": "float16", "original_dtype": "float32"}}, {"name": "efficientdet/block4c_se_reduce/BiasAdd/ReadVariableOp/resource", "shape": [20], "dtype": "float32", "quantization": {"dtype": "float16", "original_dtype": "float32"}}, {"name": "efficientdet/block4c_se_expand/Conv2D/ReadVariableOp/resource", "shape": [1, 1, 20, 480], "dtype": "float32", "quantization": {"dtype": "float16", "original_dtype": "float32"}}, {"name": "efficientdet/block4c_se_expand/BiasAdd/ReadVariableOp/resource", "shape": [480], "dtype": "float32", "quantization": {"dtype": "float16", "original_dtype": "float32"}}, {"name": "efficientdet/block4c_se_reshape/Reshape/shape/3", "shape": [], "dtype": "int32"}, {"name": "efficientdet/block5a_se_reduce/Conv2D/ReadVariableOp/resource", "shape": [1, 1, 480, 20], "dtype": "float32", "quantization": {"dtype": "float16", "original_dtype": "float32"}}, {"name": "efficientdet/block5a_se_reduce/BiasAdd/ReadVariableOp/resource", "shape": [20], "dtype": "float32", "quantization": {"dtype": "float16", "original_dtype": "float32"}}, {"name": "efficientdet/block5a_se_expand/Conv2D/ReadVariableOp/resource", "shape": [1, 1, 20, 480], "dtype": "float32", "quantization": {"dtype": "float16", "original_dtype": "float32"}}, {"name": "efficientdet/block5a_se_expand/BiasAdd/ReadVariableOp/resource", "shape": [480], "dtype": "float32", "quantization": {"dtype": "float16", "original_dtype": "float32"}}, {"name": "efficientdet/block5b_se_reduce/Conv2D/ReadVariableOp/resource", "shape": [1, 1, 672, 28], "dtype": "float32", "quantization": {"dtype": "float16", "original_dtype": "float32"}}, {"name": "efficientdet/block5b_se_reduce/BiasAdd/ReadVariableOp/resource", "shape": [28], "dtype": "float32", "quantization": {"dtype": "float16", "original_dtype": "float32"}}, {"name": "efficientdet/block5b_se_expand/Conv2D/ReadVariableOp/resource", "shape": [1, 1, 28, 672], "dtype": "float32", "quantization": {"dtype": "float16", "original_dtype": "float32"}}, {"name": "efficientdet/block5b_se_expand/BiasAdd/ReadVariableOp/resource", "shape": [672], "dtype": "float32", "quantization": {"dtype": "float16", "original_dtype": "float32"}}, {"name": "efficientdet/block5c_se_reduce/Conv2D/ReadVariableOp/resource", "shape": [1, 1, 672, 28], "dtype": "float32", "quantization": {"dtype": "float16", "original_dtype": "float32"}}, {"name": "efficientdet/block5c_se_reduce/BiasAdd/ReadVariableOp/resource", "shape": [28], "dtype": "float32", "quantization": {"dtype": "float16", "original_dtype": "float32"}}, {"name": "efficientdet/block5c_se_expand/Conv2D/ReadVariableOp/resource", "shape": [1, 1, 28, 672], "dtype": "float32", "quantization": {"dtype": "float16", "original_dtype": "float32"}}, {"name": "efficientdet/block5c_se_expand/BiasAdd/ReadVariableOp/resource", "shape": [672], "dtype": "float32", "quantization": {"dtype": "float16", "original_dtype": "float32"}}, {"name": "efficientdet/block5c_se_reshape/Reshape/shape/3", "shape": [], "dtype": "int32"}, {"name": "efficientdet/block6a_se_reduce/Conv2D/ReadVariableOp/resource", "shape": [1, 1, 672, 28], "dtype": "float32", "quantization": {"dtype": "float16", "original_dtype": "float32"}}, {"name": "efficientdet/block6a_se_reduce/BiasAdd/ReadVariableOp/resource", "shape": [28], "dtype": "float32", "quantization": {"dtype": "float16", "original_dtype": "float32"}}, {"name": "efficientdet/block6a_se_expand/Conv2D/ReadVariableOp/resource", "shape": [1, 1, 28, 672], "dtype": "float32", "quantization": {"dtype": "float16", "original_dtype": "float32"}}, {"name": "efficientdet/block6a_se_expand/BiasAdd/ReadVariableOp/resource", "shape": [672], "dtype": "float32", "quantization": {"dtype": "float16", "original_dtype": "float32"}}, {"name": "efficientdet/block6b_se_reduce/Conv2D/ReadVariableOp/resource", "shape": [1, 1, 1152, 48], "dtype": "float32", "quantization": {"dtype": "float16", "original_dtype": "float32"}}, {"name": "efficientdet/block6b_se_reduce/BiasAdd/ReadVariableOp/resource", "shape": [48], "dtype": "float32", "quantization": {"dtype": "float16", "original_dtype": "float32"}}, {"name": "efficientdet/block6b_se_expand/Conv2D/ReadVariableOp/resource", "shape": [1, 1, 48, 1152], "dtype": "float32", "quantization": {"dtype": "float16", "original_dtype": "float32"}}, {"name": "efficientdet/block6b_se_expand/BiasAdd/ReadVariableOp/resource", "shape": [1152], "dtype": "float32", "quantization": {"dtype": "float16", "original_dtype": "float32"}}, {"name": "efficientdet/block6c_se_reduce/Conv2D/ReadVariableOp/resource", "shape": [1, 1, 1152, 48], "dtype": "float32", "quantization": {"dtype": "float16", "original_dtype": "float32"}}, {"name": "efficientdet/block6c_se_reduce/BiasAdd/ReadVariableOp/resource", "shape": [48], "dtype": "float32", "quantization": {"dtype": "float16", "original_dtype": "float32"}}, {"name": "efficientdet/block6c_se_expand/Conv2D/ReadVariableOp/resource", "shape": [1, 1, 48, 1152], "dtype": "float32", "quantization": {"dtype": "float16", "original_dtype": "float32"}}, {"name": "efficientdet/block6c_se_expand/BiasAdd/ReadVariableOp/resource", "shape": [1152], "dtype": "float32", "quantization": {"dtype": "float16", "original_dtype": "float32"}}, {"name": "efficientdet/block6d_se_reduce/Conv2D/ReadVariableOp/resource", "shape": [1, 1, 1152, 48], "dtype": "float32", "quantization": {"dtype": "float16", "original_dtype": "float32"}}, {"name": "efficientdet/block6d_se_reduce/BiasAdd/ReadVariableOp/resource", "shape": [48], "dtype": "float32", "quantization": {"dtype": "float16", "original_dtype": "float32"}}, {"name": "efficientdet/block6d_se_expand/Conv2D/ReadVariableOp/resource", "shape": [1, 1, 48, 1152], "dtype": "float32", "quantization": {"dtype": "float16", "original_dtype": "float32"}}, {"name": "efficientdet/block6d_se_expand/BiasAdd/ReadVariableOp/resource", "shape": [1152], "dtype": "float32", "quantization": {"dtype": "float16", "original_dtype": "float32"}}, {"name": "efficientdet/block6d_se_squeeze/Mean/reduction_indices", "shape": [2], "dtype": "int32"}, {"name": "efficientdet/block6d_se_reshape/Reshape/shape/3", "shape": [], "dtype": "int32"}, {"name": "efficientdet/block7a_se_reduce/Conv2D/ReadVariableOp/resource", "shape": [1, 1, 1152, 48], "dtype": "float32", "quantization": {"dtype": "float16", "original_dtype": "float32"}}, {"name": "efficientdet/block7a_se_reduce/BiasAdd/ReadVariableOp/resource", "shape": [48], "dtype": "float32", "quantization": {"dtype": "float16", "original_dtype": "float32"}}, {"name": "efficientdet/block7a_se_expand/Conv2D/ReadVariableOp/resource", "shape": [1, 1, 48, 1152], "dtype": "float32", "quantization": {"dtype": "float16", "original_dtype": "float32"}}, {"name": "efficientdet/block7a_se_expand/BiasAdd/ReadVariableOp/resource", "shape": [1152], "dtype": "float32", "quantization": {"dtype": "float16", "original_dtype": "float32"}}, {"name": "efficientdet/fpn_cells/cell_0/fnode0/op_after_combine5/conv/separable_conv2d/ReadVariableOp/resource", "shape": [3, 3, 64, 1], "dtype": "float32", "quantization": {"dtype": "float16", "original_dtype": "float32"}}, {"name": "efficientdet/fpn_cells/cell_0/fnode1/op_after_combine6/conv/separable_conv2d/ReadVariableOp/resource", "shape": [3, 3, 64, 1], "dtype": "float32", "quantization": {"dtype": "float16", "original_dtype": "float32"}}, {"name": "efficientdet/fpn_cells/cell_0/fnode2/op_after_combine7/conv/separable_conv2d/ReadVariableOp/resource", "shape": [3, 3, 64, 1], "dtype": "float32", "quantization": {"dtype": "float16", "original_dtype": "float32"}}, {"name": "efficientdet/fpn_cells/cell_0/fnode3/op_after_combine8/conv/separable_conv2d/ReadVariableOp/resource", "shape": [3, 3, 64, 1], "dtype": "float32", "quantization": {"dtype": "float16", "original_dtype": "float32"}}, {"name": "efficientdet/fpn_cells/cell_0/fnode4/op_after_combine9/conv/separable_conv2d/ReadVariableOp/resource", "shape": [3, 3, 64, 1], "dtype": "float32", "quantization": {"dtype": "float16", "original_dtype": "float32"}}, {"name": "efficientdet/fpn_cells/cell_0/fnode5/op_after_combine10/conv/separable_conv2d/ReadVariableOp/resource", "shape": [3, 3, 64, 1], "dtype": "float32", "quantization": {"dtype": "float16", "original_dtype": "float32"}}, {"name": "efficientdet/fpn_cells/cell_0/fnode6/op_after_combine11/conv/separable_conv2d/ReadVariableOp/resource", "shape": [3, 3, 64, 1], "dtype": "float32", "quantization": {"dtype": "float16", "original_dtype": "float32"}}, {"name": "efficientdet/fpn_cells/cell_0/fnode7/op_after_combine12/conv/separable_conv2d/ReadVariableOp/resource", "shape": [3, 3, 64, 1], "dtype": "float32", "quantization": {"dtype": "float16", "original_dtype": "float32"}}, {"name": "efficientdet/fpn_cells/cell_1/fnode0/op_after_combine5/conv/separable_conv2d/ReadVariableOp/resource", "shape": [3, 3, 64, 1], "dtype": "float32", "quantization": {"dtype": "float16", "original_dtype": "float32"}}, {"name": "efficientdet/fpn_cells/cell_1/fnode1/op_after_combine6/conv/separable_conv2d/ReadVariableOp/resource", "shape": [3, 3, 64, 1], "dtype": "float32", "quantization": {"dtype": "float16", "original_dtype": "float32"}}, {"name": "efficientdet/fpn_cells/cell_1/fnode2/op_after_combine7/conv/separable_conv2d/ReadVariableOp/resource", "shape": [3, 3, 64, 1], "dtype": "float32", "quantization": {"dtype": "float16", "original_dtype": "float32"}}, {"name": "efficientdet/fpn_cells/cell_1/fnode3/op_after_combine8/conv/separable_conv2d/ReadVariableOp/resource", "shape": [3, 3, 64, 1], "dtype": "float32", "quantization": {"dtype": "float16", "original_dtype": "float32"}}, {"name": "efficientdet/fpn_cells/cell_1/fnode4/op_after_combine9/conv/separable_conv2d/ReadVariableOp/resource", "shape": [3, 3, 64, 1], "dtype": "float32", "quantization": {"dtype": "float16", "original_dtype": "float32"}}, {"name": "efficientdet/fpn_cells/cell_1/fnode5/op_after_combine10/conv/separable_conv2d/ReadVariableOp/resource", "shape": [3, 3, 64, 1], "dtype": "float32", "quantization": {"dtype": "float16", "original_dtype": "float32"}}, {"name": "efficientdet/fpn_cells/cell_1/fnode6/op_after_combine11/conv/separable_conv2d/ReadVariableOp/resource", "shape": [3, 3, 64, 1], "dtype": "float32", "quantization": {"dtype": "float16", "original_dtype": "float32"}}, {"name": "efficientdet/fpn_cells/cell_1/fnode7/op_after_combine12/conv/separable_conv2d/ReadVariableOp/resource", "shape": [3, 3, 64, 1], "dtype": "float32", "quantization": {"dtype": "float16", "original_dtype": "float32"}}, {"name": "efficientdet/fpn_cells/cell_2/fnode0/op_after_combine5/conv/separable_conv2d/ReadVariableOp/resource", "shape": [3, 3, 64, 1], "dtype": "float32", "quantization": {"dtype": "float16", "original_dtype": "float32"}}, {"name": "efficientdet/fpn_cells/cell_2/fnode1/op_after_combine6/conv/separable_conv2d/ReadVariableOp/resource", "shape": [3, 3, 64, 1], "dtype": "float32", "quantization": {"dtype": "float16", "original_dtype": "float32"}}, {"name": "efficientdet/fpn_cells/cell_2/fnode2/op_after_combine7/conv/separable_conv2d/ReadVariableOp/resource", "shape": [3, 3, 64, 1], "dtype": "float32", "quantization": {"dtype": "float16", "original_dtype": "float32"}}, {"name": "efficientdet/up_sampling2d/strided_slice/stack_1", "shape": [1], "dtype": "int32"}, {"name": "efficientdet/fpn_cells/cell_2/fnode3/op_after_combine8/conv/separable_conv2d/ReadVariableOp/resource", "shape": [3, 3, 64, 1], "dtype": "float32", "quantization": {"dtype": "float16", "original_dtype": "float32"}}, {"name": "efficientdet/fpn_cells/cell_2/fnode4/op_after_combine9/conv/separable_conv2d/ReadVariableOp/resource", "shape": [3, 3, 64, 1], "dtype": "float32", "quantization": {"dtype": "float16", "original_dtype": "float32"}}, {"name": "efficientdet/fpn_cells/cell_2/fnode5/op_after_combine10/conv/separable_conv2d/ReadVariableOp/resource", "shape": [3, 3, 64, 1], "dtype": "float32", "quantization": {"dtype": "float16", "original_dtype": "float32"}}, {"name": "efficientdet/fpn_cells/cell_2/fnode6/op_after_combine11/conv/separable_conv2d/ReadVariableOp/resource", "shape": [3, 3, 64, 1], "dtype": "float32", "quantization": {"dtype": "float16", "original_dtype": "float32"}}, {"name": "efficientdet/fpn_cells/cell_0/fnode0/add/Sum/reduction_indices", "shape": [], "dtype": "int32"}, {"name": "efficientdet/fpn_cells/cell_2/fnode7/op_after_combine12/conv/separable_conv2d/ReadVariableOp/resource", "shape": [3, 3, 64, 1], "dtype": "float32", "quantization": {"dtype": "float16", "original_dtype": "float32"}}, {"name": "efficientdet/class_net/class-0/separable_conv2d/ReadVariableOp/resource", "shape": [3, 3, 64, 1], "dtype": "float32", "quantization": {"dtype": "float16", "original_dtype": "float32"}}, {"name": "efficientdet/class_net/class-1/separable_conv2d/ReadVariableOp/resource", "shape": [3, 3, 64, 1], "dtype": "float32", "quantization": {"dtype": "float16", "original_dtype": "float32"}}, {"name": "efficientdet/class_net/class-2/separable_conv2d/ReadVariableOp/resource", "shape": [3, 3, 64, 1], "dtype": "float32", "quantization": {"dtype": "float16", "original_dtype": "float32"}}, {"name": "efficientdet/class_net/class-predict/separable_conv2d/ReadVariableOp/resource", "shape": [3, 3, 64, 1], "dtype": "float32", "quantization": {"dtype": "float16", "original_dtype": "float32"}}, {"name": "efficientdet/class_net/class-predict/separable_conv2d/ReadVariableOp_1/resource", "shape": [1, 1, 64, 810], "dtype": "float32", "quantization": {"dtype": "float16", "original_dtype": "float32"}}, {"name": "efficientdet/class_net/class-predict/BiasAdd/ReadVariableOp/resource", "shape": [810], "dtype": "float32", "quantization": {"dtype": "float16", "original_dtype": "float32"}}, {"name": "efficientdet/reshape_1_4/strided_slice/stack", "shape": [1], "dtype": "int32"}, {"name": "efficientdet/reshape_1_4/strided_slice/stack_1", "shape": [1], "dtype": "int32"}, {"name": "efficientdet/reshape_1_4/Reshape/shape/1", "shape": [], "dtype": "int32"}, {"name": "efficientdet/reshape_1_4/Reshape/shape/2", "shape": [], "dtype": "int32"}, {"name": "efficientdet/block6d_se_reshape/Reshape/shape/1", "shape": [], "dtype": "int32"}, {"name": "efficientdet/stem_conv/Conv2D_weights", "shape": [3, 3, 3, 32], "dtype": "float32", "quantization": {"dtype": "float16", "original_dtype": "float32"}}, {"name": "efficientdet/stem_conv/Conv2D_bn_offset", "shape": [32], "dtype": "float32", "quantization": {"dtype": "float16", "original_dtype": "float32"}}, {"name": "efficientdet/block1a_dwconv/depthwise_weights", "shape": [3, 3, 32, 1], "dtype": "float32", "quantization": {"dtype": "float16", "original_dtype": "float32"}}, {"name": "efficientdet/block1a_dwconv/depthwise_bn_offset", "shape": [32], "dtype": "float32", "quantization": {"dtype": "float16", "original_dtype": "float32"}}, {"name": "efficientdet/block1a_project_conv/Conv2D_weights", "shape": [1, 1, 32, 16], "dtype": "float32", "quantization": {"dtype": "float16", "original_dtype": "float32"}}, {"name": "efficientdet/class_net/class-2_1/separable_conv2d_weights", "shape": [1, 1, 64, 64], "dtype": "float32", "quantization": {"dtype": "float16", "original_dtype": "float32"}}, {"name": "efficientdet/block1a_project_conv/Conv2D_bn_offset", "shape": [16], "dtype": "float32", "quantization": {"dtype": "float16", "original_dtype": "float32"}}, {"name": "efficientdet/block2a_expand_conv/Conv2D_weights", "shape": [1, 1, 16, 96], "dtype": "float32", "quantization": {"dtype": "float16", "original_dtype": "float32"}}, {"name": "efficientdet/class_net/class-2_4/separable_conv2d_bn_offset", "shape": [64], "dtype": "float32", "quantization": {"dtype": "float16", "original_dtype": "float32"}}, {"name": "efficientdet/block2a_expand_conv/Conv2D_bn_offset", "shape": [96], "dtype": "float32", "quantization": {"dtype": "float16", "original_dtype": "float32"}}, {"name": "efficientdet/block2a_dwconv/depthwise_weights", "shape": [3, 3, 96, 1], "dtype": "float32", "quantization": {"dtype": "float16", "original_dtype": "float32"}}, {"name": "efficientdet/block2a_dwconv/depthwise_bn_offset", "shape": [96], "dtype": "float32", "quantization": {"dtype": "float16", "original_dtype": "float32"}}, {"name": "efficientdet/class_net/class-2_1/separable_conv2d_bn_offset", "shape": [64], "dtype": "float32", "quantization": {"dtype": "float16", "original_dtype": "float32"}}, {"name": "efficientdet/block2a_project_conv/Conv2D_weights", "shape": [1, 1, 96, 24], "dtype": "float32", "quantization": {"dtype": "float16", "original_dtype": "float32"}}, {"name": "efficientdet/block2a_project_conv/Conv2D_bn_offset", "shape": [24], "dtype": "float32", "quantization": {"dtype": "float16", "original_dtype": "float32"}}, {"name": "efficientdet/block2b_expand_conv/Conv2D_weights", "shape": [1, 1, 24, 144], "dtype": "float32", "quantization": {"dtype": "float16", "original_dtype": "float32"}}, {"name": "efficientdet/block2b_expand_conv/Conv2D_bn_offset", "shape": [144], "dtype": "float32", "quantization": {"dtype": "float16", "original_dtype": "float32"}}, {"name": "efficientdet/block2b_dwconv/depthwise_weights", "shape": [3, 3, 144, 1], "dtype": "float32", "quantization": {"dtype": "float16", "original_dtype": "float32"}}, {"name": "efficientdet/block2b_dwconv/depthwise_bn_offset", "shape": [144], "dtype": "float32", "quantization": {"dtype": "float16", "original_dtype": "float32"}}, {"name": "efficientdet/block2b_project_conv/Conv2D_weights", "shape": [1, 1, 144, 24], "dtype": "float32", "quantization": {"dtype": "float16", "original_dtype": "float32"}}, {"name": "efficientdet/block2b_project_conv/Conv2D_bn_offset", "shape": [24], "dtype": "float32", "quantization": {"dtype": "float16", "original_dtype": "float32"}}, {"name": "efficientdet/block3a_expand_conv/Conv2D_weights", "shape": [1, 1, 24, 144], "dtype": "float32", "quantization": {"dtype": "float16", "original_dtype": "float32"}}, {"name": "efficientdet/block3a_expand_conv/Conv2D_bn_offset", "shape": [144], "dtype": "float32", "quantization": {"dtype": "float16", "original_dtype": "float32"}}, {"name": "efficientdet/block3a_dwconv/depthwise_weights", "shape": [5, 5, 144, 1], "dtype": "float32", "quantization": {"dtype": "float16", "original_dtype": "float32"}}, {"name": "efficientdet/block3a_dwconv/depthwise_bn_offset", "shape": [144], "dtype": "float32", "quantization": {"dtype": "float16", "original_dtype": "float32"}}, {"name": "efficientdet/block3a_project_conv/Conv2D_weights", "shape": [1, 1, 144, 40], "dtype": "float32", "quantization": {"dtype": "float16", "original_dtype": "float32"}}, {"name": "efficientdet/block3a_project_conv/Conv2D_bn_offset", "shape": [40], "dtype": "float32", "quantization": {"dtype": "float16", "original_dtype": "float32"}}, {"name": "efficientdet/block3b_expand_conv/Conv2D_weights", "shape": [1, 1, 40, 240], "dtype": "float32", "quantization": {"dtype": "float16", "original_dtype": "float32"}}, {"name": "efficientdet/class_net/class-0/separable_conv2d_weights", "shape": [1, 1, 64, 64], "dtype": "float32", "quantization": {"dtype": "float16", "original_dtype": "float32"}}, {"name": "efficientdet/block3b_expand_conv/Conv2D_bn_offset", "shape": [240], "dtype": "float32", "quantization": {"dtype": "float16", "original_dtype": "float32"}}, {"name": "efficientdet/block3b_dwconv/depthwise_weights", "shape": [5, 5, 240, 1], "dtype": "float32", "quantization": {"dtype": "float16", "original_dtype": "float32"}}, {"name": "efficientdet/block3b_dwconv/depthwise_bn_offset", "shape": [240], "dtype": "float32", "quantization": {"dtype": "float16", "original_dtype": "float32"}}, {"name": "efficientdet/class_net/class-0/separable_conv2d_bn_offset", "shape": [64], "dtype": "float32", "quantization": {"dtype": "float16", "original_dtype": "float32"}}, {"name": "efficientdet/block3b_project_conv/Conv2D_weights", "shape": [1, 1, 240, 40], "dtype": "float32", "quantization": {"dtype": "float16", "original_dtype": "float32"}}, {"name": "efficientdet/block3b_project_conv/Conv2D_bn_offset", "shape": [40], "dtype": "float32", "quantization": {"dtype": "float16", "original_dtype": "float32"}}, {"name": "efficientdet/block4a_expand_conv/Conv2D_weights", "shape": [1, 1, 40, 240], "dtype": "float32", "quantization": {"dtype": "float16", "original_dtype": "float32"}}, {"name": "efficientdet/block4a_expand_conv/Conv2D_bn_offset", "shape": [240], "dtype": "float32", "quantization": {"dtype": "float16", "original_dtype": "float32"}}, {"name": "efficientdet/fpn_cells/cell_0/fnode3/resample_0_0_8/conv2d/Conv2D_weights", "shape": [1, 1, 40, 64], "dtype": "float32", "quantization": {"dtype": "float16", "original_dtype": "float32"}}, {"name": "efficientdet/fpn_cells/cell_0/fnode3/resample_0_0_8/conv2d/Conv2D_bn_offset", "shape": [64], "dtype": "float32", "quantization": {"dtype": "float16", "original_dtype": "float32"}}, {"name": "efficientdet/block4a_dwconv/depthwise_weights", "shape": [3, 3, 240, 1], "dtype": "float32", "quantization": {"dtype": "float16", "original_dtype": "float32"}}, {"name": "efficientdet/block4a_dwconv/depthwise_bn_offset", "shape": [240], "dtype": "float32", "quantization": {"dtype": "float16", "original_dtype": "float32"}}, {"name": "efficientdet/class_net/class-1/separable_conv2d_weights", "shape": [1, 1, 64, 64], "dtype": "float32", "quantization": {"dtype": "float16", "original_dtype": "float32"}}, {"name": "efficientdet/block4a_project_conv/Conv2D_weights", "shape": [1, 1, 240, 80], "dtype": "float32", "quantization": {"dtype": "float16", "original_dtype": "float32"}}, {"name": "efficientdet/block4a_project_conv/Conv2D_bn_offset", "shape": [80], "dtype": "float32", "quantization": {"dtype": "float16", "original_dtype": "float32"}}, {"name": "efficientdet/block4b_expand_conv/Conv2D_weights", "shape": [1, 1, 80, 480], "dtype": "float32", "quantization": {"dtype": "float16", "original_dtype": "float32"}}, {"name": "efficientdet/class_net/class-1/separable_conv2d_bn_offset", "shape": [64], "dtype": "float32", "quantization": {"dtype": "float16", "original_dtype": "float32"}}, {"name": "efficientdet/block4b_expand_conv/Conv2D_bn_offset", "shape": [480], "dtype": "float32", "quantization": {"dtype": "float16", "original_dtype": "float32"}}, {"name": "efficientdet/block4b_dwconv/depthwise_weights", "shape": [3, 3, 480, 1], "dtype": "float32", "quantization": {"dtype": "float16", "original_dtype": "float32"}}, {"name": "efficientdet/block4b_dwconv/depthwise_bn_offset", "shape": [480], "dtype": "float32", "quantization": {"dtype": "float16", "original_dtype": "float32"}}, {"name": "efficientdet/block4b_project_conv/Conv2D_weights", "shape": [1, 1, 480, 80], "dtype": "float32", "quantization": {"dtype": "float16", "original_dtype": "float32"}}, {"name": "efficientdet/block4b_project_conv/Conv2D_bn_offset", "shape": [80], "dtype": "float32", "quantization": {"dtype": "float16", "original_dtype": "float32"}}, {"name": "efficientdet/block4c_expand_conv/Conv2D_weights", "shape": [1, 1, 80, 480], "dtype": "float32", "quantization": {"dtype": "float16", "original_dtype": "float32"}}, {"name": "efficientdet/block4c_expand_conv/Conv2D_bn_offset", "shape": [480], "dtype": "float32", "quantization": {"dtype": "float16", "original_dtype": "float32"}}, {"name": "efficientdet/block4c_dwconv/depthwise_weights", "shape": [3, 3, 480, 1], "dtype": "float32", "quantization": {"dtype": "float16", "original_dtype": "float32"}}, {"name": "efficientdet/block4c_dwconv/depthwise_bn_offset", "shape": [480], "dtype": "float32", "quantization": {"dtype": "float16", "original_dtype": "float32"}}, {"name": "efficientdet/fpn_cells/cell_2/fnode4/op_after_combine9/conv/separable_conv2d_weights", "shape": [1, 1, 64, 64], "dtype": "float32", "quantization": {"dtype": "float16", "original_dtype": "float32"}}, {"name": "efficientdet/block4c_project_conv/Conv2D_weights", "shape": [1, 1, 480, 80], "dtype": "float32", "quantization": {"dtype": "float16", "original_dtype": "float32"}}, {"name": "efficientdet/fpn_cells/cell_2/fnode4/op_after_combine9/conv/separable_conv2d_bn_offset", "shape": [64], "dtype": "float32", "quantization": {"dtype": "float16", "original_dtype": "float32"}}, {"name": "efficientdet/block4c_project_conv/Conv2D_bn_offset", "shape": [80], "dtype": "float32", "quantization": {"dtype": "float16", "original_dtype": "float32"}}, {"name": "efficientdet/block5a_expand_conv/Conv2D_weights", "shape": [1, 1, 80, 480], "dtype": "float32", "quantization": {"dtype": "float16", "original_dtype": "float32"}}, {"name": "efficientdet/block5a_expand_conv/Conv2D_bn_offset", "shape": [480], "dtype": "float32", "quantization": {"dtype": "float16", "original_dtype": "float32"}}, {"name": "efficientdet/block5a_dwconv/depthwise_weights", "shape": [5, 5, 480, 1], "dtype": "float32", "quantization": {"dtype": "float16", "original_dtype": "float32"}}, {"name": "efficientdet/block5a_dwconv/depthwise_bn_offset", "shape": [480], "dtype": "float32", "quantization": {"dtype": "float16", "original_dtype": "float32"}}, {"name": "efficientdet/block5a_project_conv/Conv2D_weights", "shape": [1, 1, 480, 112], "dtype": "float32", "quantization": {"dtype": "float16", "original_dtype": "float32"}}, {"name": "efficientdet/block5a_project_conv/Conv2D_bn_offset", "shape": [112], "dtype": "float32", "quantization": {"dtype": "float16", "original_dtype": "float32"}}, {"name": "efficientdet/block5b_expand_conv/Conv2D_weights", "shape": [1, 1, 112, 672], "dtype": "float32", "quantization": {"dtype": "float16", "original_dtype": "float32"}}, {"name": "efficientdet/block5b_expand_conv/Conv2D_bn_offset", "shape": [672], "dtype": "float32", "quantization": {"dtype": "float16", "original_dtype": "float32"}}, {"name": "efficientdet/block5b_dwconv/depthwise_weights", "shape": [5, 5, 672, 1], "dtype": "float32", "quantization": {"dtype": "float16", "original_dtype": "float32"}}, {"name": "efficientdet/block5b_dwconv/depthwise_bn_offset", "shape": [672], "dtype": "float32", "quantization": {"dtype": "float16", "original_dtype": "float32"}}, {"name": "efficientdet/block5b_project_conv/Conv2D_weights", "shape": [1, 1, 672, 112], "dtype": "float32", "quantization": {"dtype": "float16", "original_dtype": "float32"}}, {"name": "efficientdet/block5b_project_conv/Conv2D_bn_offset", "shape": [112], "dtype": "float32", "quantization": {"dtype": "float16", "original_dtype": "float32"}}, {"name": "efficientdet/block5c_expand_conv/Conv2D_weights", "shape": [1, 1, 112, 672], "dtype": "float32", "quantization": {"dtype": "float16", "original_dtype": "float32"}}, {"name": "efficientdet/block5c_expand_conv/Conv2D_bn_offset", "shape": [672], "dtype": "float32", "quantization": {"dtype": "float16", "original_dtype": "float32"}}, {"name": "efficientdet/block5c_dwconv/depthwise_weights", "shape": [5, 5, 672, 1], "dtype": "float32", "quantization": {"dtype": "float16", "original_dtype": "float32"}}, {"name": "efficientdet/block5c_dwconv/depthwise_bn_offset", "shape": [672], "dtype": "float32", "quantization": {"dtype": "float16", "original_dtype": "float32"}}, {"name": "efficientdet/class_net/class-2/separable_conv2d_weights", "shape": [1, 1, 64, 64], "dtype": "float32", "quantization": {"dtype": "float16", "original_dtype": "float32"}}, {"name": "efficientdet/block5c_project_conv/Conv2D_weights", "shape": [1, 1, 672, 112], "dtype": "float32", "quantization": {"dtype": "float16", "original_dtype": "float32"}}, {"name": "efficientdet/class_net/class-2/separable_conv2d_bn_offset", "shape": [64], "dtype": "float32", "quantization": {"dtype": "float16", "original_dtype": "float32"}}, {"name": "efficientdet/block5c_project_conv/Conv2D_bn_offset", "shape": [112], "dtype": "float32", "quantization": {"dtype": "float16", "original_dtype": "float32"}}, {"name": "efficientdet/block6a_expand_conv/Conv2D_weights", "shape": [1, 1, 112, 672], "dtype": "float32", "quantization": {"dtype": "float16", "original_dtype": "float32"}}, {"name": "efficientdet/block6a_expand_conv/Conv2D_bn_offset", "shape": [672], "dtype": "float32", "quantization": {"dtype": "float16", "original_dtype": "float32"}}, {"name": "efficientdet/fpn_cells/cell_0/fnode4/resample_0_1_9/conv2d/Conv2D_weights", "shape": [1, 1, 112, 64], "dtype": "float32", "quantization": {"dtype": "float16", "original_dtype": "float32"}}, {"name": "efficientdet/fpn_cells/cell_0/fnode4/resample_0_1_9/conv2d/Conv2D_bn_offset", "shape": [64], "dtype": "float32", "quantization": {"dtype": "float16", "original_dtype": "float32"}}, {"name": "efficientdet/fpn_cells/cell_0/fnode2/resample_0_1_7/conv2d/Conv2D_weights", "shape": [1, 1, 112, 64], "dtype": "float32", "quantization": {"dtype": "float16", "original_dtype": "float32"}}, {"name": "efficientdet/fpn_cells/cell_0/fnode2/resample_0_1_7/conv2d/Conv2D_bn_offset", "shape": [64], "dtype": "float32", "quantization": {"dtype": "float16", "original_dtype": "float32"}}, {"name": "efficientdet/block6a_dwconv/depthwise_weights", "shape": [5, 5, 672, 1], "dtype": "float32", "quantization": {"dtype": "float16", "original_dtype": "float32"}}, {"name": "efficientdet/block6a_dwconv/depthwise_bn_offset", "shape": [672], "dtype": "float32", "quantization": {"dtype": "float16", "original_dtype": "float32"}}, {"name": "efficientdet/block6a_project_conv/Conv2D_weights", "shape": [1, 1, 672, 192], "dtype": "float32", "quantization": {"dtype": "float16", "original_dtype": "float32"}}, {"name": "efficientdet/block6a_project_conv/Conv2D_bn_offset", "shape": [192], "dtype": "float32", "quantization": {"dtype": "float16", "original_dtype": "float32"}}, {"name": "efficientdet/block6b_expand_conv/Conv2D_weights", "shape": [1, 1, 192, 1152], "dtype": "float32", "quantization": {"dtype": "float16", "original_dtype": "float32"}}, {"name": "efficientdet/block6b_expand_conv/Conv2D_bn_offset", "shape": [1152], "dtype": "float32", "quantization": {"dtype": "float16", "original_dtype": "float32"}}, {"name": "efficientdet/block6b_dwconv/depthwise_weights", "shape": [5, 5, 1152, 1], "dtype": "float32", "quantization": {"dtype": "float16", "original_dtype": "float32"}}, {"name": "efficientdet/block6b_dwconv/depthwise_bn_offset", "shape": [1152], "dtype": "float32", "quantization": {"dtype": "float16", "original_dtype": "float32"}}, {"name": "efficientdet/block6b_project_conv/Conv2D_weights", "shape": [1, 1, 1152, 192], "dtype": "float32", "quantization": {"dtype": "float16", "original_dtype": "float32"}}, {"name": "efficientdet/block6b_project_conv/Conv2D_bn_offset", "shape": [192], "dtype": "float32", "quantization": {"dtype": "float16", "original_dtype": "float32"}}, {"name": "efficientdet/block6c_expand_conv/Conv2D_weights", "shape": [1, 1, 192, 1152], "dtype": "float32", "quantization": {"dtype": "float16", "original_dtype": "float32"}}, {"name": "efficientdet/fpn_cells/cell_2/fnode5/op_after_combine10/conv/separable_conv2d_weights", "shape": [1, 1, 64, 64], "dtype": "float32", "quantization": {"dtype": "float16", "original_dtype": "float32"}}, {"name": "efficientdet/block6c_expand_conv/Conv2D_bn_offset", "shape": [1152], "dtype": "float32", "quantization": {"dtype": "float16", "original_dtype": "float32"}}, {"name": "efficientdet/block6c_dwconv/depthwise_weights", "shape": [5, 5, 1152, 1], "dtype": "float32", "quantization": {"dtype": "float16", "original_dtype": "float32"}}, {"name": "efficientdet/block6c_dwconv/depthwise_bn_offset", "shape": [1152], "dtype": "float32", "quantization": {"dtype": "float16", "original_dtype": "float32"}}, {"name": "efficientdet/fpn_cells/cell_2/fnode5/op_after_combine10/conv/separable_conv2d_bn_offset", "shape": [64], "dtype": "float32", "quantization": {"dtype": "float16", "original_dtype": "float32"}}, {"name": "efficientdet/block6c_project_conv/Conv2D_weights", "shape": [1, 1, 1152, 192], "dtype": "float32", "quantization": {"dtype": "float16", "original_dtype": "float32"}}, {"name": "efficientdet/block6c_project_conv/Conv2D_bn_offset", "shape": [192], "dtype": "float32", "quantization": {"dtype": "float16", "original_dtype": "float32"}}, {"name": "efficientdet/block6d_expand_conv/Conv2D_weights", "shape": [1, 1, 192, 1152], "dtype": "float32", "quantization": {"dtype": "float16", "original_dtype": "float32"}}, {"name": "efficientdet/block6d_expand_conv/Conv2D_bn_offset", "shape": [1152], "dtype": "float32", "quantization": {"dtype": "float16", "original_dtype": "float32"}}, {"name": "efficientdet/block6d_dwconv/depthwise_weights", "shape": [5, 5, 1152, 1], "dtype": "float32", "quantization": {"dtype": "float16", "original_dtype": "float32"}}, {"name": "efficientdet/block6d_dwconv/depthwise_bn_offset", "shape": [1152], "dtype": "float32", "quantization": {"dtype": "float16", "original_dtype": "float32"}}, {"name": "efficientdet/block6d_project_conv/Conv2D_weights", "shape": [1, 1, 1152, 192], "dtype": "float32", "quantization": {"dtype": "float16", "original_dtype": "float32"}}, {"name": "efficientdet/block6d_project_conv/Conv2D_bn_offset", "shape": [192], "dtype": "float32", "quantization": {"dtype": "float16", "original_dtype": "float32"}}, {"name": "efficientdet/block7a_expand_conv/Conv2D_weights", "shape": [1, 1, 192, 1152], "dtype": "float32", "quantization": {"dtype": "float16", "original_dtype": "float32"}}, {"name": "efficientdet/block7a_expand_conv/Conv2D_bn_offset", "shape": [1152], "dtype": "float32", "quantization": {"dtype": "float16", "original_dtype": "float32"}}, {"name": "efficientdet/block7a_dwconv/depthwise_weights", "shape": [3, 3, 1152, 1], "dtype": "float32", "quantization": {"dtype": "float16", "original_dtype": "float32"}}, {"name": "efficientdet/block7a_dwconv/depthwise_bn_offset", "shape": [1152], "dtype": "float32", "quantization": {"dtype": "float16", "original_dtype": "float32"}}, {"name": "efficientdet/block7a_project_conv/Conv2D_weights", "shape": [1, 1, 1152, 320], "dtype": "float32", "quantization": {"dtype": "float16", "original_dtype": "float32"}}, {"name": "efficientdet/block7a_project_conv/Conv2D_bn_offset", "shape": [320], "dtype": "float32", "quantization": {"dtype": "float16", "original_dtype": "float32"}}, {"name": "efficientdet/fpn_cells/cell_0/fnode5/resample_0_2_10/conv2d/Conv2D_weights", "shape": [1, 1, 320, 64], "dtype": "float32", "quantization": {"dtype": "float16", "original_dtype": "float32"}}, {"name": "efficientdet/fpn_cells/cell_2/fnode6/op_after_combine11/conv/separable_conv2d_weights", "shape": [1, 1, 64, 64], "dtype": "float32", "quantization": {"dtype": "float16", "original_dtype": "float32"}}, {"name": "efficientdet/fpn_cells/cell_0/fnode5/resample_0_2_10/conv2d/Conv2D_bn_offset", "shape": [64], "dtype": "float32", "quantization": {"dtype": "float16", "original_dtype": "float32"}}, {"name": "efficientdet/fpn_cells/cell_0/fnode1/resample_0_2_6/conv2d/Conv2D_weights", "shape": [1, 1, 320, 64], "dtype": "float32", "quantization": {"dtype": "float16", "original_dtype": "float32"}}, {"name": "efficientdet/fpn_cells/cell_0/fnode1/resample_0_2_6/conv2d/Conv2D_bn_offset", "shape": [64], "dtype": "float32", "quantization": {"dtype": "float16", "original_dtype": "float32"}}, {"name": "efficientdet/resample_p6/conv2d/Conv2D_weights", "shape": [1, 1, 320, 64], "dtype": "float32", "quantization": {"dtype": "float16", "original_dtype": "float32"}}, {"name": "efficientdet/fpn_cells/cell_2/fnode6/op_after_combine11/conv/separable_conv2d_bn_offset", "shape": [64], "dtype": "float32", "quantization": {"dtype": "float16", "original_dtype": "float32"}}, {"name": "efficientdet/resample_p6/conv2d/Conv2D_bn_offset", "shape": [64], "dtype": "float32", "quantization": {"dtype": "float16", "original_dtype": "float32"}}, {"name": "efficientdet/fpn_cells/cell_0/fnode0/op_after_combine5/conv/separable_conv2d_weights", "shape": [1, 1, 64, 64], "dtype": "float32", "quantization": {"dtype": "float16", "original_dtype": "float32"}}, {"name": "efficientdet/fpn_cells/cell_0/fnode0/op_after_combine5/conv/separable_conv2d_bn_offset", "shape": [64], "dtype": "float32", "quantization": {"dtype": "float16", "original_dtype": "float32"}}, {"name": "efficientdet/fpn_cells/cell_0/fnode1/op_after_combine6/conv/separable_conv2d_weights", "shape": [1, 1, 64, 64], "dtype": "float32", "quantization": {"dtype": "float16", "original_dtype": "float32"}}, {"name": "efficientdet/fpn_cells/cell_0/fnode1/op_after_combine6/conv/separable_conv2d_bn_offset", "shape": [64], "dtype": "float32", "quantization": {"dtype": "float16", "original_dtype": "float32"}}, {"name": "efficientdet/fpn_cells/cell_0/fnode2/op_after_combine7/conv/separable_conv2d_weights", "shape": [1, 1, 64, 64], "dtype": "float32", "quantization": {"dtype": "float16", "original_dtype": "float32"}}, {"name": "efficientdet/fpn_cells/cell_0/fnode2/op_after_combine7/conv/separable_conv2d_bn_offset", "shape": [64], "dtype": "float32", "quantization": {"dtype": "float16", "original_dtype": "float32"}}, {"name": "efficientdet/fpn_cells/cell_0/fnode3/op_after_combine8/conv/separable_conv2d_weights", "shape": [1, 1, 64, 64], "dtype": "float32", "quantization": {"dtype": "float16", "original_dtype": "float32"}}, {"name": "efficientdet/fpn_cells/cell_0/fnode3/op_after_combine8/conv/separable_conv2d_bn_offset", "shape": [64], "dtype": "float32", "quantization": {"dtype": "float16", "original_dtype": "float32"}}, {"name": "efficientdet/fpn_cells/cell_0/fnode4/op_after_combine9/conv/separable_conv2d_weights", "shape": [1, 1, 64, 64], "dtype": "float32", "quantization": {"dtype": "float16", "original_dtype": "float32"}}, {"name": "efficientdet/fpn_cells/cell_0/fnode4/op_after_combine9/conv/separable_conv2d_bn_offset", "shape": [64], "dtype": "float32", "quantization": {"dtype": "float16", "original_dtype": "float32"}}, {"name": "efficientdet/fpn_cells/cell_0/fnode5/op_after_combine10/conv/separable_conv2d_weights", "shape": [1, 1, 64, 64], "dtype": "float32", "quantization": {"dtype": "float16", "original_dtype": "float32"}}, {"name": "efficientdet/fpn_cells/cell_0/fnode5/op_after_combine10/conv/separable_conv2d_bn_offset", "shape": [64], "dtype": "float32", "quantization": {"dtype": "float16", "original_dtype": "float32"}}, {"name": "efficientdet/fpn_cells/cell_0/fnode6/op_after_combine11/conv/separable_conv2d_weights", "shape": [1, 1, 64, 64], "dtype": "float32", "quantization": {"dtype": "float16", "original_dtype": "float32"}}, {"name": "efficientdet/fpn_cells/cell_0/fnode6/op_after_combine11/conv/separable_conv2d_bn_offset", "shape": [64], "dtype": "float32", "quantization": {"dtype": "float16", "original_dtype": "float32"}}, {"name": "efficientdet/fpn_cells/cell_0/fnode7/op_after_combine12/conv/separable_conv2d_weights", "shape": [1, 1, 64, 64], "dtype": "float32", "quantization": {"dtype": "float16", "original_dtype": "float32"}}, {"name": "efficientdet/fpn_cells/cell_0/fnode7/op_after_combine12/conv/separable_conv2d_bn_offset", "shape": [64], "dtype": "float32", "quantization": {"dtype": "float16", "original_dtype": "float32"}}, {"name": "efficientdet/fpn_cells/cell_1/fnode0/op_after_combine5/conv/separable_conv2d_weights", "shape": [1, 1, 64, 64], "dtype": "float32", "quantization": {"dtype": "float16", "original_dtype": "float32"}}, {"name": "efficientdet/fpn_cells/cell_1/fnode0/op_after_combine5/conv/separable_conv2d_bn_offset", "shape": [64], "dtype": "float32", "quantization": {"dtype": "float16", "original_dtype": "float32"}}, {"name": "efficientdet/fpn_cells/cell_1/fnode1/op_after_combine6/conv/separable_conv2d_weights", "shape": [1, 1, 64, 64], "dtype": "float32", "quantization": {"dtype": "float16", "original_dtype": "float32"}}, {"name": "efficientdet/fpn_cells/cell_2/fnode7/op_after_combine12/conv/separable_conv2d_weights", "shape": [1, 1, 64, 64], "dtype": "float32", "quantization": {"dtype": "float16", "original_dtype": "float32"}}, {"name": "efficientdet/fpn_cells/cell_1/fnode1/op_after_combine6/conv/separable_conv2d_bn_offset", "shape": [64], "dtype": "float32", "quantization": {"dtype": "float16", "original_dtype": "float32"}}, {"name": "efficientdet/fpn_cells/cell_1/fnode2/op_after_combine7/conv/separable_conv2d_weights", "shape": [1, 1, 64, 64], "dtype": "float32", "quantization": {"dtype": "float16", "original_dtype": "float32"}}, {"name": "efficientdet/fpn_cells/cell_1/fnode2/op_after_combine7/conv/separable_conv2d_bn_offset", "shape": [64], "dtype": "float32", "quantization": {"dtype": "float16", "original_dtype": "float32"}}, {"name": "efficientdet/fpn_cells/cell_1/fnode3/op_after_combine8/conv/separable_conv2d_weights", "shape": [1, 1, 64, 64], "dtype": "float32", "quantization": {"dtype": "float16", "original_dtype": "float32"}}, {"name": "efficientdet/fpn_cells/cell_2/fnode7/op_after_combine12/conv/separable_conv2d_bn_offset", "shape": [64], "dtype": "float32", "quantization": {"dtype": "float16", "original_dtype": "float32"}}, {"name": "efficientdet/fpn_cells/cell_1/fnode3/op_after_combine8/conv/separable_conv2d_bn_offset", "shape": [64], "dtype": "float32", "quantization": {"dtype": "float16", "original_dtype": "float32"}}, {"name": "efficientdet/fpn_cells/cell_1/fnode4/op_after_combine9/conv/separable_conv2d_weights", "shape": [1, 1, 64, 64], "dtype": "float32", "quantization": {"dtype": "float16", "original_dtype": "float32"}}, {"name": "efficientdet/fpn_cells/cell_1/fnode4/op_after_combine9/conv/separable_conv2d_bn_offset", "shape": [64], "dtype": "float32", "quantization": {"dtype": "float16", "original_dtype": "float32"}}, {"name": "efficientdet/fpn_cells/cell_1/fnode5/op_after_combine10/conv/separable_conv2d_weights", "shape": [1, 1, 64, 64], "dtype": "float32", "quantization": {"dtype": "float16", "original_dtype": "float32"}}, {"name": "efficientdet/fpn_cells/cell_1/fnode5/op_after_combine10/conv/separable_conv2d_bn_offset", "shape": [64], "dtype": "float32", "quantization": {"dtype": "float16", "original_dtype": "float32"}}, {"name": "efficientdet/fpn_cells/cell_1/fnode6/op_after_combine11/conv/separable_conv2d_weights", "shape": [1, 1, 64, 64], "dtype": "float32", "quantization": {"dtype": "float16", "original_dtype": "float32"}}, {"name": "efficientdet/class_net/class-0_4/separable_conv2d_weights", "shape": [1, 1, 64, 64], "dtype": "float32", "quantization": {"dtype": "float16", "original_dtype": "float32"}}, {"name": "efficientdet/fpn_cells/cell_1/fnode6/op_after_combine11/conv/separable_conv2d_bn_offset", "shape": [64], "dtype": "float32", "quantization": {"dtype": "float16", "original_dtype": "float32"}}, {"name": "efficientdet/fpn_cells/cell_1/fnode7/op_after_combine12/conv/separable_conv2d_weights", "shape": [1, 1, 64, 64], "dtype": "float32", "quantization": {"dtype": "float16", "original_dtype": "float32"}}, {"name": "efficientdet/fpn_cells/cell_1/fnode7/op_after_combine12/conv/separable_conv2d_bn_offset", "shape": [64], "dtype": "float32", "quantization": {"dtype": "float16", "original_dtype": "float32"}}, {"name": "efficientdet/fpn_cells/cell_2/fnode0/op_after_combine5/conv/separable_conv2d_weights", "shape": [1, 1, 64, 64], "dtype": "float32", "quantization": {"dtype": "float16", "original_dtype": "float32"}}, {"name": "efficientdet/class_net/class-0_4/separable_conv2d_bn_offset", "shape": [64], "dtype": "float32", "quantization": {"dtype": "float16", "original_dtype": "float32"}}, {"name": "efficientdet/fpn_cells/cell_2/fnode0/op_after_combine5/conv/separable_conv2d_bn_offset", "shape": [64], "dtype": "float32", "quantization": {"dtype": "float16", "original_dtype": "float32"}}, {"name": "efficientdet/class_net/class-0_3/separable_conv2d_weights", "shape": [1, 1, 64, 64], "dtype": "float32", "quantization": {"dtype": "float16", "original_dtype": "float32"}}, {"name": "efficientdet/class_net/class-0_3/separable_conv2d_bn_offset", "shape": [64], "dtype": "float32", "quantization": {"dtype": "float16", "original_dtype": "float32"}}, {"name": "efficientdet/class_net/class-1_3/separable_conv2d_weights", "shape": [1, 1, 64, 64], "dtype": "float32", "quantization": {"dtype": "float16", "original_dtype": "float32"}}, {"name": "efficientdet/class_net/class-1_3/separable_conv2d_bn_offset", "shape": [64], "dtype": "float32", "quantization": {"dtype": "float16", "original_dtype": "float32"}}, {"name": "efficientdet/fpn_cells/cell_2/fnode1/op_after_combine6/conv/separable_conv2d_weights", "shape": [1, 1, 64, 64], "dtype": "float32", "quantization": {"dtype": "float16", "original_dtype": "float32"}}, {"name": "efficientdet/fpn_cells/cell_2/fnode1/op_after_combine6/conv/separable_conv2d_bn_offset", "shape": [64], "dtype": "float32", "quantization": {"dtype": "float16", "original_dtype": "float32"}}, {"name": "efficientdet/class_net/class-2_3/separable_conv2d_weights", "shape": [1, 1, 64, 64], "dtype": "float32", "quantization": {"dtype": "float16", "original_dtype": "float32"}}, {"name": "efficientdet/class_net/class-2_3/separable_conv2d_bn_offset", "shape": [64], "dtype": "float32", "quantization": {"dtype": "float16", "original_dtype": "float32"}}, {"name": "efficientdet/class_net/class-1_4/separable_conv2d_weights", "shape": [1, 1, 64, 64], "dtype": "float32", "quantization": {"dtype": "float16", "original_dtype": "float32"}}, {"name": "efficientdet/class_net/class-0_2/separable_conv2d_weights", "shape": [1, 1, 64, 64], "dtype": "float32", "quantization": {"dtype": "float16", "original_dtype": "float32"}}, {"name": "efficientdet/class_net/class-0_2/separable_conv2d_bn_offset", "shape": [64], "dtype": "float32", "quantization": {"dtype": "float16", "original_dtype": "float32"}}, {"name": "efficientdet/class_net/class-1_2/separable_conv2d_weights", "shape": [1, 1, 64, 64], "dtype": "float32", "quantization": {"dtype": "float16", "original_dtype": "float32"}}, {"name": "efficientdet/class_net/class-1_4/separable_conv2d_bn_offset", "shape": [64], "dtype": "float32", "quantization": {"dtype": "float16", "original_dtype": "float32"}}, {"name": "efficientdet/class_net/class-1_2/separable_conv2d_bn_offset", "shape": [64], "dtype": "float32", "quantization": {"dtype": "float16", "original_dtype": "float32"}}, {"name": "efficientdet/fpn_cells/cell_2/fnode2/op_after_combine7/conv/separable_conv2d_weights", "shape": [1, 1, 64, 64], "dtype": "float32", "quantization": {"dtype": "float16", "original_dtype": "float32"}}, {"name": "efficientdet/fpn_cells/cell_2/fnode2/op_after_combine7/conv/separable_conv2d_bn_offset", "shape": [64], "dtype": "float32", "quantization": {"dtype": "float16", "original_dtype": "float32"}}, {"name": "efficientdet/class_net/class-2_2/separable_conv2d_weights", "shape": [1, 1, 64, 64], "dtype": "float32", "quantization": {"dtype": "float16", "original_dtype": "float32"}}, {"name": "efficientdet/class_net/class-2_2/separable_conv2d_bn_offset", "shape": [64], "dtype": "float32", "quantization": {"dtype": "float16", "original_dtype": "float32"}}, {"name": "efficientdet/class_net/class-0_1/separable_conv2d_weights", "shape": [1, 1, 64, 64], "dtype": "float32", "quantization": {"dtype": "float16", "original_dtype": "float32"}}, {"name": "efficientdet/class_net/class-0_1/separable_conv2d_bn_offset", "shape": [64], "dtype": "float32", "quantization": {"dtype": "float16", "original_dtype": "float32"}}, {"name": "efficientdet/class_net/class-1_1/separable_conv2d_weights", "shape": [1, 1, 64, 64], "dtype": "float32", "quantization": {"dtype": "float16", "original_dtype": "float32"}}, {"name": "efficientdet/class_net/class-2_4/separable_conv2d_weights", "shape": [1, 1, 64, 64], "dtype": "float32", "quantization": {"dtype": "float16", "original_dtype": "float32"}}, {"name": "efficientdet/class_net/class-1_1/separable_conv2d_bn_offset", "shape": [64], "dtype": "float32", "quantization": {"dtype": "float16", "original_dtype": "float32"}}, {"name": "efficientdet/fpn_cells/cell_2/fnode3/op_after_combine8/conv/separable_conv2d_weights", "shape": [1, 1, 64, 64], "dtype": "float32", "quantization": {"dtype": "float16", "original_dtype": "float32"}}, {"name": "efficientdet/fpn_cells/cell_2/fnode3/op_after_combine8/conv/separable_conv2d_bn_offset", "shape": [64], "dtype": "float32", "quantization": {"dtype": "float16", "original_dtype": "float32"}}]}]}